Number Recog Model/asl_number_classifier_v2.tflite (tflite, 213720 bytes, 8 tensors)

arith.constant f4 [10, 64]
0	0x3eca8883	0.39557275
1	0xbe9ca552	-0.3059488
2	0xbdefc807	-0.11708074
3	0x3e314c53	0.17314272
4	0x3e2cc367	0.16871415
5	0xbe594df6	-0.21221146
6	0x3e6cacfe	0.23112866
7	0x3dd855bf	0.1056323
8	0xbcd01372	-0.025399897
9	0x3e9fa744	0.311823
10	0xbe97754c	-0.29581678
11	0x3d70df0c	0.058806464
12	0x3e1ef964	0.15524822
13	0xbe239aea	-0.15977064
14	0xbdb34d99	-0.08755035
15	0xbe44b855	-0.19210942
16	0x3ce4d5d2	0.027933989
17	0xbedc2e5c	-0.4300412
18	0xbb9ce98f	-0.0047885845
19	0x3df86207	0.12128072
20	0x3e634bcb	0.22196881
21	0xbecb96cb	-0.39763483
22	0x3e98f592	0.29874855
23	0xbef3bbc0	-0.4760418
24	0xbf22a98f	-0.63539976
25	0xbea26e22	-0.3172465
26	0x3e768597	0.24074398
27	0xbeb2e777	-0.3494222
28	0xbea40fbe	-0.3204326
29	0x3e917920	0.28412724
30	0xbef7685e	-0.48321813
31	0xbdc75c78	-0.09734434
32	0xbeba6e06	-0.36412066
33	0xbe0293f3	-0.1275175
34	0xbdfcd21e	-0.12344764
35	0xbea3d7af	-0.3200049
36	0xbe2aa548	-0.16664612
37	0xbea9bf4b	-0.33153757
38	0x3e4d121a	0.20026436
39	0x3de6e40e	0.11273967
40	0x3e429eb5	0.19005854
41	0xbee2689b	-0.44220433
42	0x3ea33c60	0.31882
43	0x3da6ca22	0.081440225
44	0x3e273458	0.16328561
45	0xbe8ebee4	-0.27880013
46	0xbe8803f0	-0.26565504
47	0x3e58ca70	0.21170974
48	0xbd41f9a9	-0.047357235
49	0xbe7e007a	-0.2480487
50	0xbeb3d4b4	-0.35123217
51	0xbe34e4c9	-0.176654
52	0x3d8ee5dd	0.06977437
53	0xbf082cd0	-0.5319338
54	0xbda74d3e	-0.0816903
55	0x3d696041	0.05697656
56	0xbd5a6057	-0.053314533
57	0x3edee6ff	0.4353561
58	0x3de5cd16	0.11220758
59	0xbc8bbb58	-0.017057106
60	0x3ecfb1fd	0.40565482
61	0x3e9c6e47	0.30552885
62	0xbd2050c2	-0.039139517
63	0x3d9d39a6	0.07677011
64	0x3e1419a6	0.14462909
65	0x3e87af9b	0.26501164
66	0x3e884ecb	0.26622614
67	0xbe62c15c	-0.22144073
68	0x3e858d8d	0.26084557
69	0xbe9c16c0	-0.30486107
70	0x3d9ce6e7	0.076612286
71	0xbe8e44e8	-0.27786946
72	0x3db38f08	0.087675154
73	0x3ec0cb41	0.3765507
74	0x3bf1ba4f	0.007376946
75	0x3e8d1a91	0.2755933
76	0xbcab703a	-0.020927537
77	0xbe0f6841	-0.14004613
78	0x3d2087e5	0.0391921
79	0xbeccfc07	-0.40036032
80	0x3ddd9823	0.108200334
81	0xbec805dd	-0.39066973
82	0xbe0c6e55	-0.13713963
83	0x3de62ceb	0.11239036
84	0xbe092e8d	-0.13396664
85	0xbeb18fe5	-0.34680095
86	0x3c9d9433	0.019235706
87	0x3dcad467	0.09903794
88	0x3da63a2b	0.081165634
89	0xbcbca25e	-0.023026641
90	0x3eacb0f2	0.3372875
91	0xbda6db54	-0.08147302
92	0xbe1a6368	-0.15076983
93	0x3e55c61f	0.20876358
94	0xbeb99d3f	-0.36252782
95	0x3c7ed0e4	0.015552733
96	0xbb8c97b7	-0.0042905468
97	0xbe0bb2a9	-0.13642372
98	0x3e7fe232	0.2498863
99	0xbe8e76fa	-0.27825147
100	0x3f00ec4a	0.5036055
101	0x3e9af06b	0.3026155
102	0xbde3d1b3	-0.11123981
103	0xbf266334	-0.6499512
104	0xbdc79906	-0.09745984
105	0x3d42a855	0.047523815
106	0xbe891477	-0.26773426
107	0xbe9ac929	-0.30231598
108	0xbddbd504	-0.10733989
109	0x3ddf213c	0.10895011
110	0xbe9d932f	-0.30776355
111	0x3da61631	0.081097014
112	0x3e223c45	0.15843304
113	0x3e55ddde	0.20885417
114	0x3e327c63	0.17430262
115	0xbf3386a3	-0.70127314
116	0x3ec413d6	0.38296384
117	0x3d00bfa6	0.03143277
118	0xbd1d233e	-0.038363688
119	0x3cadf676	0.021235686
120	0xbd8a7af1	-0.067617305
121	0x3d79d43c	0.060993418
122	0x3e98caa0	0.2984209
123	0xbec4575b	-0.38347897
124	0xbe9bf7cf	-0.304625
125	0x3dbbd7b5	0.09172002
126	0xbd486a9b	-0.048929792
127	0x3e67ca28	0.2263571
128	0x3d932a84	0.071858436
129	0x3e91b414	0.284577
130	0x3e8dca8c	0.27693594
131	0x3e13c4c8	0.14430535
132	0x3dd1cf9b	0.10244676
133	0xbebd782d	-0.3700575
134	0x3ea2c7d5	0.31793085
135	0xbef79924	-0.48359025
136	0x3e6761c7	0.22595893
137	0x3e978940	0.295969
138	0x3dee56cf	0.11637651
139	0x3e4f6bc4	0.20255953
140	0xbe983034	-0.29724276
141	0xbe732c63	-0.23747401
142	0x3ea33938	0.31879592
143	0xbefb1df3	-0.49046287
144	0x3d9dfd70	0.07714355
145	0x3d2f7a61	0.04284132
146	0xbe090d4a	-0.13383976
147	0x3e29a2f7	0.16566072
148	0xbe111e0b	-0.14171617
149	0x3d63f1ad	0.0556504
150	0x3e384612	0.1799548
151	0x3dcd06c9	0.1001106
152	0x3e509447	0.20369063
153	0xbededfed	-0.43530217
154	0xbdb92780	-0.09040737
155	0xbe75ddee	-0.2401044
156	0xbd788b1d	-0.060679544
157	0xbec89d70	-0.39182615
158	0x3d8e62c3	0.06952431
159	0x3e3e585f	0.18588398
160	0xbe9f66b4	-0.31133044
161	0x3e237c45	0.15965374
162	0xbd9e0ea4	-0.07717636
163	0x3dd704f5	0.10498992
164	0xbe6d8783	-0.23196225
165	0xbe2f4169	-0.17114796
166	0xbd844d02	-0.064600006
167	0xbe0489d2	-0.129432
168	0x3e53d768	0.2068764
169	0xbc094b3d	-0.008379755
170	0x3d829390	0.063758016
171	0xbe70a0b9	-0.23498811
172	0x3ea07d47	0.3134558
173	0xbef7d01f	-0.4840097
174	0xbf12c25d	-0.57327825
175	0x3e027b5a	0.12742367
176	0x3e454ce7	0.19267617
177	0xbcdad801	-0.026714327
178	0x3e2ff2a2	0.17182401
179	0xbe72d6fd	-0.23714824
180	0xbe16dc5d	-0.147325
181	0xbeb6d2ae	-0.3570761
182	0xbd8b403f	-0.06799363
183	0x3dcbadbb	0.09945246
184	0x3df99c78	0.12188047
185	0xbf0429e2	-0.5162641
186	0xbe4c2594	-0.1993621
187	0xbf0fb769	-0.56139237
188	0xbdd454ae	-0.10367714
189	0xbe89b2f9	-0.26894358
190	0xbf0a2732	-0.5396606
191	0x3debc38a	0.115119055
192	0x3d53ea43	0.05173708
193	0xbeb1314c	-0.34607923
194	0x3e17b0ab	0.14813487
195	0x3e6e94ab	0.232989
196	0x3e680c8a	0.22661033
197	0x3e975069	0.29553536
198	0x3dd922e3	0.10602357
199	0xbc0743a8	-0.008255877
200	0x3e949796	0.290219
201	0x3dc43bb5	0.09581701
202	0x3e39903d	0.18121429
203	0x3e3e2ba4	0.18571335
204	0xbea7cb31	-0.3277221
205	0xbe09fbd8	-0.13474977
206	0x3e9efb02	0.3105088
207	0xbe95bf28	-0.29247403
208	0xbe315242	-0.17316535
209	0x3e95caca	0.29256278
210	0x3dbb2611	0.0913812
211	0x3e3e391d	0.18576474
212	0x3dbd89a1	0.09254766
213	0x3eb663f8	0.35623145
214	0xbe11dd7f	-0.1424465
215	0x3e715429	0.23567261
216	0xbeb41855	-0.35174814
217	0xbe671781	-0.2256756
218	0x3e5a006f	0.21289228
219	0xbf1840aa	-0.5947367
220	0xbc84e84d	-0.01622405
221	0x3e130a4a	0.14359394
222	0x3be0cd4d	0.0068604113
223	0xbe7517b5	-0.23934825
224	0xbdb386d4	-0.08765951
225	0x3b0388f7	0.002007065
226	0x3e81d364	0.2535659
227	0xbcb12721	-0.021625103
228	0xbe3f803f	-0.18701266
229	0xbeda3577	-0.42618915
230	0xbd72d749	-0.059287343
231	0xbe4e0962	-0.20120767
232	0x3d7167da	0.05893693
233	0xbed80c2d	-0.4219679
234	0xbd92f1ad	-0.07175002
235	0xbe71766d	-0.23580332
236	0x3e82a508	0.25516534
237	0xbf0da68a	-0.55332243
238	0xbe83d651	-0.25749448
239	0xbeb31c05	-0.34982315
240	0x3e917e30	0.28416586
241	0xbe8a4641	-0.27006724
242	0xbd2d3a6b	-0.04229204
243	0xbb8e2d8d	-0.004338926
244	0xbc661961	-0.014044137
245	0x3e741b17	0.23838459
246	0xbe86794f	-0.26264426
247	0x3d623077	0.055222
248	0xbea2adfc	-0.31773365
249	0xbf09a018	-0.5375991
250	0xbeabb9a4	-0.3354007
251	0x3db2a6a2	0.08723189
252	0xbe974234	-0.29542696
253	0xbea75a66	-0.32686156
254	0xbed39d1b	-0.413308
255	0xbe130155	-0.14355977

arith.constant1 f4 [64, 128]
0	0xbb87d5ba	-0.0041453512
1	0x3e813e6e	0.25242943
2	0xbe040e06	-0.12895975
3	0xbe3969e1	-0.18106796
4	0xbea6f5d9	-0.32609442
5	0xbb4de39d	-0.0031416186
6	0x3e163c6c	0.14671487
7	0x3eb03fa9	0.3442357
8	0x3cac4bba	0.021032203
9	0x3bdd0b77	0.0067457515
10	0x3bad8da5	0.0052964264
11	0x3d68c81c	0.056831464
12	0xbe1d1061	-0.1533828
13	0xbcc02165	-0.023453424
14	0xbe061ba4	-0.13096482
15	0xbe12897e	-0.14310262
16	0x3e83348e	0.25626034
17	0xbef73ae6	-0.48287123
18	0x3db55960	0.088549376
19	0x3cfd16ab	0.030894598
20	0x3e9aa728	0.30205655
21	0x3e572a94	0.21012336
22	0xbe50e778	-0.20400798
23	0x3dd65666	0.10465698
24	0xbe380f1c	-0.17974514
25	0xbd91153d	-0.07084129
26	0x3ea8ee4d	0.3299431
27	0x3d924360	0.07141757
28	0xbceb29e6	-0.028706502
29	0xbedd9fb1	-0.43285897
30	0xbd43e957	-0.047829952
31	0x3e3008ba	0.17190829
32	0xbe60f888	-0.21969807
33	0xbd15eb27	-0.036601212
34	0xbe2a6485	-0.16639908
35	0xbe6b314b	-0.22968023
36	0x3c926a62	0.017872993
37	0xbe6eb68e	-0.23311827
38	0x3ca7ad16	0.020468276
39	0x3cb77dce	0.022398856
40	0x3db47b0d	0.088125326
41	0x3d5c84e5	0.053837676
42	0xbdee49db	-0.116351806
43	0xbd8400aa	-0.06445439
44	0x3dc8d20c	0.09805688
45	0xbdfee679	-0.12446303
46	0xbec3634e	-0.381617
47	0x3e2abcb4	0.16673547
48	0xbd4b2aad	-0.049601246
49	0x3d94b7e4	0.07261637
50	0xbc95770e	-0.018245246
51	0x3d2d56fe	0.04231929
52	0x3c55bba4	0.013045225
53	0x3db5c0c0	0.08874655
54	0xbdd01c45	-0.10161642
55	0x3e5edd10	0.21764016
56	0x3e5cbcd3	0.21556406
57	0x3e9121b5	0.2834603
58	0x3d05c792	0.03266103
59	0xbe246042	-0.16052344
60	0xbd7b650d	-0.061375666
61	0x3e8ebbfe	0.27877802
62	0x3d738495	0.059452612
63	0x3e3f8dbf	0.18706416
64	0x3e461d9b	0.19347231
65	0x3ea2d2cc	0.3180145
66	0x3de22a97	0.110432796
67	0xbef18386	-0.47170657
68	0xbdc49d21	-0.096002825
69	0xbba5cfa9	-0.0050601554
70	0x3caf190a	0.021374244
71	0x3dd39056	0.10330264
72	0xbd817522	-0.063211694
73	0x3e9adbc0	0.3024578
74	0xbe6bc397	-0.2302383
75	0xbd8c7376	-0.0685796
76	0xbe8a2dcb	-0.26988062
77	0x3cff5614	0.031168975
78	0x3e0b7781	0.13619806
79	0xbe7869cb	-0.24259107
80	0xbdbb9ca7	-0.091607384
81	0x3db2f982	0.08738996
82	0x3daaa29e	0.08331798
83	0x3dbfd9c5	0.09367708
84	0x3ce05cb0	0.027387947
85	0x3d8fd0d8	0.07022256
86	0x3eb9af52	0.3626657
87	0x3dc8844c	0.097908586
88	0xbea8be85	-0.32957855
89	0x3e854e70	0.26036406
90	0xbe2c3ae7	-0.16819344
91	0xbe57cdda	-0.2107462
92	0xbcd36869	-0.025806623
93	0x3c0a5ed7	0.008445463
94	0xbd9b4be0	-0.075828314
95	0xbccb5f79	-0.024825798
96	0x3ea4ae63	0.32164297
97	0x3e289162	0.16461709
98	0x3e40e09f	0.18835686
99	0x3e6663d4	0.22499019
100	0x3cce7c55	0.02520577
101	0xbeb6da1f	-0.35713288
102	0x3e40bbac	0.18821591
103	0xbe6d7ee4	-0.23192936
104	0xbe25a161	-0.16174842
105	0x3e93aceb	0.28842863
106	0x3e997070	0.29968596
107	0x3dbfb338	0.09360355
108	0x3e21155e	0.15730807
109	0x3c61fa79	0.0137926275
110	0xbec15177	-0.37757465
111	0xbd42afa7	-0.047530796
112	0x3ec82090	0.39087343
113	0x3e121694	0.14266425
114	0xbe176a87	-0.1478673
115	0x3e843334	0.25820315
116	0xbd1bbb9a	-0.038020708
117	0xbd1bbb15	-0.038020212
118	0xbcc0d2d6	-0.023538034
119	0xbe2f6ec5	-0.17132099
120	0x3e9f8914	0.3115927
121	0x3e08fbd4	0.13377315
122	0xbe53a174	-0.20667058
123	0xbe95dfb0	-0.29272223
124	0x3c42503c	0.01185995
125	0xbe1800c1	-0.14844038
126	0x3e64d3c9	0.22346415
127	0x3dbbf478	0.09177488
128	0xbe94d6a8	-0.2907002
129	0xbd2b8d12	-0.041882582
130	0xbe9679d6	-0.29389828
131	0x3d77b01e	0.060470693
132	0xbddb0546	-0.10694365
133	0xbe0d8dc9	-0.13823618
134	0xbe226f0b	-0.15862672
135	0x3d65a197	0.056062307
136	0x3cda862b	0.026675304
137	0xbed38f26	-0.4132015
138	0xbb4a0ed8	-0.0030831601
139	0x3d447ace	0.04796868
140	0xbbecd723	-0.0072277947
141	0xbe3618ce	-0.177829
142	0x3d410934	0.047127917
143	0x3d5e2969	0.05423871
144	0x3e7c0200	0.24610138
145	0xbdee03f8	-0.11621851
146	0xbe9ac5c1	-0.30229
147	0xbe1bc4b1	-0.1521175
148	0x3d8cdb22	0.06877734
149	0xbe0debbb	-0.13859455
150	0x3dc7aeb2	0.09750117
151	0x3e28d6c8	0.16488183
152	0xbddace0d	-0.10683832
153	0xbce5092d	-0.027958477
154	0xbda03e49	-0.0782438
155	0xbd53d48c	-0.051716372
156	0xbe1a61c1	-0.15076353
157	0x3dac291e	0.0840628
158	0xbd125b07	-0.03573134
159	0x3dd60370	0.104498744
160	0x3de9188e	0.113816366
161	0xbddf8c73	-0.109154604
162	0xbe98a080	-0.29809952
163	0xbe5ad4c6	-0.21370229
164	0x3e89bd99	0.26902464
165	0x3e2548f6	0.16141114
166	0xbc8585ba	-0.016299117
167	0x3e0be3f6	0.13661179
168	0xbe1adff8	-0.151245
169	0xbcbe5bd4	-0.023237146
170	0x3de07096	0.10958974
171	0xbd45953c	-0.048238024
172	0x3df31a01	0.11870194
173	0xbdb0fee2	-0.08642365
174	0xbdb38885	-0.087662734
175	0x3d11ab43	0.03556372
176	0xbd396058	-0.045257896
177	0xbd923259	-0.07138509
178	0xbe76c799	-0.24099578
179	0xbe407151	-0.18793227
180	0x3d401d17	0.046902742
181	0xbe9d1e89	-0.3068736
182	0x3e9e6a55	0.309405
183	0xbdbdfe42	-0.092770115
184	0x3d90e924	0.07075718
185	0x3e8bc34b	0.27297434
186	0x3e4fa243	0.20276742
187	0x3d3c0a8b	0.045908492
188	0x3db3a681	0.087719925
189	0xbe2c18b9	-0.16806306
190	0x3e425dde	0.1898112
191	0x3cb75868	0.022381023
192	0x3e4964ed	0.19667406
193	0x3d8c0e86	0.068387076
194	0x3e4bcb9b	0.19901888
195	0x3d4e0f9d	0.05030786
196	0x3cc52ec7	0.024070157
197	0xbe609283	-0.2193089
198	0xbe90622e	-0.28199905
199	0xbe7c9e78	-0.24669826
200	0xbd4badc6	-0.04972627
201	0xbea015d7	-0.31266662
202	0x3dc4906f	0.09597861
203	0x3d9990f2	0.07498349
204	0x3e92682b	0.285951
205	0x3dad9993	0.084765576
206	0x3dad9569	0.08475763
207	0xbe0fe212	-0.14051083
208	0xbe40ef9b	-0.18841402
209	0x3d4d1a91	0.050074164
210	0x3d572bc3	0.05253197
211	0xbde221d2	-0.11041607
212	0x3e3f609c	0.18689197
213	0xbd8771d9	-0.066135116
214	0x3e4dc960	0.2009635
215	0x3e219ab1	0.15781666
216	0xbd06871d	-0.032843698
217	0xbd8f1735	-0.06986848
218	0x3e75d2dd	0.24006219
219	0x3e7efd6e	0.24901363
220	0x3d02b7c6	0.03191354
221	0xbc7d58d4	-0.015463073
222	0xbd5d9f45	-0.05410697
223	0x3d8d1955	0.06889597
224	0xbe3c5148	-0.18390381
225	0x3e85c82e	0.26129287
226	0xbe04e6bf	-0.12978648
227	0xbdcb75f0	-0.09934604
228	0xbd6fffeb	-0.05859367
229	0xbdccc7ae	-0.099990234
230	0x3d941ae2	0.0723169
231	0xbd58b884	-0.052910343
232	0x3ed4faea	0.41597682
233	0x3eb33797	0.3500335
234	0x3e3889b6	0.18021283
235	0xbda0655f	-0.07831835
236	0x3dc7821b	0.097416125
237	0xbc1d2241	-0.009590686
238	0x3e30e9ca	0.17276683
239	0xbe603110	-0.21893716
240	0x3de67afe	0.11253928
241	0x3ece572b	0.4030088
242	0xbd08dbc9	-0.03341273
243	0x3e3fbbcd	0.18723984
244	0xbcef3fb9	-0.02920519
245	0x3d97329a	0.07382698
246	0x3cf716c6	0.030162226
247	0xbecd0a8f	-0.40047118
248	0x3be14627	0.006874818
249	0x3ea88d08	0.32920098
250	0x3d899e91	0.06719697
251	0xbd6dfe63	-0.05810393
252	0x3e76ca9d	0.24100728
253	0xbec59e1d	-0.38597193
254	0x3d3836d3	0.04497416
255	0xbe4cd9ae	-0.20004913

arith.constant2 f4 [128, 256]
0	0xbd089e5a	-0.03335414
1	0x3e4117de	0.18856761
2	0x3e730802	0.23733523
3	0xbd2a25a4	-0.041539803
4	0x3dd91248	0.1059919
5	0xbd3e4b98	-0.04645881
6	0xbcc85ee6	-0.024459314
7	0x3d4a2858	0.04935488
8	0xbc3d8d00	-0.011569262
9	0xbc89588d	-0.016765857
10	0xbc857f00	-0.01629591
11	0x3ea4a25c	0.3215512
12	0xbe861a02	-0.26191717
13	0xbe8557f9	-0.2604368
14	0x3dcef06c	0.101044506
15	0x3eef6adf	0.46761224
16	0x3e7b81bf	0.24561213
17	0xbc85c5a0	-0.016329587
18	0x3b314000	0.0027046204
19	0x3bb07c70	0.005385928
20	0x3ca42230	0.020035833
21	0x3d9bbbec	0.07604203
22	0xbe898064	-0.26855767
23	0x3df3a33c	0.11896369
24	0xbe4db004	-0.20086676
25	0xbcb7fd54	-0.022459663
26	0x3dcb61b8	0.09930748
27	0x3da6157c	0.081095666
28	0x3ceb695f	0.028736768
29	0x3bc40300	0.005981803
30	0x3d84969c	0.06474039
31	0xbcbbeca0	-0.02293998
32	0xbd9e7b95	-0.07738415
33	0xbdc46666	-0.095898435
34	0xbdab8c5c	-0.08376381
35	0xbd2bbd58	-0.04192862
36	0x3d34c980	0.044137478
37	0xbe56f249	-0.20990862
38	0xbcb5d939	-0.022198306
39	0x3def2f5c	0.11678955
40	0xbe2c22ce	-0.16810152
41	0xbd76efac	-0.060287163
42	0xbe6d77f9	-0.23190297
43	0x3e2f3e78	0.17113674
44	0x3d785e11	0.060636584
45	0x3c2107d4	0.0098285265
46	0xbca05d31	-0.019575687
47	0x3dc658f0	0.09684932
48	0x3d902024	0.0703738
49	0xbe0a2774	-0.13491613
50	0x3e2bc6bb	0.16775028
51	0x3d5941ce	0.053041272
52	0xbe84bf7a	-0.25927335
53	0xbc41d194	-0.0118297525
54	0xbdf6490f	-0.120256536
55	0xbdb91abf	-0.090383045
56	0x3da3e8a4	0.08003357
57	0xbd93c7cf	-0.07215845
58	0xbd7bf127	-0.061509278
59	0x3d34b7c6	0.044120573
60	0xbe4dd6e8	-0.20101511
61	0x3bca6021	0.0061760102
62	0xbd08e4d1	-0.03342134
63	0x3dab2fc1	0.08358718
64	0x3d901fbc	0.07037303
65	0xbd7de1fe	-0.0619831
66	0xbd9b8a84	-0.07594779
67	0xbd96bed0	-0.07360613
68	0x3de1bbc4	0.110221416
69	0x3daf2268	0.08551484
70	0x3e25d5f6	0.16194901
71	0xbe11af0c	-0.14226931
72	0x3cb76b00	0.022389889
73	0xbde8292a	-0.113359764
74	0xbc742ac6	-0.014902776
75	0xbd0e37d8	-0.034721226
76	0x3da0f216	0.07858674
77	0x3dc5a961	0.09651447
78	0x3da0a253	0.07843461
79	0x3bb34d00	0.0054718256
80	0x3d6a5cea	0.057217516
81	0x3d11aa6e	0.035562925
82	0xbded0e03	-0.11574938
83	0xbd4728c0	-0.048622847
84	0xbdd1b64c	-0.102398485
85	0xbdef2c61	-0.116783865
86	0xbe92224e	-0.28541797
87	0x3d8867c4	0.06660417
88	0xbe8e4fbd	-0.2779521
89	0xbe957904	-0.2919389
90	0x3d326e78	0.043562382
91	0xbe746676	-0.23867211
92	0x3e9d13d3	0.30679187
93	0xbdb70eeb	-0.08938392
94	0x3d7b27d5	0.061317284
95	0x3dec1a08	0.115284026
96	0xbda56471	-0.08075798
97	0xbc8870b0	-0.016655296
98	0x3e096d82	0.1342068
99	0xbd8b362b	-0.06797441
100	0xbd002e25	-0.031294007
101	0xbd9419ab	-0.07231458
102	0xbd9d92ca	-0.076940134
103	0x3d41a71f	0.04727852
104	0xbd62f0b8	-0.05540535
105	0x3e552778	0.20815837
106	0xbd581ec2	-0.052763708
107	0x3c086f17	0.008327267
108	0x3d489640	0.048971415
109	0xbde84021	-0.113403566
110	0x3d40e162	0.04708994
111	0xbd958ab9	-0.0730185
112	0xbe9aa763	-0.3020583
113	0x3e14df67	0.14538346
114	0xbccd08aa	-0.025028545
115	0xbe1ef618	-0.15523565
116	0xbe53024f	-0.2060635
117	0x3dd0d378	0.101965845
118	0xbd90e250	-0.07074416
119	0xbd3af430	-0.04564303
120	0x3d38e0f9	0.045136426
121	0xbe73b074	-0.2379778
122	0xbcce60f0	-0.025192708
123	0xbd9899ff	-0.074512474
124	0xbb975c80	-0.004619181
125	0xbd6ba324	-0.05752863
126	0xbe4fe48f	-0.20302032
127	0x3d4516e6	0.04811754
128	0x3d2cd374	0.042193845
129	0xbdf210ff	-0.11819648
130	0x3d91b3d5	0.07114378
131	0x3d48d49e	0.049030893
132	0x3deadd78	0.11468023
133	0xbd499309	-0.04921249
134	0xbdba2739	-0.090895124
135	0xbd8fdae4	-0.07024172
136	0x3e97b05b	0.29626736
137	0xbd91fc18	-0.07128161
138	0xbd1a572a	-0.037680782
139	0x3d4cd6ec	0.050009653
140	0xbd8d9504	-0.06913188
141	0x3d4c8739	0.049933646
142	0xbd8c6b74	-0.068564326
143	0x3dd4e783	0.1039572
144	0x3d2ecbaf	0.042674717
145	0x3ce5c4e2	0.028047983
146	0x3d985f60	0.07440066
147	0xbcbd23db	-0.023088386
148	0xbef65d54	-0.4811808
149	0x3e1c0d26	0.1523939
150	0xbe49aa57	-0.19693886
151	0xbc56f8a1	-0.013120801
152	0xbe8372f0	-0.25673628
153	0x3e9d31de	0.30702108
154	0x3e7aa00e	0.24475119
155	0x3d2710b0	0.0407874
156	0xbdb22d49	-0.08700044
157	0xba6cda3f	-0.0009035207
158	0x3dc467d3	0.095901154
159	0xbcc84583	-0.024447208
160	0x3d2e4b3c	0.042552218
161	0xbdc6a084	-0.09698585
162	0xbe42db7c	-0.19029039
163	0x3dc7b597	0.097514324
164	0x3de02f99	0.109465785
165	0x3d377e91	0.044798438
166	0xbdd8989e	-0.105759844
167	0x3b867b30	0.0041040406
168	0x3e9c6b4c	0.3055061
169	0x3d45ff92	0.048339434
170	0x3e4b681b	0.19863932
171	0x3dd2f9ad	0.10301528
172	0xbdcf5f20	-0.101255655
173	0x3da996b5	0.08280698
174	0xbeaaa58d	-0.3332943
175	0x3e164d47	0.14677916
176	0xbd5b2168	-0.053498656
177	0xbe0046fe	-0.12527081
178	0xbd53a5f4	-0.051671937
179	0xbd820a3c	-0.06349608
180	0xbea6ae61	-0.32554916
181	0x3e265edb	0.16247122
182	0xbc086e10	-0.008327022
183	0xbc0f3a02	-0.0087418575
184	0xbe45e9cc	-0.19327468
185	0xbe9c691e	-0.30548948
186	0x3b87c000	0.004142761
187	0x3c59b020	0.01328662
188	0xbe303bc7	-0.17210303
189	0x3d3bb65c	0.04582821
190	0xbbd11e6d	-0.006381801
191	0x3df9d5a7	0.12198954
192	0x3e9cfbf1	0.30660966
193	0x3c713da0	0.014724165
194	0xbd785413	-0.060627054
195	0x3dedf870	0.11619651
196	0x3d193dc9	0.03741244
197	0xbe2798e4	-0.16366917
198	0x3eaf4711	0.34233907
199	0x3c3bec3c	0.011469897
200	0x3dc110ee	0.09427057
201	0x3e7fdcf7	0.24986635
202	0xbb2cd60a	-0.0026372694
203	0x3debab14	0.1150724
204	0xbdf0959b	-0.11747285
205	0xbc726140	-0.014793694
206	0xbce73cec	-0.028227292
207	0xbda23e82	-0.07922079
208	0xbe3f19a0	-0.18662119
209	0xbc5e942c	-0.013585132
210	0xbe1aaf22	-0.1510587
211	0xbe0da626	-0.13832912
212	0xbdcd6109	-0.100282736
213	0x3e1cbefa	0.15307227
214	0xbe1948c8	-0.1496917
215	0x3d930622	0.07178904
216	0x3d29b161	0.041428927
217	0x3e4c10cc	0.19928282
218	0xbda51a61	-0.08061672
219	0x3ddcf11c	0.107881755
220	0xbd408989	-0.047006164
221	0xbca887a0	-0.020572484
222	0x3dc32aac	0.095296234
223	0xbe8f2531	-0.27958062
224	0x3dec8a68	0.115498364
225	0xbd7e2827	-0.06205001
226	0xbca54e88	-0.020179048
227	0xbdcb01dc	-0.09912464
228	0xbd9539d4	-0.072864205
229	0xbde307e4	-0.110854894
230	0xbda9f4d5	-0.08298651
231	0xbd6602b4	-0.05615492
232	0x3d492f08	0.049117118
233	0x3d8d263a	0.06892057
234	0x3c33852c	0.010957044
235	0x3d629d78	0.055325955
236	0x3d5a358f	0.053273734
237	0x3dfe9e89	0.12432582
238	0xbd91dda1	-0.071223505
239	0xbc5423c8	-0.012947984
240	0x3e11c035	0.14233477
241	0xbcf3c476	-0.029756766
242	0xbe0c08d0	-0.13675237
243	0x3e2e27ad	0.17007323
244	0xbec39461	-0.38199142
245	0xbe9ab5ca	-0.3021682
246	0xbcde9ed0	-0.027175337
247	0x3e964135	0.29346624
248	0xbe029038	-0.12750328
249	0xbc98eb26	-0.018666815
250	0xbea9ce99	-0.33165434
251	0x3ea1375f	0.31487557
252	0x3d4be070	0.049774587
253	0x3c8ff1ed	0.017571414
254	0xbe586927	-0.21133862
255	0x3d80613d	0.06268547

arith.constant3 f4 [10]
0	0x3e1fd3cc	0.15608138
1	0x3c01b41d	0.0079164775
2	0xb96131aa	-0.00021476173
3	0xbd42f362	-0.04759539
4	0xbde58905	-0.11207775
5	0xbea4b379	-0.32168177
6	0x3e6fef25	0.2343107
7	0xbe0b5995	-0.13608392
8	0xbe807a2d	-0.25093213
9	0xbeddf5ec	-0.43351686

arith.constant4 f4 [64]
0	0xbe7f777e	-0.24947926
1	0xbe2334a0	-0.15938044
2	0xbe113bc1	-0.1418295
3	0xbcd3c060	-0.025848567
4	0x3d912421	0.07086969
5	0x3d69ed80	0.057111263
6	0x3e84e422	0.25955302
7	0x3d1e7819	0.038688753
8	0x3e4d939b	0.20075838
9	0x3de8dbb2	0.113700286
10	0xbe15642e	-0.14588997
11	0x3d10d538	0.03535959
12	0x3d3d829d	0.04626714
13	0x3d2012be	0.039080374
14	0x3def17ff	0.11674499
15	0xbca47b7c	-0.020078413
16	0x3e9022c0	0.28151512
17	0xbc236adf	-0.0099742105
18	0x3cfc7d23	0.030821389
19	0x3e1ac947	0.15115844
20	0x3cddd75d	0.027080232
21	0xbda15a1f	-0.07878517
22	0x3d78dd7e	0.060758106
23	0xbe43dfd2	-0.1912835
24	0xbd9d00d4	-0.076661736
25	0xbd98be51	-0.07458175
26	0x3dbb4613	0.09144225
27	0x3d3d1177	0.046159234
28	0xbe02058f	-0.12697433
29	0xbce42a09	-0.027852075
30	0xbca8438a	-0.020540018
31	0xbe08205a	-0.13293591
32	0x3d0d00b4	0.0344245
33	0x3e1cd695	0.15316232
34	0xbd4d1403	-0.050067913
35	0xbdda133f	-0.10648202
36	0xbdb0d43f	-0.08634233
37	0x3ad3ce76	0.0016159553
38	0x3eae8a75	0.3409001
39	0xbe4ba540	-0.19887257
40	0x3e8ae533	0.2712799
41	0xbc740dc1	-0.014895857
42	0x3e4d8017	0.20068394
43	0xbd623de9	-0.055234823
44	0x3df99301	0.12186242
45	0x3b9b35a7	0.0047366205
46	0xbde9a8d5	-0.11409155
47	0x3eaf92b8	0.34291625
48	0x3e336d99	0.17522277
49	0xbd172c76	-0.036907636
50	0xbd804650	-0.06263411
51	0xbe0af6fe	-0.13570783
52	0x3df12f00	0.11776543
53	0xbd227b4e	-0.039668374
54	0x3e833791	0.2562833
55	0x3e7dca0c	0.24784106
56	0x3da06caf	0.0783323
57	0xbe03cec3	-0.12871842
58	0x3d633620	0.05547154
59	0x3d0da178	0.034577817
60	0xbdc51486	-0.09623055
61	0x3dc4ec8c	0.0961543
62	0x3a231434	0.0006220967
63	0x3ccead43	0.025229102

sequential_1/dense_1_2/BiasAdd/ReadVariableOp f4 [128]
0	0xbc3e726a	-0.011623958
1	0xbdc49d08	-0.09600264
2	0x3d551dab	0.052030247
3	0xbdb974bc	-0.090554684
4	0x3c419a5f	0.01181659
5	0xbcff6078	-0.03117393
6	0xbdaa66fd	-0.08320425
7	0xbdb7f597	-0.089823894
8	0xbe073a11	-0.13205744
9	0xbd320103	-0.043457996
10	0xbd7ea3c8	-0.062167913
11	0xbdc6a8b5	-0.09700147
12	0x3d509ffd	0.050933827
13	0xbcfaca74	-0.030614115
14	0x3d934ed2	0.07192768
15	0x3d6c5851	0.057701413
16	0x3d8e9d2b	0.06963571
17	0xbd4181ac	-0.047242805
18	0xbd80a04d	-0.06280575
19	0xbc70a2f3	-0.014687288
20	0x3d85820e	0.065189466
21	0x3d19ac82	0.037518032
22	0xbdb131d4	-0.08652082
23	0xbe0269f0	-0.12735724
24	0x3d788c9a	0.060680963
25	0x3dc22ac8	0.09480816
26	0xbd81c94e	-0.06337224
27	0xbdaec2c5	-0.08533243
28	0xbde8a7ba	-0.11360116
29	0xbda9803e	-0.082764134
30	0xbd6d1961	-0.05788553
31	0x3d096188	0.03354028
32	0xbc9c6c4a	-0.019094605
33	0xbd566775	-0.052344758
34	0xbdce32c9	-0.1006828
35	0xbd3651ed	-0.044511724
36	0xbd3bd83a	-0.045860507
37	0xbc6ceecb	-0.01446123
38	0xbe2444dd	-0.16041894
39	0xbcefc09c	-0.029266648
40	0xbd408335	-0.04700013
41	0x3d46dd3d	0.048550833
42	0xbd593c55	-0.053036053
43	0x3d0ccb88	0.03437379
44	0xbe16087c	-0.14651674
45	0xbd5d80dc	-0.054077968
46	0xbc7a4998	-0.015276335
47	0xbd519dc4	-0.051175848
48	0xbd17e292	-0.03708131
49	0xbda3867a	-0.07984634
50	0xbd076903	-0.03305913
51	0xbdafbe41	-0.0858121
52	0xbdfd0774	-0.12354937
53	0xbda1f3a1	-0.07907797
54	0xbc9e35ef	-0.019312827
55	0xbd824fd4	-0.06362882
56	0xbdc79d3f	-0.09746789
57	0xbe072534	-0.13197786
58	0xbd9429a7	-0.07234507
59	0xbd1f1455	-0.03883775
60	0xbd067f20	-0.03283608
61	0x3d89ffe2	0.06738259
62	0xbdf66939	-0.120317884
63	0xbd925818	-0.07145709
64	0xbe1a9132	-0.1509445
65	0xbda1bef9	-0.07897753
66	0xbe1a42ac	-0.15064496
67	0x3dae1f8f	0.08502113
68	0xbd2c7025	-0.042099137
69	0xbdd0d777	-0.10197347
70	0xbd393df4	-0.0452251
71	0xbda1b0e8	-0.0789507
72	0xbde5644e	-0.11200772
73	0xbdadf454	-0.084938675
74	0xbd92e9c1	-0.07173491
75	0xbce8ffa1	-0.028442206
76	0xbcca9797	-0.024730487
77	0xbd4fa61f	-0.050695535
78	0x3e0449d8	0.12918794
79	0xbd62c772	-0.055365987
80	0xbc781636	-0.015142014
81	0x3daa1266	0.083042905
82	0xbd0fe261	-0.035128
83	0xba0d3f0f	-0.00053881196
84	0xbcef7f32	-0.029235456
85	0xbdeeba5c	-0.11656639
86	0xbe00925f	-0.12555836
87	0xbda5caca	-0.080953196
88	0xbd2e655e	-0.04257714
89	0xbe17a784	-0.14809996
90	0xbde7cfae	-0.11318909
91	0xbd040cff	-0.032238957
92	0xbd81c076	-0.06335537
93	0xbc0c4b03	-0.008562806
94	0x3d36da56	0.044641815
95	0xbda2e3a9	-0.07953579
96	0xbd3b6944	-0.045754686
97	0xbdd2ccdd	-0.10292981
98	0xbd256bd8	-0.04038605
99	0x3c8a977d	0.016917938
100	0xbdcc0354	-0.09961572
101	0x3e1ec318	0.1550411
102	0xbe1457e3	-0.14486651
103	0xbbe94461	-0.007118747
104	0xbe08dfa9	-0.1336657
105	0xbe09fcf8	-0.13475406
106	0xbe087532	-0.13325956
107	0xbc4e6b50	-0.0125988275
108	0x3c1463db	0.0090570105
109	0xbd09805c	-0.03356968
110	0x3d05c5f5	0.03265949
111	0x3c348e9d	0.01102033
112	0xbe1f7f8b	-0.15575998
113	0xbdd990b3	-0.10623302
114	0xbc408524	-0.011750493
115	0xbd90952f	-0.070597045
116	0xbd2c40f0	-0.042054117
117	0xbd76c529	-0.06024662
118	0xbd641c16	-0.055690847
119	0xbd1921e5	-0.03738584
120	0x3d17f14f	0.037095364
121	0xbda41883	-0.08012488
122	0xbc038da9	-0.00802938
123	0x3d4e51c9	0.050370965
124	0xbcac1572	-0.02100632
125	0xbd15937e	-0.036517613
126	0xbdb053bd	-0.08609722
127	0xbcdcb9aa	-0.026944

sequential_1/dense_1/BiasAdd/ReadVariableOp f4 [256]
0	0xbd489432	-0.048969455
1	0xbc54c70d	-0.0129869105
2	0xbd5b019d	-0.053468335
3	0xbd14859b	-0.03626023
4	0xbd035cb3	-0.032070827
5	0xbc8ebd55	-0.017424265
6	0xbcc7ab37	-0.024373634
7	0xbbc3b415	-0.005972395
8	0x00000000	0.0
9	0xbc06148e	-0.008183612
10	0x00000000	0.0
11	0xbdb6052f	-0.088877074
12	0xbc79941a	-0.015233064
13	0xbd2035c3	-0.03911377
14	0xbd4d8ace	-0.050181203
15	0xbce29e44	-0.027663358
16	0xbd5df379	-0.05418727
17	0x00000000	0.0
18	0x00000000	0.0
19	0xbd53b7ea	-0.051689066
20	0xbc9c03d0	-0.019044787
21	0xbc6533fc	-0.013989445
22	0xbbb8d9c0	-0.005641192
23	0xbda18bc2	-0.07887985
24	0xbb7c37dd	-0.0038485446
25	0xbcefac1b	-0.029256871
26	0xbbab33e2	-0.005224691
27	0xbbaa866d	-0.005204013
28	0xbbcc4899	-0.0062342403
29	0xbba7e631	-0.0051238765
30	0xbc751d05	-0.014960532
31	0x00000000	0.0
32	0xbd0c7565	-0.034291644
33	0x3c9e7592	0.019343171
34	0xbc2a9e67	-0.010413743
35	0x00000000	0.0
36	0x3b81489b	0.003945423
37	0xbd1620bb	-0.036652308
38	0xbc88fb76	-0.016721468
39	0xbd9c1435	-0.07621042
40	0xbc81290a	-0.01576664
41	0xbca90d63	-0.020636266
42	0xbd34fa56	-0.04418405
43	0xbdb6c1d6	-0.0892369
44	0xbd2335ce	-0.039846234
45	0xbd95c489	-0.07312877
46	0xbd008fdf	-0.031387206
47	0xbc90ed1b	-0.017691186
48	0x00000000	0.0
49	0xbce7b458	-0.028284237
50	0xbd992772	-0.07478227
51	0xbd280491	-0.04101998
52	0x3c859123	0.016304558
53	0xbd0dfd07	-0.034665134
54	0xbcf46433	-0.029832935
55	0xbd616543	-0.05502821
56	0x00000000	0.0
57	0xbc7160db	-0.014732565
58	0xbc9056f0	-0.01761958
59	0xbd41d8ab	-0.04732577
60	0xbc83ec6c	-0.016103946
61	0xbd4a9c18	-0.04946527
62	0xbba9de2a	-0.0051839547
63	0xbc36bf68	-0.011154033
64	0x00000000	0.0
65	0xbd1b323c	-0.037889704
66	0xbcf9212b	-0.030411324
67	0xbc790c6a	-0.015200714
68	0x00000000	0.0
69	0x00000000	0.0
70	0xbdab3cd6	-0.08361213
71	0x3c9dbf97	0.019256396
72	0x00000000	0.0
73	0xbb8d60b9	-0.0043145088
74	0x3aeaca76	0.0017913121
75	0x00000000	0.0
76	0xbd5dcf37	-0.054152694
77	0xbd7f356e	-0.062306814
78	0xbd56c9a0	-0.05243838
79	0x00000000	0.0
80	0xbd92ceef	-0.07168376
81	0xbc6d117c	-0.014469501
82	0xbd331d7f	-0.0437293
83	0xbc05c577	-0.008164755
84	0x00000000	0.0
85	0xbd343c07	-0.04400256
86	0xbbd9c72d	-0.006646058
87	0x00000000	0.0
88	0xbd6d9f9f	-0.058013555
89	0xbb8b4adb	-0.004250867
90	0x00000000	0.0
91	0xbd29c436	-0.041446887
92	0xbd68a0f8	-0.056794137
93	0xbca7be4d	-0.020476485
94	0xbd96e6e5	-0.073682584
95	0x00000000	0.0
96	0xbc9de9da	-0.019276548
97	0x00000000	0.0
98	0xbc96148b	-0.018320343
99	0xbd26cb1c	-0.040721044
100	0x3ca00273	0.019532418
101	0xbc3cd794	-0.011526007
102	0xbd06e7ed	-0.032936025
103	0xbcd3c15f	-0.025849042
104	0xbc95dbdc	-0.018293314
105	0xbd8b29e7	-0.067951016
106	0xbcb730b2	-0.022362087
107	0xbd44a0da	-0.048004963
108	0xbca31b2a	-0.019910414
109	0xbd573ad6	-0.052546345
110	0xbc811d57	-0.01576106
111	0xbd124f78	-0.03572032
112	0x3c333053	0.010936814
113	0xbd78ae62	-0.06071318
114	0xbc0cd813	-0.008596438
115	0xbd0e0369	-0.03467122
116	0xbb2ef36e	-0.0026695388
117	0x00000000	0.0
118	0xbd05c21d	-0.032655824
119	0xbc111a73	-0.008856404
120	0xbd732f0c	-0.05937104
121	0xbc7066fe	-0.014672993
122	0xbbbd5d74	-0.0057789627
123	0xbd439258	-0.047746986
124	0x00000000	0.0
125	0xbd7e5d37	-0.062100615
126	0xbd734a8f	-0.059397276
127	0xbd3768a0	-0.044777513
128	0xbd99e4fb	-0.07514378
129	0xbd1b4c23	-0.037914407
130	0xbd36b807	-0.044609096
131	0xbd7a029f	-0.061037656
132	0x00000000	0.0
133	0xbd91e75d	-0.07124207
134	0xbca2829c	-0.01983767
135	0x00000000	0.0
136	0xbd8175a4	-0.06321266
137	0xbc69d292	-0.014271395
138	0xbd08b2e6	-0.033373736
139	0xbd7cf73d	-0.061759222
140	0x00000000	0.0
141	0xbc14725a	-0.009060467
142	0xbd12b785	-0.03581955
143	0xbd775b9d	-0.060390104
144	0xbae19652	-0.0017210937
145	0xbd3e2038	-0.046417445
146	0x00000000	0.0
147	0xbc32f632	-0.010922955
148	0xbc19cdd5	-0.009387453
149	0xbd250453	-0.040287327
150	0xbca76533	-0.020433998
151	0xbc81f201	-0.015862467
152	0xbb8f9d2f	-0.0043827514
153	0xbc443896	-0.011976382
154	0xbd68ae4d	-0.05680685
155	0x00000000	0.0
156	0xbbdc36ef	-0.006720416
157	0xbd4a2654	-0.04935296
158	0xbc0304a7	-0.007996715
159	0x3c58f475	0.013241877
160	0xbd58b9e4	-0.052911654
161	0xbc153cb2	-0.009108709
162	0xbcbcb6d2	-0.023036394
163	0xbcdd570d	-0.027019048
164	0xbda9d996	-0.08293454
165	0xbd3dd6cf	-0.046347436
166	0xbd47f0d5	-0.04881366
167	0xbce3cf35	-0.027808765
168	0xbd916f4d	-0.07101307
169	0xbcb36891	-0.021900447
170	0xbde294ec	-0.11063561
171	0xbd9147aa	-0.07093747
172	0xbc95d990	-0.018292218
173	0xbbc25841	-0.005930931
174	0x3d015878	0.03157851
175	0xbd3b5759	-0.045737598
176	0xbd301035	-0.042984206
177	0xbcd122f2	-0.025529359
178	0xbcbead06	-0.023275863
179	0xbc1e3996	-0.009657284
180	0xbc28df4f	-0.010307147
181	0xbda7eea5	-0.08199815
182	0xbcce7190	-0.025200635
183	0xbd2d74e7	-0.042347815
184	0xbd165e14	-0.036710814
185	0xbcc195ba	-0.023630966
186	0x00000000	0.0
187	0x00000000	0.0
188	0xbc884184	-0.016632803
189	0xbd836069	-0.06414873
190	0xbd808138	-0.062746465
191	0xbc1ac8a1	-0.009447248
192	0xbd9634a6	-0.07334261
193	0x00000000	0.0
194	0xbc4691de	-0.012119738
195	0x00000000	0.0
196	0xbd9275ba	-0.07151361
197	0xbbd9a120	-0.006641522
198	0xbd81ee5f	-0.06344294
199	0xbad6bb31	-0.0016382692
200	0xbd0b31d7	-0.033983078
201	0xbc9ed396	-0.019388001
202	0xbc784777	-0.015153757
203	0xbacadea5	-0.001547773
204	0xbbc9e5b6	-0.006161417
205	0x00000000	0.0
206	0xbd33d8d4	-0.043907955
207	0x3b076a31	0.002066266
208	0xbcd09545	-0.025461802
209	0xbd1d0a41	-0.038339857
210	0xbd12449a	-0.035709955
211	0xbcf704ad	-0.030153597
212	0xbb63c3e7	-0.0034754218
213	0xbcae35bb	-0.021265855
214	0xbd379345	-0.04481818
215	0xbdacc285	-0.08435539
216	0xbd13def0	-0.03610128
217	0xbccfffbc	-0.025390498
218	0xbcec8afe	-0.02887487
219	0xbc0fe38e	-0.008782281
220	0xbc2b9c42	-0.0104742665
221	0x00000000	0.0
222	0xbc505dcb	-0.0127176745
223	0xbd1c6b2c	-0.038188145
224	0xbd040744	-0.03223349
225	0xbd6dcd6b	-0.05805723
226	0xbd343878	-0.043999165
227	0x00000000	0.0
228	0xbd65f2d0	-0.056139767
229	0x00000000	0.0
230	0xbb12e0a0	-0.002241172
231	0xbd0d19eb	-0.034448545
232	0x00000000	0.0
233	0xbd491324	-0.04909052
234	0xbbf899fb	-0.0075867153
235	0x00000000	0.0
236	0xbc9ce942	-0.019154195
237	0xbd465029	-0.04841629
238	0xbbc4baa3	-0.006003694
239	0xbd29dc9a	-0.041470148
240	0xbca89f77	-0.020583851
241	0xbd493a27	-0.049127724
242	0xbb58c9e4	-0.003307932
243	0x3be4eac2	0.006985993
244	0xbc2111c4	-0.009830896
245	0xbd162caf	-0.036663707
246	0xbd19d388	-0.037555248
247	0xbd7ca310	-0.061678946
248	0xbcf85836	-0.0303155
249	0xbd372b7c	-0.044719204
250	0xbca498e0	-0.020092428
251	0xbd98d589	-0.074626036
252	0xbc72a4a1	-0.014809758
253	0xbc331a3b	-0.010931547
254	0x3d52d681	0.051474098
255	0xbd52a7f3	-0.0514297

sequential_1/dense_1/MatMul f4 [256, 42]
0	0xbe4a2f11	-0.19744517
1	0xbdcfb8b6	-0.10142653
2	0xbda84212	-0.08215727
3	0x3d253895	0.040337164
4	0xbda055a9	-0.078288384
5	0x3ddaa6df	0.106763594
6	0x3dd13381	0.10214902
7	0x3d9ce1de	0.07660268
8	0xbdb6ee9b	-0.08932229
9	0xbc45a0e5	-0.012062286
10	0x3dd3a348	0.10333878
11	0xbd10a2aa	-0.03531138
12	0xbd349c0b	-0.044094127
13	0x3e14c5d2	0.14528587
14	0x3e15b2f4	0.14619046
15	0x3e96a9f1	0.2942653
16	0x3d57e9a0	0.052713037
17	0x3eb920a2	0.3615771
18	0xbe178561	-0.14796974
19	0x3dd2a275	0.102848925
20	0xbe33a642	-0.17543891
21	0xbdba3802	-0.09092714
22	0xbe6f8205	-0.23389442
23	0xbea563ea	-0.3230279
24	0xbceccddc	-0.028906755
25	0xbef990b1	-0.48743203
26	0xbdaa0a6c	-0.08302769
27	0xbd4aa198	-0.049470514
28	0xbcee18a7	-0.02906449
29	0x3d2757b7	0.040855136
30	0xbba2032f	-0.004944227
31	0xbe5036a2	-0.20333341
32	0x3dd801b4	0.105472
33	0x3d810af6	0.06300919
34	0x3cb2a80e	0.02180865
35	0x3dc26f8b	0.094939314
36	0x3d3f407b	0.046692353
37	0x3debddd8	0.11516923
38	0xbdbfd6b6	-0.09367125
39	0xbe5ff64f	-0.21871303
40	0xbdb31358	-0.08743924
41	0xbea2778a	-0.31731826
42	0x3da6602d	0.08123813
43	0xb9fbf654	-0.0004805798
44	0x3d53e8e9	0.051735792
45	0x3d8f344c	0.06992397
46	0xbda6d6bc	-0.08146426
47	0x3dd0254f	0.10163366
48	0xbe0f8a6d	-0.14017649
49	0x3def00fc	0.1167011
50	0xbe38ca38	-0.1804589
51	0xbda289a2	-0.079364076
52	0xbe738475	-0.23780997
53	0xbe176e18	-0.14788091
54	0xbe299e59	-0.16564311
55	0xbd9e3a7d	-0.077259995
56	0x3c18d159	0.009327256
57	0x3e0d8e05	0.13823707
58	0x3e12a110	0.14319253
59	0x3ed816c0	0.42204857
60	0xbd0471ad	-0.032334972
61	0xbe248b32	-0.16068724
62	0xbddab4d0	-0.106790185
63	0xbd56282b	-0.0522844
64	0xbe419743	-0.18905358
65	0x3e80d82e	0.25164932
66	0xbe9d094e	-0.3067116
67	0x3f31d759	0.6946922
68	0xbd7d4962	-0.06183756
69	0xbdf2ad14	-0.11849418
70	0x3c5ccd9b	0.013476755
71	0xbcd76c2a	-0.026296694
72	0xbbd97f56	-0.006637494
73	0x3de3b478	0.11118406
74	0xbc428004	-0.011871342
75	0x3f055ff7	0.52099556
76	0x3d9445bc	0.07239863
77	0x3c91e4c4	0.01780928
78	0x3d8fe290	0.07025635
79	0xbd97195f	-0.07377886
80	0x3e3d872e	0.18508598
81	0x3d74a978	0.05973193
82	0xbd423a9a	-0.047419168
83	0xbc5bfa00	-0.013426304
84	0xbdefca6f	-0.11708533
85	0xbd496ac8	-0.0491741
86	0xbd6edbe3	-0.05831517
87	0xbd33e4c2	-0.043919332
88	0x3d581b60	0.05276048
89	0x3daf0abb	0.085469685
90	0x3b94833b	0.0045322455
91	0x3da0a555	0.078440346
92	0x3d3cde4e	0.046110444
93	0xbd462296	-0.048372827
94	0xbc3a8751	-0.011384801
95	0x3db0ba35	0.08629266
96	0xbe4d9a2b	-0.20078342
97	0xbcb3b0a4	-0.021934815
98	0xbe8e757f	-0.27824017
99	0xbe05e785	-0.13076599
100	0xbeddc7b2	-0.43316418
101	0xbea12b5d	-0.31478396
102	0xbccd6604	-0.025073059
103	0xbd560ab4	-0.0522563
104	0x3d96205b	0.0733039
105	0x3cd2fc48	0.025755063
106	0x3de1b867	0.110215
107	0xbe2537ea	-0.16134611
108	0x3e15cb25	0.14628275
109	0xbeff5376	-0.49868363
110	0x3ce2c171	0.02768013
111	0xbba8414a	-0.005134736
112	0x3d93383d	0.07188461
113	0x3cfb644b	0.030687472
114	0xbe3cd886	-0.18441972
115	0x3e745d25	0.23863657
116	0xbe72c160	-0.23706579
117	0x3f1da72b	0.61583203
118	0xbda19050	-0.078888535
119	0x3d266915	0.040627558
120	0x3e0aa2cd	0.13538666
121	0x3dabb38d	0.08383856
122	0xbdb7882c	-0.089615196
123	0xbe4410b2	-0.19146994
124	0x3e0e53c3	0.1389914
125	0xbe9114b4	-0.28336108
126	0xbbd8cd3c	-0.0066162627
127	0x3d8bfe73	0.06835642
128	0xbd96bb73	-0.07359972
129	0xbcef2f4c	-0.029197358
130	0xbb744d63	-0.0037277571
131	0xbdf27f5a	-0.11840697
132	0x3c9f61fc	0.019455902
133	0x3dc7a5bd	0.09748409
134	0x3d86c40b	0.06580361
135	0x3d72ea6a	0.059305586
136	0x3d5ab294	0.05339296
137	0x3d181d96	0.03713759
138	0x3d86323b	0.065525495
139	0xbdf53da7	-0.1197465
140	0x3cd8206e	0.026382651
141	0xbdf0d7dc	-0.11759922
142	0x3c785069	0.01515589
143	0xbdcbdade	-0.09953855
144	0x3df0f126	0.117647454
145	0xbd63b883	-0.055595886
146	0x3dd387e2	0.10328652
147	0xbdad1d3c	-0.08452842
148	0x3c943767	0.018092824
149	0xbe7d2594	-0.24721366
150	0x3cdf56d4	0.027263083
151	0xbeaf7686	-0.34270114
152	0xbd652150	-0.055939972
153	0x3d6abb29	0.057307396
154	0xbe12881a	-0.14309731
155	0x3d2ff780	0.042960644
156	0xbe1285be	-0.14308831
157	0xbe57a990	-0.21060777
158	0x3bc7e083	0.006099762
159	0x3d0ae491	0.033909384
160	0xbe55878e	-0.20852491
161	0xbe4ed6a0	-0.2019906
162	0xbe062875	-0.1310137
163	0x3d88de7e	0.06683062
164	0xbd77e9c9	-0.06052569
165	0x3d41f64e	0.047354035
166	0xbe17ab0e	-0.14811346
167	0x3e033c80	0.12816048
168	0x3e010bc5	0.12602146
169	0x3d65e75e	0.056128852
170	0xbe04a3c8	-0.12953103
171	0xbdc10870	-0.094254375
172	0xbdada823	-0.08479335
173	0xbd982207	-0.07428365
174	0xbc23b201	-0.00999117
175	0x3df78b3b	0.12087103
176	0xbea5e4ba	-0.32401067
177	0x3d403642	0.046926744
178	0x3e5957d6	0.21224913
179	0xbe2516e8	-0.1612202
180	0x3dc9d1dc	0.098544806
181	0x3db4964f	0.088177316
182	0x3d3732f1	0.044726316
183	0x3e19a506	0.15004358
184	0x3e075746	0.13216886
185	0x3ea1dd10	0.3161397
186	0x3d34bbbc	0.04412435
187	0x3dcd2035	0.10015909
188	0x3d0dd4a8	0.034626633
189	0xbdb2176a	-0.08695872
190	0x3c2e31a6	0.010631954
191	0xbe422a59	-0.18961467
192	0x3d07011f	0.032960054
193	0x3cb39fda	0.02192681
194	0x3cf92fc1	0.030418279
195	0xbd14329a	-0.03618107
196	0x3df51d9c	0.11968538
197	0xbe78b533	-0.24287872
198	0xbb7f5ada	-0.0038964064
199	0xbe7cdf90	-0.24694657
200	0xbe2b30c6	-0.16717824
201	0xbeb1a4f0	-0.3469615
202	0x3dfe73d9	0.1242444
203	0xbd9820b8	-0.074281156
204	0xbd5281de	-0.051393382
205	0x3cb85006	0.022499096
206	0xbce98972	-0.028507922
207	0xbe7a49f7	-0.24442278
208	0x3da7c447	0.08191734
209	0xbeb2570e	-0.34832042
210	0xbdf05784	-0.11735442
211	0x3d3da1a7	0.04629674
212	0x3d5682a5	0.052370686
213	0x3d80c798	0.062880695
214	0xbdf67197	-0.12033384
215	0xbe0770b2	-0.13226584
216	0xbcf785af	-0.030215112
217	0xbca33fd8	-0.019927904
218	0xbd76d07c	-0.06025742
219	0xbd72a6f4	-0.05924125
220	0xbc061adc	-0.008185115
221	0xbdbe593b	-0.09294363
222	0xbc6f6cb6	-0.014613321
223	0xbd6243ef	-0.055240568
224	0xbc10bf30	-0.008834645
225	0xbd39a147	-0.04531982
226	0x3d98bc85	0.07457832
227	0xbe08e735	-0.13369448
228	0xbde4abdc	-0.11165592
229	0x3db4fcdd	0.08837292
230	0x3dc53ba9	0.0963052
231	0xbd6e0afc	-0.058115944
232	0x3db6fb6d	0.089346744
233	0x3d644fed	0.055740286
234	0xbe1beac9	-0.15226282
235	0xbe06616c	-0.13123101
236	0xbdc865fe	-0.097850785
237	0xbe1862e2	-0.14881471
238	0xbcf744de	-0.030184206
239	0x3dcb329c	0.09921762
240	0x3dc24ac0	0.09486914
241	0xbcb44f6f	-0.022010533
242	0x3d8a86dc	0.06764004
243	0x3dac640b	0.08417519
244	0xbd746e55	-0.059675533
245	0xbd8f050b	-0.06983384
246	0xbc89dbb5	-0.016828397
247	0x3de17370	0.11008346
248	0xbda014b5	-0.078164496
249	0xbdcfe80f	-0.101516835
250	0xbd17f039	-0.03709433
251	0xbd6cd94a	-0.05782441
252	0x3d3e82d0	0.04651147
253	0x3dbc48cd	0.09193573
254	0x3d925092	0.07144274
255	0xbd86f02e	-0.065887794
