Number Recog Model/asl_number_classifier_v2.tflite (tflite, 235472 bytes, 8 tensors)

arith.constant f4 [10, 64]
000000 96 9b 3a be bd 54 44 be 64 55 e1 bd 19 6b ac 3d
       -0.18223414 -0.1917295 -0.11002615 0.08418865
000010 c8 e5 86 3c 95 18 da bd 8a aa 00 3d f0 9c 1a bc
       0.01646699 -0.1064922 0.03141264 -0.009436831
000020 af 0b 0e be 83 cd bd bc b5 39 1a 3e 71 b8 45 be
       -0.13871644 -0.023169285 0.15061076 -0.1930864
000030 3a ac 92 3d 4d 68 62 bd 2f e3 f5 bd 79 fe be 3d
       0.07161756 -0.05527525 -0.120062225 0.093258806
000040 67 3c 1a bd d0 8a 90 bc 7d 97 58 3e ff fd 6f be
       -0.03765526 -0.017644316 0.21151538 -0.23436736
000050 7a db df bd 5b 60 c0 bc 34 a2 62 3d a0 61 1a bd
       -0.10930534 -0.023483446 0.05533047 -0.03769076
000060 d8 fb 62 3d 98 e2 1d be f1 53 26 bd db ac dd bd
       0.05541596 -0.1541847 -0.040607397 -0.10823985
000070 4a 48 88 be 19 33 01 3e bb 0d 53 3e a4 ea 4f 3e
       -0.26617652 0.12617148 0.20610707 0.20304352
000080 15 a4 66 bd cf f8 7f be 62 4e 34 3e f9 1b ba 3d
       -0.056308825 -0.24997257 0.17608026 0.090873666
000090 d9 c0 56 3e b9 07 79 3d c4 4d 95 3e ec fa 78 3e
       0.20972003 0.06079838 0.29160893 0.24314469
0000a0 b4 6d c2 3b b4 15 7b 3c 84 e2 1a be ce d4 4c 3d
       0.005933488 0.015324999 -0.15125471 0.050007634
0000b0 f0 54 d8 3d 65 5c 3c 3e eb 7b e7 3d 8a 5b 37 bd
       0.105630755 0.1839462 0.11302932 -0.044765033
0000c0 53 a1 68 3e 13 28 16 bd 80 26 84 bd 7a 77 2a 3e
       0.2271779 -0.03665931 -0.06452656 0.16647139
0000d0 4f f3 c8 3a bf 95 b0 3d 38 91 53 be 68 34 b8 3d
       0.0015331301 0.08622312 -0.20660865 0.08994371
0000e0 04 cf 5c 3c f9 f0 a6 3c 8a ef 53 3d e7 d3 cf bd
       0.013477091 0.020378577 0.051742114 -0.10147839
0000f0 ac c4 bb bd c6 26 12 be 80 f7 17 3e 7a a3 d5 3d
       -0.091683716 -0.14272603 0.14840508 0.10431571
000100 60 14 83 bd 74 f8 57 3e 63 b2 40 be c7 59 08 3e
       -0.064003706 0.21090871 -0.18818049 0.13315497
000110 2f 79 8f bc 84 91 3d be 44 0c e2 bc e3 5b 2a 3e
       -0.01751384 -0.18512541 -0.02759374 0.16636615
000120 c7 81 87 be 29 b1 a2 3d d0 41 26 bd eb 0f c0 3d
       -0.264662 0.07943947 -0.040590107 0.09378036
000130 27 15 61 bd c3 7b b8 3e c8 f9 fa bd 6f 8e 88 be
       -0.054951813 0.36031923 -0.12254673 -0.26671168
000140 3d 33 ef 3d 9c 04 c3 3d f2 52 3a 3e 24 27 db bd
       0.11679695 0.095223635 0.18195704 -0.10700825
000150 9b 5a 6c be 84 90 89 bd 52 c9 19 3e dd 9b b1 bd
       -0.23081438 -0.06717017 0.15018204 -0.08672307
000160 84 04 ab bd 1f 95 1e be 1b 4d d1 bd 59 77 48 be
       -0.08350471 -0.15486573 -0.10219785 -0.19576778
000170 43 38 59 be 6b 42 a1 3d 4a 5d 44 be 87 42 8c 3e
       -0.21212868 0.07873996 -0.19176212 0.27394506
000180 f4 0f 02 be b8 65 cf bb 48 a1 84 be 8f 2e 7f bd
       -0.12701398 -0.0063292645 -0.25904298 -0.06230026
000190 d0 85 94 3d 22 1e 3b bd 7b 49 72 be ca f1 9a be
       0.07252085 -0.045683034 -0.23660843 -0.30262595
0001a0 bd 2d a0 3c 12 4b 79 be 2f a3 86 3e bd d0 8c 3e
       0.01955306 -0.24345043 0.26296374 0.27503005
0001b0 b6 88 c1 bd 9b 34 df 3e bc 16 29 3d 25 eb 16 3d
       -0.09449904 0.43594822 0.041281447 0.036845345
0001c0 ac a0 74 be 24 29 f9 3d 1b 2c 38 3e 17 37 36 bd
       -0.23889416 0.1216605 0.17985575 -0.04448613
0001d0 60 2d d9 3c 9d 7a c4 3d 60 72 ce 3d c4 39 53 3c
       0.026510894 0.09593699 0.10080409 0.01289219
0001e0 a8 b8 43 bd 85 85 7c 3e 85 1a 0d be ca 07 29 3c
       -0.047783524 0.24660309 -0.13779648 0.010316798
0001f0 0f 5f 83 3e f4 5e 1f 3e 77 6a 8a bd 80 ee 16 be
       0.2565846 0.15563565 -0.06758588 -0.14739418
000200 ae 84 ee 3c a8 02 16 be 01 e6 b2 bd 69 69 12 be
       0.029116001 -0.14649451 -0.08735276 -0.14298023
000210 fe f7 7a 3e 88 85 a7 3d d5 df 06 bd 74 0c b8 3d
       0.24508664 0.08179766 -0.032928307 0.0898675
000220 bc fa 55 be 55 c3 d9 bd 18 54 fd bd 6a e9 96 bd
       -0.20896429 -0.1063296 -0.12369555 -0.07368739
000230 19 1f bd bc aa 3f 91 3e 7b a6 dd bd 62 68 af 3d
       -0.023086118 0.28368884 -0.10822769 0.08564831
000240 36 e4 3f 3e 8e 42 47 3e a9 97 31 3d 84 6d 55 be
       0.187394 0.19458982 0.043357525 -0.20842558
000250 f1 82 c1 bd b5 c0 2a 3d c8 22 43 be 33 1d 03 bd
       -0.09448803 0.041687686 -0.19056237 -0.03201027
000260 3a 59 0e 3d 4e f5 c1 3e 7f 45 36 be e3 f1 8c bd
       0.03475306 0.37882465 -0.17799948 -0.06882074
000270 bf fb b3 3d d6 8e c1 3d 59 ee 6f bd 78 73 07 bd
       0.08788251 0.09451072 -0.058576915 -0.033069104
000280 92 a0 a9 3d 29 56 a9 3c d0 ba 38 3e ce b2 6d 3d
       0.082825795 0.020670967 0.18040013 0.05803185
000290 cb 0a 8a 3c 6d 8c a3 3e 97 7c 79 bc 4e 74 b8 be
       0.01685085 0.31943074 -0.015227458 -0.36026233
0002a0 9e 0d 84 be 58 c5 e6 3d 67 69 40 3e 43 b9 06 be
       -0.2579164 0.11268109 0.18790208 -0.13156609
0002b0 a6 81 6b 3d fd ff 9c bd 5d a8 17 be 45 56 f1 bb
       0.05749669 -0.076660134 -0.14810319 -0.0073650205
0002c0 c5 e2 03 3e ea f7 bc 3d d4 7a 0c 3d c8 ff 27 be
       0.12879474 0.09226973 0.034296826 -0.16406167
0002d0 ca fb 81 3d 8f a3 47 3d 69 e7 e9 3d c7 4c 7e bb
       0.06346853 0.048739966 0.11421091 -0.0038803087
0002e0 91 d7 a9 3e 07 70 54 be 18 bf 26 bd 06 50 a9 3c
       0.33172277 -0.2074586 -0.040709585 0.020668041
0002f0 be 3e c3 bc ec 90 5b bb fd 04 04 be f1 71 59 be
       -0.023833629 -0.0033503128 -0.12892528 -0.21234871
000300 f5 f7 19 3d c4 cd 4b 3e ea 34 28 be 67 32 b7 be
       0.037589986 0.19902712 -0.16426435 -0.3578064
000310 6c 14 08 be b8 6d 43 be 52 83 0f bd 03 34 d5 bd
       -0.1328904 -0.19084823 -0.035037346 -0.10410311
000320 f5 b3 ad 3d e7 b4 e9 bd 94 35 02 be 77 a6 95 3e
       0.0848159 -0.114114575 -0.12715751 0.29228565
000330 d8 a6 87 3e aa c2 3e bd 65 f7 46 3e ac c0 5f 3e
       0.2649448 -0.046572365 0.19430311 0.21850842
000340 f2 19 a0 3e 16 91 95 3e e3 18 ac bd 41 46 3c be
       0.31269795 0.29212254 -0.08403184 -0.18386175
000350 92 98 c4 3e 64 f2 a4 3c df 8e d9 3d 74 a7 cd 3d
       0.38397652 0.020135112 0.106229536 0.10041705
000360 28 3d a6 bd d6 9d 2b 3e 29 0f 5e bd 01 c9 7a be
       -0.081171334 0.16759428 -0.054213677 -0.2449074
000370 d9 48 74 be c5 32 02 be 9b 92 02 be 07 c9 af 3e
       -0.23855914 -0.1271468 -0.12751238 0.3433306
000380 d5 9b c3 bd 51 da ac 3e 19 bf a8 3d 65 dd e5 3c
       -0.09551207 0.33760312 0.08239574 0.02805967
000390 a6 77 13 bd a4 bb 8f be a0 f4 2f bc dd 5e 6b 3e
       -0.036002778 -0.28072846 -0.0107394755 0.22985406
0003a0 a5 84 29 bd 0b 41 f0 bc 67 4b de bd 04 c6 67 bd
       -0.041386265 -0.02932789 -0.108542256 -0.056585327
0003b0 cb 89 68 bd de 7c b5 bc e9 c7 91 3c 26 9a d9 3d
       -0.056772035 -0.022154268 0.01779552 0.106251046
0003c0 ed 82 e8 3d 7d 73 86 3d 5f 55 a8 be 72 ee 12 be
       0.11353097 0.065649964 -0.32877633 -0.14348772
0003d0 f2 50 ce bc c7 c7 a4 bc bd 6b 63 bd 1f 2e c6 3d
       -0.025185082 -0.020114793 -0.05552267 0.09676766
0003e0 bf 95 46 be df da c9 3d ae 0f 6b bd 99 01 49 3e
       -0.19393061 0.098561995 -0.057388 0.19629516
0003f0 18 1f 4b be e6 6f 6f bd 8a b8 76 be a8 7b 82 be
       -0.1983608 -0.058456324 -0.24093834 -0.25484967

arith.constant1 f4 [10]
000000 43 54 9b be 27 80 fe 3e 9f 85 4b be aa 04 da 3d
       -0.30337724 0.49707147 -0.19875191 0.10645421
000010 bf 1a e5 bf bb 67 04 be 24 e9 46 3c a4 b7 d5 bd
       -1.7898787 -0.12930195 0.012140546 -0.10435417
000020 57 22 8b bf 88 57 68 bf
       -1.0869855 -0.9075856

arith.constant2 f4 [64, 128]
000000 05 4b bf 3e fe 0e 6a be 5e 6b 28 3d 2a d6 f0 bd
       0.37361923 -0.22857282 0.04111802 -0.117595986
000010 60 c8 19 be ea 19 1f be 24 49 8c 3b 15 69 3a bd
       -0.15017843 -0.15537229 0.00428118 -0.04551037
000020 57 de ae bd 79 e3 0c be 53 51 55 ba 26 7e 0c 3e
       -0.08538502 -0.13758649 -0.00081374234 0.13719997
000030 56 c0 98 3d d7 d3 fe bd 04 f9 47 bd e0 98 f2 3d
       0.0745856 -0.12442749 -0.048821464 0.11845565
000040 68 0b e7 bd 63 ce 99 3d c2 2f 52 3c 09 25 9e 3d
       -0.112814724 0.07510068 0.012828769 0.07721908
000050 b1 8d d6 3d 88 82 37 bd a3 bf 2b 3e 39 53 38 3e
       0.10476244 -0.04480222 0.16772322 0.18000497
000060 0f 0f c5 3e 40 6f 82 bd e7 b4 d3 3d f4 77 fd bc
       0.3848805 -0.063688755 0.10337239 -0.030940987
000070 a8 21 82 bd ca e6 7e 3e 66 2f 27 bd 06 4e 21 3d
       -0.06354076 0.24892727 -0.040816687 0.03938105
000080 b0 43 0e 3d 2b 63 65 bd b5 d6 d3 bd 43 0f 6a 3e
       0.03473252 -0.056002777 -0.103436865 0.22857384
000090 89 26 59 3c d6 f2 45 3e 98 c2 b2 bd ac 8f fe 3a
       0.013253816 0.19330916 -0.08728522 0.001942148
0000a0 b3 31 be bc 15 7e 3d be df 68 a6 bd cb 7f ac bd
       -0.023217058 -0.18505128 -0.08125471 -0.08422812
0000b0 57 8b 46 3e d3 72 87 be c2 40 19 3d 54 01 1b be
       0.19389091 -0.2645479 0.037415273 -0.15137225
0000c0 d9 ba 0c be b5 61 03 be d7 c3 7e 3d 42 1b 96 bd
       -0.13743152 -0.12830241 0.062198486 -0.07329418
0000d0 f1 53 a1 3e 5b 48 ee 3d 50 89 a5 bd 8e f0 7a 3e
       0.31509355 0.116348945 -0.08082831 0.24505827
0000e0 b6 1a 2d be c1 f3 b6 bd 99 08 a3 3d ad ed b9 bc
       -0.1690472 -0.08933211 0.07960624 -0.02269634
0000f0 ad f4 fa 3b 9f 18 fd bd fc 50 99 bd 62 93 93 3e
       0.007658562 -0.12358212 -0.0748615 0.28823382
000100 fc 00 c5 3d e8 eb 4e 3e 88 19 d2 3c a2 64 b4 3d
       0.096193284 0.20207179 0.02564694 0.08808257
000110 ee cd a6 b9 aa ba e8 bd 30 a3 08 3e cd 8a 06 be
       -0.00031815417 -0.11363728 0.13343501 -0.13138886
000120 a0 bc b1 3d 32 a7 7a be 02 53 18 be 13 6d 97 3e
       0.086785555 -0.24477842 -0.14875415 0.29575405
000130 f4 65 33 be 31 20 28 3e 59 52 61 bb 2b 20 16 be
       -0.17519361 0.1641853 -0.0034381358 -0.14660709
000140 8c e0 70 be 2a c7 a0 3d bd 63 1b be 00 6d 29 3d
       -0.23523158 0.078504875 -0.15174766 0.041363716
000150 b9 44 0f 3e a8 35 2b bd 14 b4 ef 3c 7f 13 b0 bd
       0.1399106 -0.041799217 0.029260673 -0.085974686
000160 7a d8 8e be 76 29 bb 3e d9 86 9d 3e da 37 cf 3d
       -0.27899534 0.3655507 0.30766943 0.10118075
000170 35 5b 85 3e 12 f3 36 be 2c 4a 41 3d 00 5a 99 bc
       0.26046148 -0.17866161 0.047189876 -0.018719673
000180 14 d5 66 bd 02 4d c5 bd f6 66 14 be 8d 4b 03 3e
       -0.05635555 -0.09633829 -0.14492401 0.12821789
000190 b2 6d 33 3d 02 90 7b 3d 59 3b 67 3e d2 78 67 3e
       0.043805785 0.061416633 0.22581233 0.22604683
0001a0 36 e9 38 bd 44 6e 5c be 93 03 67 3e 2a c0 b4 3c
       -0.045144282 -0.21526438 0.22559957 0.022064287
0001b0 c2 1f 12 be 21 89 15 be a2 b0 3d bc 62 49 c9 bd
       -0.14269927 -0.14603092 -0.011577757 -0.0982845
0001c0 fb 0f 2a be 4d 64 0f 3e dc ed 2a bc e3 df 6f be
       -0.16607659 0.14003105 -0.010432687 -0.2342525
0001d0 7e d3 7e 3d 6f 53 87 bd f6 34 3c 3e 39 b1 09 3e
       0.062213413 -0.066077106 0.18379578 0.13446511
0001e0 80 d5 a1 bd df 3b bc 3d 44 a6 0d 3e 58 79 6f be
       -0.0790205 0.09191107 0.13832957 -0.23386133
0001f0 ca c4 4c be db 1f 0e 3f 58 44 7a be 17 b7 9b 3d
       -0.19996944 0.5551736 -0.24440134 0.07603281
000200 0e 7d bd bc d6 95 ec bd a2 21 19 be 39 eb ca bd
       -0.02313092 -0.115520164 -0.14954236 -0.099081464
000210 f3 d0 36 3e 1c 0a 33 be 59 76 dd 3d f9 1a 66 be
       0.17853145 -0.17484325 0.10813589 -0.22471227
000220 4d 2f af 3d a8 ed 7a bd 6f ff 8c 3d 16 b5 02 3e
       0.08553944 -0.061261803 0.068846576 0.12764391
000230 44 75 84 be eb ea 32 be da f6 d0 3a 73 12 28 bc
       -0.25870717 -0.17472427 0.0015942708 -0.010258305
000240 89 77 63 bc 20 5e 75 bc 4f 34 6e bc 23 3c 6b 3d
       -0.01388348 -0.014976054 -0.0145388385 0.057430398
000250 a3 60 4b be 25 2c d5 bd 9e 46 cd 3d c7 45 f8 3c
       -0.19861083 -0.104088105 0.10023235 0.03030671
000260 d5 04 df 3e 6c 52 cc 3d 48 07 95 be 41 fe 5e 3b
       0.43558374 0.09976658 -0.29107118 0.003402606
000270 a8 c2 64 3d fb 35 9f be f8 47 4d 3c 55 19 d5 bc
       0.0558497 -0.3109587 0.012529366 -0.026013056
000280 35 b1 0c bd bc b2 03 bd 44 07 41 bd ff 9f 36 bd
       -0.034348685 -0.032152876 -0.04712607 -0.044586178
000290 55 bb ea bd 0f 8c 6a bd 35 d6 02 3e 87 e3 68 3d
       -0.11461512 -0.057262477 0.12777026 0.056857612
0002a0 e5 4e 83 3d 05 f2 ae 3d 1e e6 39 3d 01 fc a6 3e
       0.06411532 0.08542255 0.045385472 0.3261414
0002b0 35 7d 93 3e 86 ee 88 be 22 52 30 be 57 9e 38 be
       0.28806463 -0.2674448 -0.17218831 -0.18029152
0002c0 b6 18 6d be 46 b9 c6 bc c8 86 fd 3d a0 19 07 3e
       -0.23153958 -0.024258267 0.12379223 0.13193369
0002d0 ad b4 47 3e 31 94 f8 bd 48 14 92 bd 5f f8 63 be
       0.19502516 -0.1213764 -0.071327746 -0.22262715
0002e0 e1 a1 c3 3d 80 a1 88 3d 03 75 3c be 70 75 76 bc
       0.0955236 0.06671429 -0.18404011 -0.015042648
0002f0 89 fe 33 3e 36 8a 22 be 74 44 fd bd c2 97 64 be
       0.17577566 -0.15873036 -0.12366572 -0.22323516
000300 a1 02 56 3e 93 99 f4 3d e3 04 03 be 2f ee 5b 3d
       0.2089944 0.119433545 -0.12794833 0.053693946
000310 93 48 f0 bb 45 97 0f 3e cd 8c b0 3b 56 ae 4f be
       -0.0073328703 0.14022548 0.0053878785 -0.20281348
000320 3e 7f 94 3d 11 1a 91 3d e8 28 30 be d5 f2 51 be
       0.07250832 0.0708505 -0.17203104 -0.2050279
000330 79 2e 0e be 87 33 38 bd d1 b7 ef bd 9e b7 36 3b
       -0.13884915 -0.044971015 -0.11704982 0.002788044
000340 aa 65 3b be 8d 86 5e bd ba 61 75 3d 08 41 a4 bd
       -0.183005 -0.054327536 0.059907652 -0.08020216
000350 f0 27 10 3e 40 a7 ba b9 5c cb c1 bd 27 3e 0d 3e
       0.14077735 -0.00035601296 -0.09462616 0.1379324
000360 33 a9 96 be d6 1d 5c be 1e 04 e3 be 45 26 bd 3c
       -0.29425964 -0.21495757 -0.4433908 0.023089537
000370 fa 92 4d bd 26 98 4e 3d 91 c0 03 be 21 3b 8c be
       -0.050188996 0.05043807 -0.12866427 -0.27388862
000380 b8 96 45 3d 04 08 7e be 36 11 0d 3d d6 46 2d be
       0.04823944 -0.24807745 0.03444024 -0.16921553
000390 41 29 47 3e e9 26 14 3e 26 31 92 3e 3c b9 6c be
       0.19449331 0.14467968 0.28553122 -0.23117536
0003a0 5e 7e 52 3d 75 78 3a bd 75 4b 91 bd e3 21 8c 3c
       0.051390044 -0.045525033 -0.070944704 0.017106002
0003b0 a7 52 c0 bd 9b 39 3e 3d 38 34 49 3c 95 bd 39 3e
       -0.09390765 0.046441656 0.012280516 0.18138726
0003c0 76 b6 3a be 28 02 1d bc ca 0d 0d be 6e a7 b8 be
       -0.18233666 -0.009583034 -0.13774791 -0.3606524
0003d0 98 a3 07 bd 4f 6f 7d bd 7b 01 30 bd b0 97 7c bd
       -0.033115 -0.06187373 -0.042970162 -0.061668098
0003e0 ea 46 52 bd 9d e6 a2 3c b2 8f 69 bd 75 71 29 bd
       -0.05133716 0.019885356 -0.057021804 -0.041367967
0003f0 f7 d3 29 bd b4 d5 c6 3d e9 c4 fb bd 15 d0 82 3e
       -0.04146191 0.097087294 -0.12293417 0.2554938

arith.constant3 f4 [64]
000000 d6 17 b6 3e 2c 27 d0 3f 8b ad 8b be f0 45 a5 bf
       0.3556506 1.6261954 -0.2728084 -1.2911968
000010 30 bd 63 3f be 51 d1 be da bb 01 be a9 6d 69 3e
       0.8896055 -0.40882677 -0.12669316 0.22795738
000020 08 7f ee 3d a6 54 ef 3e 39 ee cb 3e d8 4e ce 3f
       0.11645323 0.4674427 0.39830187 1.6117811
000030 d2 05 23 be 0a 23 30 bf 45 dc 70 3f a6 0f 47 be
       -0.15920189 -0.68803465 0.94086105 -0.19439563
000040 82 48 db bd 9f 1f 28 3f fb 1b 01 bf 6b 3b c5 3e
       -0.10707189 0.6567325 -0.5043332 0.38521895
000050 a8 0e 0b bf 67 20 2f be 6a c1 3e bd 37 b5 84 3f
       -0.5431924 -0.17102204 -0.046571173 1.0367802
000060 92 45 75 40 47 85 a9 3f ea 52 54 3d ba 74 d6 3e
       3.8323712 1.3243798 0.051836886 0.4188593
000070 d9 e2 9c 3e d5 5b df 3f bf 9b df 3f a3 90 f1 3f
       0.3064182 1.74499 1.7469405 1.8872265
000080 68 1f cb bf 0f 89 e1 be a0 ab b2 3f 44 a5 f3 3f
       -1.586896 -0.4404988 1.3958626 1.903481
000090 cd 69 7d 3e 52 77 94 3f 04 d7 55 3f 49 f9 98 3e
       0.24747391 1.1598914 0.8353121 0.2987769
0000a0 e2 81 0a 3f 44 e6 91 3f 88 2e 05 3f c8 c3 19 bf
       0.54104435 1.1398396 0.52024126 -0.60064363
0000b0 51 c3 8e bf 5c 70 df 3f 8d dd 12 3f e4 5d 18 be
       -1.1153356 1.7456164 0.5736931 -0.14879566
0000c0 09 d4 a6 3f 66 75 c1 3e 80 f2 33 3f ae 3b 8e 3f
       1.3033458 0.3778488 0.702919 1.1111963
0000d0 8a c9 8a be 8d 22 27 40 86 33 7b bf 27 bc 61 3e
       -0.27106887 2.6114838 -0.98125494 0.2204443
0000e0 e6 93 6e 3f c2 96 84 be 97 a8 25 40 9a f6 bd bd
       0.93194425 -0.2589627 2.588415 -0.09275551
0000f0 84 7c b1 bf ea cc 1e c0 97 4c d9 3f 6e df a5 be
       -1.3866124 -2.481257 1.6976498 -0.32397026

arith.constant4 f4 [128, 256]
000000 07 6e 8f c0 f2 0c 24 bf 7a 01 3b 3e 06 76 2e c0
       -4.482181 -0.6408225 0.18262282 -2.7259536
000010 9b 55 0b 40 54 61 da bf 93 16 8b 40 e3 75 89 bd
       2.1771 -1.7060952 4.3465056 -0.06711938
000020 52 c1 ca 3e ca 47 51 c0 26 bb 9a c0 ae 18 2f 3f
       0.39600617 -3.2700067 -4.8353453 0.68397033
000030 fe 46 8a c0 e5 6e 57 c0 a1 38 4f 3f d9 71 1f 40
       -4.321166 -3.3661435 0.80945784 2.4913237
000040 a0 07 99 bf 3a 18 2c 40 50 d9 de 3e 73 03 16 3f
       -1.1955452 2.6889787 0.4352517 0.58599013
000050 47 8f 5d c0 f7 ee 17 3f bb 2b f5 3e 5c ec f4 c0
       -3.46187 0.59349006 0.47884926 -7.6538525
000060 14 82 01 3e 56 d1 88 3d a4 9c 24 3e 0e 5f 21 be
       0.12647277 0.06680553 0.16075379 -0.15758917
000070 91 d2 54 be 48 03 97 be 8d b2 4f 3f af c0 83 3e
       -0.2078345 -0.2949469 0.8113182 0.25732943
000080 65 2c 36 bd 79 14 0b 3c 2f 1b 18 c0 6d 8f 6a 3f
       -0.04447593 0.008488768 -2.3766592 0.916251
000090 d4 9c 70 bf a2 71 e2 3c db 48 eb bf 60 c7 5a 3e
       -0.939893 0.027642075 -1.8381609 0.21365118
0000a0 99 a7 98 bf 44 e7 d6 3e a9 e9 82 3f 06 00 19 bf
       -1.1926147 0.41973317 1.0227557 -0.5976566
0000b0 49 11 81 bf 89 78 b5 bd e9 2b fe 3e 70 1f 78 be
       -1.00834 -0.08860881 0.49642876 -0.24230742
0000c0 53 b5 a9 40 f8 a0 ce c0 6e 40 cf 3f 8b 9e 4c c0
       5.3033843 -6.4571495 1.6191537 -3.1971767
0000d0 51 5d 18 40 22 62 84 bf 2f 6e ad 3e eb 4f 94 3f
       2.3806956 -1.0342448 0.33873126 1.1586889
0000e0 61 8c b5 3f 2a f3 84 bf 6d 8d a7 3e 29 f7 43 40
       1.4183465 -1.0386708 0.32725087 3.0619605
0000f0 a9 a5 e7 bf 74 a5 91 bf a5 83 9c bd 3a c0 7b 40
       -1.809743 -1.1378617 -0.07642297 3.9336076
000100 42 c8 1b c0 4f 63 ab bf 01 8f 42 40 79 c2 95 c0
       -2.4340978 -1.3389682 3.0399783 -4.6799893
000110 cf 04 fd 3f d2 ff 23 3e 6a 20 ce bf 52 09 28 40
       1.9767092 0.16015556 -1.6103642 2.6255689
000120 fd 3e 90 c0 6c ab 02 bf 65 f4 98 bf 71 95 b9 3e
       -4.507689 -0.5104282 -1.1949583 0.36246827
000130 ff f6 8c 40 17 ef 18 3f 88 de b8 3e 11 d2 20 40
       4.405151 0.5973982 0.36107278 2.5128214
000140 d9 54 0c 3f 69 30 a0 be 6e 6b ff bd cd d5 90 bf
       0.5481697 -0.31286934 -0.124716625 -1.1315247
000150 aa 86 b8 bc d8 3a 00 3e a1 81 b0 3f 68 e8 c9 be
       -0.02252515 0.12522447 1.378956 -0.39435124
000160 d5 13 24 c0 21 4f 9f c0 3c ec 12 3e 6a 47 3c 40
       -2.5637105 -4.9784093 0.14347929 2.9418588
000170 19 81 44 c0 7e 4b 2e 40 58 1f c0 3f 5b 81 de 3e
       -3.0703795 2.7233577 1.5009565 0.43458065
000180 4f 65 f2 be 22 cd ba 40 e9 9a 24 40 e7 66 8c 3f
       -0.47342917 5.8375406 2.571955 1.0968903
000190 2d e8 2e 3f 7a b5 12 bf 89 3e 81 bf d1 6b 4d 3e
       0.6832302 -0.5730816 -1.0097209 0.2006066
0001a0 82 66 9a bf 57 bb 54 40 29 79 24 40 84 6d d2 3e
       -1.2062533 3.3239343 2.569895 0.4109918
0001b0 7e a8 3b 3f fc 44 9f 40 c0 3a bc c0 e6 87 19 40
       0.73303974 4.977171 -5.8821716 2.3989196
0001c0 79 3a 48 3f 34 97 29 bf ad 08 c8 c0 ac 08 4a c0
       0.7821422 -0.6624634 -6.251059 -3.1567793
0001d0 fa 4a dc be d3 fa a4 be 60 94 52 3e 75 46 69 c0
       -0.43025953 -0.32222614 0.20564413 -3.6449254
0001e0 8f c4 1d 3e d5 50 cb bf 4b 21 2c bf 97 c0 5f 40
       0.15407012 -1.5884043 -0.672383 3.4961298
0001f0 f4 77 98 3f e4 f0 83 bd 2a 8b 50 c0 9a 78 3d 3f
       1.1911607 -0.064424306 -3.258494 0.7401215
000200 3f 53 91 3e 59 09 36 c0 69 42 f9 3f 6e 27 66 c0
       0.28383824 -2.8443205 1.9473392 -3.5961566
000210 5d 4a 35 bf b2 0b 4b 3f d2 fc 05 c0 30 e5 d8 be
       -0.70816594 0.7931472 -2.093556 -0.42362356
000220 9a b1 0f 40 a6 35 4b 3f 7a 97 53 c0 9a ff 7a bf
       2.245215 0.79378736 -3.3061204 -0.9804627
000230 7f a7 70 bd f1 bf 42 bf 12 38 aa c0 c8 8f f0 3e
       -0.058753487 -0.7607413 -5.3193445 0.46984696
000240 8b 0b ea 3e 50 49 e0 bf 11 4c 3e 3f 0c a6 f0 3e
       0.45711932 -1.7522373 0.7433482 0.47001684
000250 40 6f 5e bd f1 a4 2f c0 75 ab cc 3e d2 65 98 c0
       -0.054305315 -2.7444422 0.3997456 -4.762429
000260 57 64 0d 3d 66 98 26 40 45 ad 66 3f e3 eb e3 3d
       0.03451952 2.6030517 0.9010814 0.11128976
000270 c2 5c 96 c0 e0 20 31 bf 44 e6 8f be ad 1f 7f c0
       -4.698823 -0.6919079 -0.28105366 -3.9863083
000280 dd 34 2e 3f af 5d 27 bf 6e 11 a1 40 0c 14 df c0
       0.6804941 -0.65377325 5.0333776 -6.971197
000290 21 e9 08 3f 27 08 20 c0 d4 29 2e c0 f8 07 8b 3e
       0.53480726 -2.5004976 -2.721303 0.27154517
0002a0 6c 6b e7 3f 5a a6 48 3f 03 50 60 3d 99 d2 11 be
       1.8079658 0.7837883 0.054763805 -0.14240493
0002b0 07 9d 77 3e 88 c6 55 bf 4d d9 76 3f 1b cd dd 3f
       0.24180995 -0.8350606 0.96425325 1.7328218
0002c0 60 34 b3 be eb e4 81 3f b8 88 43 40 29 08 32 be
       -0.35000896 1.0147985 3.0552197 -0.17385925
0002d0 7e 2b 8b bf b5 2e a8 3c 1c 39 5e bf 61 34 3d c0
       -1.0872648 0.020530084 -0.8680589 -2.956322
0002e0 08 c1 fc 3e 52 f1 1a bf 8d 1a a7 bf 56 e3 41 3f
       0.4936602 -0.60524476 -1.3054978 0.7573751
0002f0 c2 da 51 c0 bb 3a d4 bd 57 53 74 be a5 f1 17 c0
       -3.278977 -0.103627644 -0.23859917 -2.3741238
000300 b1 28 36 bf af 2d af 3e ac 99 83 3f 0b 44 ad 3e
       -0.7115584 0.3421454 1.0281272 0.33840975
000310 3a 0c f5 3e 72 c6 9b c0 fb 64 64 3f 1a 76 c9 be
       0.4786089 -4.8679743 0.89216584 -0.39347917
000320 ba 14 dc 3e 29 b3 99 be 2c 30 ca c0 ac 54 46 bf
       0.42984563 -0.300195 -6.3183804 -0.7747295
000330 d6 db 94 c0 82 42 45 3f 20 1e c8 3e 54 0c 92 bf
       -4.6518354 0.7705461 0.39085484 -1.1410012
000340 14 4f ad bf 27 8d 22 c0 cd 57 08 bf 67 b2 42 be
       -1.3539758 -2.5398653 -0.53258973 -0.19013368
000350 46 da 82 40 4d ed 10 bf ea fe ba bf 3b 1e 06 3f
       4.0891447 -0.5661209 -1.4609044 0.5238988
000360 72 b5 1e c0 4b 3b e3 be 72 56 2f 3f fb aa 87 40
       -2.4798245 -0.44381174 0.6849128 4.2396216
000370 77 0e 90 bc c6 20 13 bf 8c 12 c9 3f 1d 7a 8a 3e
       -0.017585022 -0.57471883 1.5708785 0.2704629
000380 d0 32 57 c0 a4 82 f5 bf 00 d0 ac be 75 66 b2 3e
       -3.3624763 -1.9180493 -0.3375244 0.34843794
000390 dc 41 1c be 0a 67 4d bf 4c 86 4d 3c 17 f9 4f 3f
       -0.15259498 -0.8023535 0.012544226 0.81239456
0003a0 cc 13 49 bf 9c 31 bb bf 00 69 95 3f 7d 83 6d bf
       -0.7854583 -1.4624515 1.1672668 -0.9277876
0003b0 53 a1 6e 40 27 af 60 bc 42 d2 88 bd 88 08 2b c0
       3.7285964 -0.013713635 -0.066807285 -2.6723957
0003c0 2c a5 f1 be 13 47 e4 be 93 87 5e c0 86 58 63 bf
       -0.4719633 -0.44585475 -3.4770248 -0.8880695
0003d0 17 67 99 3f 35 ea 34 40 26 5c 18 c0 1a 81 13 3f
       1.1984586 2.8267949 -2.3806243 0.5761887
0003e0 7a fa 9b be df b9 31 c0 b7 35 4b 40 36 39 ea 3e
       -0.30464536 -2.7769697 3.1751535 0.45746773
0003f0 c9 69 97 3e 21 8f b1 40 ee 9a bb be 2c 0a 2f c0
       0.29572895 5.548722 -0.3664164 -2.7349958

arith.constant5 f4 [128]
000000 13 8d e2 bf 0a 6f d8 bf a0 1e 7f bf ae d0 83 40
       -1.7699302 -1.6908886 -0.99656105 4.1192236
000010 49 f6 81 c0 7c dc aa bf ce e8 33 c0 22 7e 50 bf
       -4.061314 -1.3348536 -2.8110843 -0.81442463
000020 da fa 9a 40 54 5f 6c 40 76 84 7e bf 5a bc 71 c0
       4.8431215 3.6933184 -0.9942087 -3.777121
000030 cb f4 f4 bf d4 d0 c5 be 4a 20 e7 bf 47 dc 9d 40
       -1.9137205 -0.38635886 -1.8056729 4.9331393
000040 4b 30 c3 bf 2b 03 90 c0 84 32 b2 40 7b 18 7c 40
       -1.5249113 -4.5003867 5.5686665 3.9389942
000050 26 a8 e2 bf e6 fe 4e c0 8f ee 97 c0 23 c8 83 c0
       -1.7707565 -3.2343078 -4.747871 -4.1181808
000060 27 4b 9f bf 7f 06 42 40 e8 c1 a7 bf ce 80 2a c0
       -1.244481 3.0316465 -1.310605 -2.6641116
000070 8c 64 8f 40 84 b4 5e bf 3e 8d 8a c0 13 fe 94 40
       4.481024 -0.86994195 -4.3297415 4.656015
000080 8b 0f 98 bf a2 f9 be 40 1a 16 8c 40 6f 92 a6 bf
       -1.1879743 5.9679728 4.377698 -1.3013438
000090 d0 33 5d c0 3f 13 de bf ce 1f 08 c0 30 25 13 c0
       -3.4562874 -1.7349623 -2.1269412 -2.2991447
0000a0 80 dd 98 40 ea 10 07 c0 02 84 69 bf 80 36 54 c0
       4.7770386 -2.1104074 -0.9121705 -3.3158264
0000b0 41 de 74 bf 86 4c 03 c0 c0 b0 70 40 64 94 51 40
       -0.9565163 -2.0515456 3.760788 3.274682
0000c0 7d 3d 1b bf 8f e4 84 bf d5 8d 38 c0 f5 82 1d c0
       -0.606407 -1.038225 -2.8836567 -2.461118
0000d0 ab 0c 0c bf 4f d9 46 40 43 af 79 40 91 56 42 c0
       -0.5470683 3.1070135 3.9013221 -3.0365336
0000e0 54 07 61 40 0c e1 26 c0 e0 92 1e 40 76 5d 97 bf
       3.5160723 -2.6074858 2.4777145 -1.1825397
0000f0 a5 16 ff be 30 c5 32 40 e7 1b 56 40 5e 65 ca bf
       -0.49821964 2.7932854 3.345453 -1.5812185
000100 4f 47 6e c0 9a c8 b8 be 0b 76 9b 40 72 2b 6f 40
       -3.7231023 -0.36090547 4.8581595 3.7370267
000110 b0 a3 32 c0 74 6c de c0 c2 20 bc 40 9c 7d 88 be
       -2.7912407 -6.950739 5.8789988 -0.26658332
000120 c6 81 a2 40 27 59 2f c0 71 c4 88 40 03 0a 75 bf
       5.0783415 -2.7398164 4.2739797 -0.957184
000130 b8 07 04 bf 05 0d 27 bf 7a cc 4b c0 9a a1 9e 40
       -0.5157428 -0.6525424 -3.1843553 4.9572268
000140 e4 d0 0d bf 04 33 72 40 fa a1 85 40 f6 f7 54 40
       -0.55396867 3.7843637 4.1760225 3.3276343
000150 08 18 ac bf 5b 87 dc c0 aa 83 5c 40 63 9c 4b 40
       -1.3444834 -6.891523 3.4455361 3.18142
000160 0c 9a 5c bf 5f 5e 1c bf b9 44 9e bf 8f 7c 6f 40
       -0.86172557 -0.610815 -1.2364722 3.7419775
000170 46 72 0a c0 0d 3e df bf 4d fe 8a 40 d1 f2 23 c0
       -2.1632247 -1.7440811 4.3435426 -2.5616953
000180 5a 4f 08 bf e2 b4 40 bf c0 41 1c 40 02 db 8c 40
       -0.5324608 -0.75276005 2.441513 4.4017344
000190 83 44 60 c0 c3 65 93 bf c2 68 90 c0 f6 59 13 bf
       -3.5041816 -1.151543 -4.512788 -0.57559144
0001a0 09 5b 3e 40 bf 79 e6 bf 7c 28 da bf 1b 6c 61 40
       2.9743063 -1.8005904 -1.7043605 3.5222232
0001b0 3e 97 01 c0 0e c7 8c 40 bc fc d1 bf 1d c9 58 c0
       -2.024856 4.3992987 -1.6405253 -3.387275
0001c0 7e 0b 47 c0 1c 5a 9e c0 7a 6e 84 40 b5 24 d6 be
       -3.1100764 -4.9484997 4.138486 -0.4182488
0001d0 bf 0e 12 c0 3c 9a b0 40 9f 05 46 bf 73 ca 91 bf
       -2.28215 5.5188274 -0.7735233 -1.1389908
0001e0 71 41 91 bf 73 a3 bf c0 0a bc cb 3f d5 8f d2 bf
       -1.1348096 -5.9887023 1.591676 -1.6450144
0001f0 55 80 32 c0 3a 8f e9 be 10 81 82 c0 20 05 c6 bf
       -2.7890828 -0.45617086 -4.0782547 -1.5470314

arith.constant6 f4 [256]
000000 00 00 00 00 00 00 00 00 db ef 20 3c d3 1b 44 bc
       0.0 0.0 0.009822811 -0.011969524
000010 9f f0 ec bb 00 00 00 00 00 00 00 00 d7 1b ed bb
       -0.0072308327 0.0 0.0 -0.007235985
000020 df 25 cf 3c ed 82 29 bc d4 b7 b1 bb f0 5a a5 3c
       0.025286613 -0.010346157 -0.0054235253 0.020184964
000030 cf c8 c4 bb 2b 3e 99 bc 20 31 3a bc 81 ee 36 bc
       -0.0060053836 -0.018706402 -0.011364251 -0.011165262
000040 7b 5b f6 3c a4 a4 b4 bb d9 1f af 3b 4f a9 35 3b
       0.030072918 -0.0055127908 0.0053443727 0.0027719324
000050 00 00 00 00 9a 48 c0 3b f2 05 81 3a 00 00 00 00
       0.0 0.00586803 0.0009843691 0.0
000060 1a 55 96 3c 49 63 b9 3a 0b 8c f3 3c 60 ea 9b 3c
       0.018351126 0.0014143969 0.029729864 0.019032657
000070 03 4d a4 bc 4e b8 24 bc 62 a3 ba 39 f7 a2 81 3b
       -0.020056253 -0.010053707 0.00035598414 0.0039561945
000080 3e 32 f5 bb 4e 1a bc 3c f7 dc a3 ba 92 71 f5 bc
       -0.007482796 0.022961762 -0.0012501766 -0.029961381
000090 00 00 00 00 f9 65 58 3a 37 a8 fa 3c 34 e5 02 3c
       0.0 0.0008254941 0.03059779 0.007989217
0000a0 00 00 00 00 dd f9 ae 3a 34 0f 22 bd ac 7c 71 3b
       0.0 0.0013349612 -0.03956528 0.0036847992
0000b0 bb e5 54 bc 7d 47 f5 3b 47 08 5a 3c 56 c5 c4 3b
       -0.012994225 0.0074853287 0.013307638 0.0060049696
0000c0 00 00 00 00 00 00 00 00 62 9f 45 bc 00 00 00 00
       0.0 0.0 -0.012061926 0.0
0000d0 c8 13 b4 3b a0 22 31 bc eb 8d 95 3c 34 33 df bb
       0.005495522 -0.010811478 0.018256148 -0.006811524
0000e0 3b ec ac 3c b5 78 d9 3b 9d 42 10 3c 00 00 00 00
       0.021108737 0.006636704 0.008804944 0.0
0000f0 96 54 ab bb 94 fd e2 b9 90 5d d4 3b 70 5e 6e bd
       -0.0052285893 -0.0004329501 0.00648088 -0.05819553
000100 07 ee 3d bc 83 36 31 3c 89 01 22 bc 4d 98 30 bc
       -0.011592395 0.010816219 -0.009888061 -0.010778499
000110 33 92 84 bc 0e e2 09 3c 99 1f 91 bc ef 20 b1 bb
       -0.016182994 0.008415712 -0.017715262 -0.0054055373
000120 35 3f c9 bb c7 4e a1 3d b1 37 5c 3d 9d d4 92 3c
       -0.006141568 0.07876354 0.05376405 0.017923648
000130 00 00 00 00 c4 c8 c4 bb 00 00 00 00 71 f1 21 bc
       0.0 -0.0060053784 0.0 -0.009884224
000140 d6 51 19 3c 71 6f d3 3c 9a 29 4f bc 6a 0a 84 3c
       0.00935789 0.025809975 -0.012644196 0.016118247
000150 41 c3 17 3b 65 53 d4 3c 2c 0f 09 bc 83 d4 98 3a
       0.0023157152 0.025918672 -0.008365434 0.0011660013
000160 00 00 00 00 9d c7 c4 bb 4c 29 cb 39 00 00 00 00
       0.0 -0.006005241 0.00038749946 0.0
000170 9b 7b be bb e9 e8 80 bc 33 6d 87 bb 00 00 00 00
       -0.0058130748 -0.01573606 -0.0041328906 0.0
000180 05 32 9c 3c 00 00 00 00 96 c1 2b bd 59 56 a3 bc
       0.01906682 0.0 -0.041932665 -0.019938635
000190 00 00 00 00 af ae c3 3b fc 81 6b bc 54 72 2d 3c
       0.0 0.0059717516 -0.014374252 0.01058634
0001a0 7d cf 9b bc 47 73 6e ba f6 e7 64 bb e5 f1 9d bc
       -0.019019837 -0.0009096157 -0.0034928299 -0.019280383
0001b0 ad a4 b1 bb 22 ca be bc e6 4b f5 bb a3 b0 17 bc
       -0.005421242 -0.023289744 -0.0074858544 -0.009258422
0001c0 98 72 0c bc f6 32 15 3c 00 00 00 00 00 00 00 00
       -0.008572243 0.009106388 0.0 0.0
0001d0 93 ea 37 3c fa 25 20 3d 36 f0 bd 3a 7f 5c 33 bc
       0.01122536 0.039098717 0.0014491144 -0.010947346
0001e0 ff ff 44 3c db 9e 9d bc ad cc c5 3c cc 98 d0 bc
       0.012023925 -0.019240787 0.024145449 -0.025463484
0001f0 00 00 00 00 7c c3 c4 3b c1 bc 93 ba bd 88 86 3a
       0.0 0.006004749 -0.0011271463 0.001026414
000200 08 d9 08 3d ba 87 3e bc 7d ce 84 bc a5 1b d2 bb
       0.033410102 -0.011629039 -0.016211743 -0.006411987
000210 27 aa ba bc 7e 15 35 bc 48 50 35 bc 6a 40 65 3d
       -0.022786213 -0.011052487 -0.011066504 0.055969633
000220 43 49 96 bc cd d7 c5 3c 32 79 86 bc 00 00 00 00
       -0.01834548 0.024150753 -0.016415212 0.0
000230 f9 b9 67 3c 4e c5 07 bc ff 14 23 bc 2e 14 b2 bc
       0.01414346 -0.008286787 -0.009953736 -0.021738138
000240 ab 0e e7 3c 40 34 21 bc c2 e3 88 bc 57 9d e6 3c
       0.028205236 -0.0098391175 -0.016710166 0.028151197
000250 f5 d5 20 3c 21 11 c2 bb 00 00 00 00 00 00 00 00
       0.009816636 -0.005922452 0.0 0.0
000260 7e 3d b1 3c 00 00 00 00 be ed 3d bc ff 21 f9 3c
       0.021635767 0.0 -0.011592327 0.030411718
000270 cf a0 cf bc 73 e2 22 3b 05 19 2d 3c 78 50 7f bd
       -0.025345234 0.0024854213 0.010565047 -0.0623326
000280 de 11 e5 3c b9 28 a0 3c 49 ef b4 bb 00 00 00 00
       0.027962621 0.019550668 -0.005521689 0.0
000290 16 bc ae 3b db b7 08 bc 14 b0 6b bc 01 f1 4c 3b
       0.00533248 -0.008344616 -0.014385242 0.003127158
0002a0 30 99 74 b8 00 00 00 00 00 00 00 00 d0 b5 4e 3c
       -5.83168e-05 0.0 0.0 0.01261659
0002b0 84 25 bc 3c 00 00 00 00 0e 07 12 3d 4b 17 a9 bb
       0.022967108 0.0 0.03565126 -0.0051602474
0002c0 04 15 12 3c f7 16 0e bb 79 39 32 bc 89 65 4a 3a
       0.008916143 -0.0021681169 -0.01087796 0.00077208184
0002d0 00 00 00 00 94 7c eb 3a f6 9c 24 3c 10 36 e0 bc
       0.0 0.0017966204 0.010047188 -0.027369529
0002e0 e8 ba 43 3c 62 b6 87 bc 46 8a 6e bb cc e4 34 bc
       0.011946417 -0.01656646 -0.0036398335 -0.011040878
0002f0 80 5c e5 bc 1a b2 01 3b fc 15 79 3c 76 85 f6 bb
       -0.027998209 0.0019789995 0.015202995 -0.007523234
000300 ae 42 3e 3c d4 37 33 3c 38 60 99 bc 10 c4 c4 3b
       0.011612577 0.010938603 -0.018722638 0.006004818
000310 e5 cf f7 ba 69 8b a7 bb 35 78 64 bc 04 c9 5c 3c
       -0.0018906562 -0.0051130545 -0.013944675 0.01347566
000320 7e 3c b3 3b d1 51 25 3c 00 00 00 00 c2 f4 08 bc
       0.0054698577 0.010090307 0.0 -0.008359136
000330 a1 eb 09 bc 00 00 00 00 00 00 00 00 ff c4 31 ba
       -0.008417995 0.0 0.0 -0.0006781369
000340 35 6b bc 3c 00 00 00 00 e3 74 3a 3a 8a 62 58 3b
       0.023000339 0.0 0.00071127544 0.0033017718
000350 00 00 00 00 95 c2 88 3b c1 0e bc bc 22 23 d5 bc
       0.0 0.0041735866 -0.022956254 -0.02601773
000360 2e f7 71 bb 8e c5 c4 3b 37 57 d3 3c 00 00 00 00
       -0.0036921012 0.0060049957 0.025798423 0.0
000370 43 1c 90 3c a0 7b 91 bc 56 01 54 bc 02 0e 6a bb
       0.017591601 -0.017759144 -0.012939772 -0.0035713916
000380 68 00 06 bc 00 00 00 00 aa 9b 5f bc 2d 42 29 bd
       -0.008178808 0.0 -0.013647953 -0.041322876
000390 20 16 0e 3d d6 c7 d3 3b c1 30 fe bb 7b bb 89 bc
       0.03468907 0.0064630313 -0.0077572768 -0.01681303
0003a0 38 08 e3 bb b2 8c c6 bb 2e bf 48 3c 71 f7 e7 3b
       -0.00692847 -0.0060592527 0.012252612 0.007079058
0003b0 fd 1c a8 bb c3 55 81 3c 91 58 25 3d f8 3a 60 bc
       -0.005130409 0.015787965 0.040367667 -0.013685934
0003c0 e1 54 ef bb 0a 63 4d 3c a6 8e b2 ba d6 a7 9c bc
       -0.0073038195 0.01253582 -0.0013622835 -0.019123
0003d0 2e 53 ab bb 00 00 00 00 6d d6 18 bc 80 2c 0b bc
       -0.0052284217 0.0 -0.009328467 -0.008494496
0003e0 0b a0 05 3c f3 a0 de bb 7b db 2d bb 45 c8 c4 3b
       0.008155833 -0.006794089 -0.0026528526 0.0060053193
0003f0 5c fa 43 3d 00 00 00 00 38 0f a5 3c 00 00 00 00
       0.047846183 0.0 0.020148858 0.0

sequential_1/dense_1/MatMul f4 [256, 63]
000000 b8 ca be bc 9a 8d be bd fe 15 b5 3d c4 fb f6 3d
       -0.023290023 -0.09304352 0.08842085 0.12059739
000010 0c ba b7 bc 7e f9 d1 bd e9 f8 00 be 40 2b a7 3b
       -0.022427581 -0.10252665 -0.12594952 0.0051015913
000020 46 8c 0f bd e8 e3 4b bc d2 ce 8e bd 30 77 ba bd
       -0.035045885 -0.012444474 -0.069730416 -0.091047645
000030 08 c2 ab 3c 7e 14 9c 3d c7 a3 82 bd 80 d9 7a 3c
       0.020966545 0.07621096 -0.06378894 0.015310645
000040 5e 91 66 bd cc 89 02 3d 14 dc e6 bd 30 e1 93 bc
       -0.056290977 0.031869695 -0.11272445 -0.018051714
000050 da d8 84 3d 89 ff 93 bd fd 74 8f bd 82 6f 67 bd
       0.06486674 -0.07226474 -0.070047356 -0.056502827
000060 30 c8 40 bc 1e f9 b8 bd 78 11 da bc d4 6c a8 bd
       -0.011766478 -0.0903189 -0.026619658 -0.08223882
000070 2c 63 03 be f0 ad 0a be 7a f3 39 bd 40 d3 02 3d
       -0.128308 -0.13542914 -0.045398213 0.031939745
000080 29 f9 df bd 80 b6 ef 3a b8 b3 4a bc 74 57 0e bd
       -0.109361954 0.0018288642 -0.01237195 -0.03475137
000090 68 34 f6 3d 80 eb d2 bd de ec 35 bd 80 54 9c 3d
       0.120217144 -0.10298824 -0.044415347 0.076333046
0000a0 50 31 4d bc 04 f8 ef 3d 20 98 e7 3d a0 3a ec 3c
       -0.012523964 0.11717227 0.113083124 0.028836548
0000b0 e2 55 17 bd 48 ff f1 3d 00 a4 bc 3c 70 49 c3 3d
       -0.03694714 0.11816269 0.02302742 0.095354915
0000c0 91 25 02 be c0 04 07 3e 02 b4 03 be 9b eb 81 bd
       -0.12709643 0.13185406 -0.12861636 -0.06343766
0000d0 e8 21 4c bc 00 7c e4 3a 90 c4 75 bc d0 9a 01 be
       -0.012459256 0.0017431974 -0.015000477 -0.12656713
0000e0 6e ac 74 bd 80 17 96 3a 90 1f 70 3d d0 d4 66 3c
       -0.059734754 0.0011451095 0.05862385 0.014088824
0000f0 82 c0 07 3e 0e ef 37 bd 48 5d 73 bd 10 d3 3d bc
       0.1325703 -0.044905715 -0.05941513 -0.011585966
000100 db c1 86 bd 0e 6f 0b be 61 8f fc bd 07 cf 03 be
       -0.06579944 -0.13616583 -0.12332035 -0.12871943
000110 a8 7d 29 3d f4 3b 19 3d ea 80 9f bd 8c 56 30 bd
       0.0413796 0.03741069 -0.0778826 -0.043051288
000120 ea 19 ae bd f4 39 67 3d b0 f7 0f bd ea 49 22 bd
       -0.085010365 0.056451753 -0.035148323 -0.03962127
000130 91 5d a9 bd 6c 78 ca bc 3e 44 c3 bd 20 10 cd 3c
       -0.082697995 -0.024715625 -0.095345005 0.025032103
000140 f8 ec bc 3c 1c b3 08 3e 94 4b e5 3d b5 54 00 be
       0.023062214 0.13349575 0.11196056 -0.12532313
000150 e0 91 42 3c 06 0a cf 3d 30 86 58 3c 68 33 3d 3d
       0.0118756 0.10109334 0.013215587 0.046191603
000160 a0 ca e0 3b 18 00 45 bd 38 52 53 3d 8c e1 fb 3d
       0.0068600923 -0.048095793 0.05159208 0.12298879
000170 18 8a 50 3d 8a 07 aa bd 02 d1 b3 bd d7 e3 07 be
       0.050912946 -0.08302219 -0.087800995 -0.13270508
000180 8f f2 07 be c6 cf 9d bd 98 fe e1 3d ea 09 c7 3d
       -0.13276123 -0.07705645 0.11034888 0.09718688
000190 c6 bd d6 bd 30 bf c2 3c 4d a3 ac bd 78 23 a8 3d
       -0.10485415 0.023772806 -0.08429585 0.0820989
0001a0 25 e0 d8 bd 04 d3 ee 3d 00 90 6d 3a da ac 40 bd
       -0.10589627 0.11661342 0.000906229 -0.047039844
0001b0 aa ff c6 3d 38 4c 13 bd 86 a3 ce bd 96 ec b7 3d
       0.09716733 -0.03596136 -0.10089783 0.08980672
0001c0 d0 ed 29 3d b0 13 f2 3d ae cf 69 bd 00 77 0a bd
       0.04148656 0.11820161 -0.057082824 -0.033804893
0001d0 f4 1a 09 3e b4 4a 66 bd 1c b2 2d bd c8 84 4c bc
       0.13389188 -0.056223586 -0.042406186 -0.012482829
0001e0 66 f8 b9 3d ca b7 0b 3e 10 1a 84 bd 28 01 bc bd
       0.09080581 0.13644329 -0.064502835 -0.09179908
0001f0 2c be 68 3d 28 77 b5 3c 21 56 1b 3e ad af d6 bd
       0.056821987 0.022151545 0.15169574 -0.10482726
000200 54 28 91 bd 7e 94 0b 3e 9a d6 d5 bd 5d 48 0b 3e
       -0.0708777 0.13630864 -0.104413226 0.13601823
000210 12 9b b7 3d bb 66 30 3d 90 6c e7 bc d9 b9 18 3e
       0.08965124 0.04306672 -0.028250009 0.14914645
000220 35 ab d9 3c 11 22 20 bc 64 d5 1a 3e 62 ef a2 3d
       0.026570896 -0.009773747 0.15120465 0.07955815
000230 b8 b0 c7 bd fc a2 e2 3d d6 9e be 3c 0a 88 dc bd
       -0.09750503 0.11066243 0.023269098 -0.10768135
000240 e3 f7 ac 3d 0e eb 3b 3c b4 b9 10 3d 7d f4 eb bd
       0.08445718 0.011469616 0.03533335 -0.11521242
000250 22 5e 93 bd ae e1 8f bd 04 f8 1a bd 22 e4 32 bd
       -0.07195689 -0.07025467 -0.037834182 -0.043674596
000260 00 18 59 3d b3 d1 87 3d aa 7d f1 bd 04 cd ad 3d
       0.053001404 0.06631794 -0.11791547 0.08486369
000270 18 af f7 3d 7c 00 23 3d 36 b9 04 bd 78 94 b4 3c
       0.12093943 0.039795384 -0.032403193 0.022043452
000280 ee e8 c2 3d 16 37 ce bd fe c7 13 3d c1 e5 a1 3d
       0.09517084 -0.100691006 0.0360794 0.0790515
000290 63 f4 d2 3d 38 4b 9c 3d a4 f9 c5 bd a9 6f ce bd
       0.10300519 0.07631534 -0.09666756 -0.10079891
0002a0 aa 07 01 be 93 7c 33 bc 7c fe e0 3d da 3e 6b 3d
       -0.1260058 -0.010954994 0.10986039 0.057432987
0002b0 69 87 c4 3b dc a2 b9 bd a8 4a b5 bd 07 92 c7 3d
       0.0059975875 -0.09064266 -0.0885213 0.097446494
0002c0 c3 4b e0 3d d5 5b 8a 3d 1e 06 fe 3d b9 97 a0 3d
       0.109519504 0.06755797 0.124035105 0.07841439
0002d0 3d c6 d6 3c aa af 14 3e a7 a6 88 bd 69 5b b0 3d
       0.026217574 0.14520136 -0.066724114 0.08611185
0002e0 d6 07 e0 bd c0 ec 49 3d ca a2 78 3d 48 06 1d be
       -0.109389946 0.049298048 0.060702123 -0.15334427
0002f0 17 66 f9 3d 22 41 d6 3d a8 b7 b2 3c a9 b6 3a 3d
       0.12177675 0.10461642 0.02181609 0.045584355
000300 17 c3 b6 3d 24 05 be 3d c1 65 c9 bd f9 ce 2d 3d
       0.08923929 0.09278324 -0.09833861 0.042433713
000310 e3 a8 06 be 16 90 cf 3d b0 df 84 3c 5b 9a 83 3d
       -0.13150363 0.10134904 0.016219944 0.06425925
000320 55 58 c8 bc 98 4b 6e 3d 95 ff 60 3d 8e 49 02 be
       -0.024456182 0.05817756 0.054931242 -0.12723371
000330 89 d9 03 be 5b 7b a3 bc 97 a5 e8 bd 58 f0 0c bd
       -0.12875952 -0.019956281 -0.11359709 -0.034408897
000340 98 70 66 3d 3d 0e d6 bd 03 31 ec 3d d8 14 ab bc
       0.05625972 -0.104519345 0.11532786 -0.020883963
000350 74 de eb bd f1 5f a8 bd 5f c3 1b bd b0 59 a1 bd
       -0.11517039 -0.08221424 -0.038028117 -0.07878435
000360 e3 08 bb bd 77 09 15 3d f1 61 88 bd f7 f5 82 bd
       -0.091325544 0.03638598 -0.06659306 -0.0639457
000370 67 2d 6c 3d 80 f9 99 bd 53 c6 a6 bd c3 ce b5 bd
       0.057660487 -0.075182915 -0.08143296 -0.08877327
000380 82 aa 9c 3d 34 1e 56 bd 75 98 bc bd 0f e1 4d 3c
       0.07649709 -0.052274898 -0.09208766 0.012565865
000390 eb d7 0b be 8a cd 0e be d8 42 5d bc ec c3 ad 3d
       -0.13656585 -0.13945594 -0.013504706 0.08484635
0003a0 0e 1f e2 bd 41 55 d5 3d de 99 9c bd 67 26 c5 bc
       -0.110410795 0.104166515 -0.07646535 -0.024066163
0003b0 6f e1 f9 3d d8 59 0b bb 76 a6 d8 3c 88 d3 a7 bd
       0.12201201 -0.0021263268 0.026446562 -0.08194643
0003c0 41 a0 08 be a9 15 28 bd 3f 88 d5 3c 11 ac 55 bd
       -0.13342382 -0.04103628 0.026065944 -0.05216605
0003d0 ef b8 8b bd 45 cf d0 3d 53 54 7c 3d 41 33 27 3d
       -0.06822383 0.101957835 0.061603855 0.040820364
0003e0 89 84 8e 3d 1a ea 4a bd d9 f5 5a bd c7 0f 32 bd
       0.06958873 -0.049539663 -0.053457115 -0.043472078
0003f0 df 95 d0 3d 63 d3 ad bd 9d 0b 1d 3d 93 c0 78 bd
       0.10184836 -0.084875844 0.038341153 -0.060730528
