Number Recog Model/asl_number_classifier.tflite (tflite, 70496 bytes, 6 tensors)

arith.constant f4 [10, 64]
000000 ea ca a3 3d 9f 6b 6b bd 9d d5 de 3e ce 24 ac 3e
       0.07997687 -0.057475682 0.4352235 0.3362183
000010 69 f7 91 be 31 56 89 ba 92 15 03 bc 13 2f 6a 3e
       -0.2850907 -0.0010477958 -0.008000748 0.2286952
000020 d6 57 87 3e 32 bc 80 be cc 0c 3f be aa 4c be bd
       0.264342 -0.25143582 -0.18657225 -0.09291966
000030 21 2a b0 3e fa db c6 be 14 11 d2 3e ba 35 77 3e
       0.34407142 -0.38839704 0.41028655 0.24141589
000040 92 ff 1f bf a7 77 97 be dc 62 40 be 82 f0 9d 3e
       -0.62499344 -0.29583475 -0.18787712 0.30847555
000050 b0 05 3c 3d eb de e6 bd 43 14 a2 3d 30 56 cf 3d
       0.04590386 -0.11272987 0.07914021 0.10123861
000060 bb 4d de 3d dc 3b ff bd b1 ed d2 bd 78 75 00 3d
       0.1085467 -0.12462589 -0.10299242 0.031362027
000070 29 21 49 3e 89 54 07 bf 3e be 2e be 19 d7 c2 be
       0.19641556 -0.52863365 -0.17064759 -0.3805473
000080 c2 d8 88 3d 84 dd c8 3d 97 aa 81 be 2d b8 5b be
       0.06681968 0.09807876 -0.25325462 -0.21456976
000090 0c ef 00 3e 3b 39 83 be 07 ee a2 3c ee 8e b2 bc
       0.12591189 -0.256296 0.01988889 -0.02179667
0000a0 7c 82 81 be 74 2a 6f be 06 63 89 3e e1 42 99 3e
       -0.25294864 -0.23356038 0.2683336 0.29933837
0000b0 a6 d0 df be 78 82 13 3e d4 68 e2 3e 52 3b 6f 3d
       -0.43713874 0.14405239 0.44220603 0.05840618
0000c0 36 01 5e 3e 28 c8 4a 3d 65 bf 56 3e f5 c0 2a be
       0.2168015 0.04950729 0.20971449 -0.1667517
0000d0 eb 4b 05 bf 99 fe 06 bf 46 ba d0 be 34 bf 51 3e
       -0.52068967 -0.52732235 -0.40767115 0.20483094
0000e0 b8 52 4a be c2 11 07 3f 01 0a 05 bf c5 cc 10 bf
       -0.19758117 0.5276147 -0.5196839 -0.56562454
0000f0 dc ec 1d 3e da c9 a3 3e 75 98 77 3e f2 85 e3 bd
       0.15422386 0.31989938 0.24179251 -0.111095324
000100 7c 84 5c be 3c 29 d4 3e 51 38 ba 3d 4e 8c 68 3e
       -0.21534914 0.4143771 0.09092773 0.22709772
000110 2e 26 aa be f8 1d 86 3d 04 8d fe be 35 f2 a7 be
       -0.33232254 0.06548685 -0.4971696 -0.32801977
000120 9e ea 0c be 55 57 ae 3e e0 9e 33 3e 2e 80 e2 3d
       -0.13761374 0.34051004 0.17541075 0.110596046
000130 10 b9 9e be fc 91 83 be a8 15 e3 be f2 67 dc bd
       -0.31000566 -0.25697315 -0.4435246 -0.107620135
000140 a5 e5 55 3e 40 7a bc be e6 b8 70 3e ed 81 83 3d
       0.20888384 -0.3681202 0.23508033 0.06421266
000150 74 4f b0 bd 8d 90 bd be bd dc ba 3e 44 63 9f 3d
       -0.086089045 -0.37024346 0.36496535 0.07782605
000160 b1 e3 7b 3e 49 29 77 3c 6e f2 2c 3e 47 cc 4e 3d
       0.24598576 0.015085527 0.16889355 0.050487783
000170 4b 5d fe 3e 17 76 b7 be 1a 95 cf 3b ca 80 1e bf
       0.49680552 -0.35832283 0.006334913 -0.61915267
000180 c0 8b 50 3e b2 05 22 3e 4d 3d 25 be 9e 4c 36 3e
       0.2036581 0.15822485 -0.16136666 0.17802665
000190 46 43 eb 3e 76 dd dc be 14 02 82 3e 97 e6 32 3e
       0.45949763 -0.4313771 0.2539221 0.17470776
0001a0 53 c6 24 bf e6 e1 a7 bd 6c a1 63 3e 6a 1b 4d 3d
       -0.6436512 -0.081973836 0.22229546 0.050074972
0001b0 1a fc aa 3d 6c 2d 84 3d d6 78 f5 bd 10 23 18 bc
       0.08348866 0.06453976 -0.11985938 -0.009285703
0001c0 2d 22 3e bd 0c 46 82 3d 52 66 10 bf 79 05 55 bd
       -0.04641931 0.06361017 -0.5640613 -0.052007172
0001d0 13 5b 20 bf 6b 3c 8f be 3f 1c 79 3e 2e 01 08 be
       -0.6263897 -0.27975783 0.24327181 -0.132817
0001e0 48 92 6a 3e db 44 bc be 1a aa 2f bf 04 2b 10 be
       0.22907364 -0.36771283 -0.6861893 -0.14078909
0001f0 09 86 18 be 39 36 93 3d f4 ea 01 bf 53 2d 94 3e
       -0.1489488 0.071880765 -0.50749135 0.2894083
000200 bc 9c 83 bb cf e5 9b be d7 f0 0b bf 92 8e 48 bd
       -0.004016487 -0.30448768 -0.5466437 -0.04896409
000210 1f 13 85 be 6e 5a 6b be 51 df f1 be 3a b1 65 3e
       -0.2599115 -0.22983715 -0.4724069 0.22430888
000220 7c ac 2c bf 78 c9 68 3d 46 2a 7b be d6 34 74 be
       -0.6745069 0.05683276 -0.24527845 -0.2384828
000230 32 ea 09 bf 7f d2 23 bd 55 8c ca be b4 c9 84 be
       -0.5387298 -0.039995667 -0.3956019 -0.25935137
000240 c6 73 a8 3e 1e cb 8c 3e 9b c4 e0 3d bf aa 4f bd
       0.32900828 0.27498716 0.109749995 -0.050699946
000250 46 3a 04 be c2 01 00 bf a5 aa 4b 3e 5e a6 4f be
       -0.12912855 -0.5000268 0.19889314 -0.20278308
000260 30 d6 59 be cc df 7d 3e 45 1b 46 3d 6b 0a 19 3e
       -0.21273112 0.24792403 0.04836585 0.1494538
000270 09 a2 43 3e 2a e1 58 3d 9a 76 58 be 82 55 a9 be
       0.1910478 0.05294911 -0.21138993 -0.3307305
000280 a1 8b c7 bd f5 1c 3e bf a6 c8 4c 3e 63 ee 02 be
       -0.09743429 -0.74262935 0.19998416 -0.1278625
000290 ca 9e 6e bf ac 58 47 bf a7 e0 c8 3e cb 2e 15 3e
       -0.9321104 -0.7786968 0.39233896 0.14568631
0002a0 53 ba 90 be f5 11 da bb 85 58 39 3e e2 f0 d6 3e
       -0.28267154 -0.0066549727 0.18100174 0.41980654
0002b0 36 dd b2 bc c2 46 63 be 5c e8 64 3e b3 f6 1f be
       -0.021833997 -0.2219496 0.22354263 -0.15621452
0002c0 02 d7 fa bd d4 a8 27 be fa cc a6 3d 26 ff 83 3c
       -0.12248041 -0.16372997 0.08144565 0.016112875
0002d0 1d ae cc 3d 7f d6 36 bf 1c 5b 68 3e 73 88 87 be
       0.09994147 -0.71421045 0.22691005 -0.2647129
0002e0 c6 1e 0f be 22 0d 0f bf 33 70 98 be d1 28 14 be
       -0.13976583 -0.55879414 -0.297731 -0.14468695
0002f0 e0 f6 b1 bd 72 34 e1 3c b5 25 0d bf d6 2d 07 3e
       -0.08689666 0.027490828 -0.5513566 0.13201079
000300 65 d5 aa be 1e c8 5f 3d e5 ac 2f be 24 75 7a 3e
       -0.33365932 0.054634206 -0.17155798 0.24458748
000310 90 67 a6 3e 9e e8 f1 bd 6e 9b a3 3e 0f 16 08 be
       0.32500887 -0.11811946 0.3195452 -0.13289665
000320 52 f2 0c 3f 77 9a 4c be 38 29 c2 3d 3a 01 b3 bd
       0.5505725 -0.19980799 0.09480518 -0.08740468
000330 7c 99 03 bf f0 25 2d bd f7 a1 b9 3e 5a 3e 34 be
       -0.51406074 -0.04227251 0.36256382 -0.1760191
000340 80 c2 fc 3e c8 14 e3 3d a1 55 d8 3d 08 f2 87 3e
       0.49367142 0.11087948 0.105632074 0.26551843
000350 8a 49 64 3e e1 ee 82 bd 95 30 94 be 08 03 aa 3d
       0.22293678 -0.06393219 -0.28943315 0.083013594
000360 db 77 2f 3d 6a 24 94 bd 33 b7 07 bd 2c 3d 03 bf
       0.042838912 -0.07233508 -0.033133697 -0.51265216
000370 d8 4f 9a bd 67 53 55 bb dd 95 13 be 58 b9 81 3e
       -0.0753476 -0.0032550932 -0.14412637 0.2533672
000380 de fb 72 be f1 15 f6 be 26 1c c8 3d 39 62 aa bd
       -0.23728892 -0.48063615 0.09770994 -0.08319516
000390 ac 88 33 bd 31 32 08 bf 0a c1 59 3d 58 a0 3c be
       -0.043831512 -0.53201586 0.053162612 -0.18420541
0003a0 03 10 e8 bb b6 79 00 3d 82 40 09 bf f3 bf c2 be
       -0.007081987 0.031366073 -0.53614056 -0.3803707
0003b0 04 99 2b 3e 00 b8 c5 39 3b 5d f2 3e 51 9a 69 3e
       0.1675759 0.0003771186 0.47336754 0.22812773
0003c0 83 fd b8 3e 90 81 74 be 60 43 ff be 14 74 c4 bd
       0.36130914 -0.23877549 -0.4985609 -0.09592453
0003d0 68 c7 1c bd b1 aa de be fa d9 b9 3e 0a 71 8c be
       -0.038276106 -0.43489602 0.36299115 -0.27429992
0003e0 87 67 9b 3e c0 f3 52 be 25 0c 23 bf 5a c0 0c bf
       0.30352423 -0.20600796 -0.63690406 -0.54981005
0003f0 60 3f 2b 3e c4 69 17 bf dc 30 2c be 97 c8 9f bd
       0.16723394 -0.5914576 -0.16815513 -0.07801931

arith.constant1 f4 [64, 128]
000000 9d 79 cd be fa 81 29 3d 1b 83 14 3e 73 6e 05 bf
       -0.40131846 0.04138372 0.14503138 -0.5212166
000010 78 5a a6 bc 38 bb 5a be 66 32 5e 3e a1 75 cf 3e
       -0.02030681 -0.21360481 0.21698913 0.4051943
000020 ee 6f 99 3d c0 70 0b 3b bd b3 c7 be a2 da 3e b9
       0.07492052 0.002127692 -0.39004317 -0.00018201259
000030 e2 e1 bf 3d 60 8f 03 3d 72 6b 76 3e 07 9e b9 bc
       0.093692556 0.032119155 0.24064425 -0.022658361
000040 75 5a 71 3e 0b 8e 02 3e bb b0 cd bd 36 72 b7 bc
       0.23569663 0.12749498 -0.10043474 -0.022393327
000050 0e d4 d9 bd 0f 83 95 3e 28 52 d7 bd 7a 74 f3 bd
       -0.10636149 0.29201552 -0.10513717 -0.118874505
000060 af b5 bd bd 97 0b f5 bd a2 a1 e9 bd 09 c0 46 3d
       -0.09263169 -0.11965101 -0.11407782 0.048522983
000070 df e0 62 be ef 9a 61 3e 00 ad 0b 3a 90 66 25 bd
       -0.22156094 0.22031759 0.0005328208 -0.040381014
000080 cb c5 a7 3e 20 5a 7a bd d0 92 ca bd dd a1 eb bd
       0.32768092 -0.061121106 -0.098912835 -0.11505482
000090 d3 65 fe 3d c9 81 de be c8 59 43 be a3 e7 f8 bd
       0.12421765 -0.43458393 -0.19077218 -0.12153556
0000a0 48 60 66 bd 7a 2a 61 be 08 ba be 3e 84 e8 11 3d
       -0.056244165 -0.2198886 0.37251306 0.035622135
0000b0 59 c5 2a 3e 2a 5b c0 3d a0 8a 15 3e 99 a6 03 3b
       0.16676845 0.09392388 0.14603662 0.0020088314
0000c0 c2 a6 f1 3d 3a 8b 7f 3e e6 55 9c be 90 ba 30 3e
       0.11799385 0.24955454 -0.30534285 0.17258668
0000d0 4e 47 99 3e 89 4c 4d be 0c b4 33 be c6 28 f9 bc
       0.29937214 -0.20048727 -0.17549151 -0.03041495
0000e0 85 2c e4 3d 42 fd c1 3d c0 3d 1f bd f2 15 05 bf
       0.11141304 0.09472133 -0.03887725 -0.5198661
0000f0 51 82 13 bf c3 89 d1 be 3b 5f 8c 3c 86 e1 24 be
       -0.5762072 -0.40925416 0.017135253 -0.16101655
000100 31 db 2e 3e cc 54 34 3d 2e 53 5e be a6 e3 4a 3e
       0.17075802 0.04402618 -0.21711418 0.19813403
000110 95 92 0d 3e d7 22 62 be 24 33 2a be 07 91 32 3e
       0.13825448 -0.22083603 -0.16621071 0.17438136
000120 68 49 0f be f0 65 e1 3d d3 68 94 be 00 5a ff 39
       -0.13992846 0.11005771 -0.28986225 0.00048704445
000130 b1 90 81 be 11 20 dd be 8e d7 ce 3d 50 6c 5c 3d
       -0.25305703 -0.43188527 0.100997075 0.053814232
000140 91 1b ca bd 74 54 57 bd c5 02 eb 3d 98 c6 f6 3c
       -0.09868539 -0.052570775 0.114751376 0.030123994
000150 8a 99 c0 bd ad e0 9a be 5a 72 80 3e 83 4d c3 3d
       -0.09404285 -0.3024954 0.25087243 0.095362686
000160 76 8b 1f be 75 14 ac 3d a5 c0 9b 3e 88 c0 d1 bc
       -0.15580544 0.08402339 0.30420414 -0.025604501
000170 ea ea 81 3d 32 96 9b 3e fa c0 c9 bd ce 01 ae bd
       0.063436344 0.30388027 -0.098512605 -0.08496438
000180 a0 51 d7 3c 69 18 40 be cc 59 6d 3d e1 75 b4 3d
       0.026284039 -0.18759312 0.057946965 0.08811546
000190 f9 ff 05 3e 71 d3 30 be cd 20 79 be e5 73 40 3e
       0.13085927 -0.17268158 -0.24328919 0.1879421
0001a0 3e 80 0b 3e dd 70 f3 bc c6 d2 b4 3d bc 28 1a 3e
       0.1362314 -0.029716903 0.08829264 0.15054601
0001b0 10 90 0f be bc 92 5b be 3c 94 2e bd a7 3e 3f be
       -0.14019799 -0.21442693 -0.042621836 -0.18676244
0001c0 4c 69 f4 3e 68 65 4d 3d 21 40 27 3e ea 03 9a 3d
       0.47736585 0.050145537 0.16333057 0.07520278
0001d0 d2 28 21 bd f8 3f 63 bd cd 2d 18 3e 5e 05 42 3e
       -0.03934557 -0.055480927 0.14861222 0.1894736
0001e0 a1 ea 1c be 4e 8c d8 bd cb d2 6b 3e 78 66 1c bd
       -0.15323879 -0.10573636 0.2302963 -0.03818366
0001f0 18 b4 45 bd c5 b1 16 bb b9 b2 88 be 18 03 a3 bd
       -0.048267454 -0.0022994142 -0.26698855 -0.079595745
000200 6f cb ec 3d b4 fb ad be c3 76 84 3d 56 cd 09 bb
       0.115622394 -0.33981097 0.064679645 -0.002102693
000210 1b 59 0b be 2c d8 73 3d cf 02 4f 3e 67 c8 4f 3e
       -0.1360821 0.05953233 0.20215915 0.20291291
000220 d8 f7 48 3d 25 17 13 3e 03 a0 2c bd 0d e5 13 3d
       0.049064487 0.14364298 -0.042144787 0.03610711
000230 d8 60 01 3d 33 4c 9b ba ca 26 15 be a6 24 eb 3d
       0.031586498 -0.0011848271 -0.14565578 0.114815995
000240 34 c1 74 3d fa 32 ad bd c0 1c eb bc 22 ee 40 3c
       0.059754565 -0.08456989 -0.028700233 0.011775525
000250 4d 0f 9f bc 34 9e 92 3e 41 1e 04 3e 5d 23 0b 3e
       -0.019416476 0.28636324 0.12902166 0.13587709
000260 6e a6 a1 bd fd 08 dc be 42 cb b4 3d e6 e2 d4 3e
       -0.07893072 -0.42975608 0.08827831 0.4157936
000270 8c 4a dc 3e 8d 7b b0 bd 84 a7 29 3d 03 82 aa bd
       0.43025625 -0.086173154 0.04141952 -0.08325579
000280 26 62 fa 3e fc 8b b6 3d c2 1c 85 bd 7e af 07 be
       0.48903006 0.08913419 -0.06499626 -0.13250539
000290 20 f7 c5 bd 9a 60 e5 3e f7 83 15 bf 07 74 24 3d
       -0.09666276 0.44800264 -0.5840449 0.040149715
0002a0 2c 96 38 bd b8 b6 69 bd 56 4d 55 3d ce 5f 4b 3e
       -0.04506509 -0.05705902 0.052075706 0.19860765
0002b0 b4 f4 0e bd 5d 23 0d 3e 86 e7 9d be 96 44 8c be
       -0.034901336 0.13783021 -0.308407 -0.27396077
0002c0 ec ac 80 3d de fe c8 3c 51 00 2f 3e f3 8d 2d be
       0.06282982 0.024535593 0.17089964 -0.1694868
0002d0 2a 29 a8 3d 0a 18 b1 3d 19 eb 18 3e d5 19 07 be
       0.082109764 0.08647163 0.14933433 -0.13193448
0002e0 42 52 d8 3e 0a a0 a3 bd 21 ae 1e bd c5 c2 8b 3c
       0.42250258 -0.079895094 -0.03874028 0.017060647
0002f0 66 e9 eb 3d 17 d3 2f be 1c 51 16 be 69 d5 31 be
       0.115191266 -0.17170368 -0.14679378 -0.17366566
000300 18 fb 23 be bd 62 28 3e 80 32 00 3e 02 6d 5f be
       -0.16013753 0.16443916 0.12519264 -0.21818927
000310 80 01 ff 3b 95 ea d6 3d dd ab 6b 3e bd 83 01 3e
       0.0077821612 0.10493962 0.2301478 0.1264791
000320 92 17 d4 3d 18 63 64 3e 7b 58 3f 3d 80 d5 96 bc
       0.10356058 0.22303426 0.04671524 -0.018412352
000330 72 cd f7 3e 7c 9e 71 bd 54 93 00 bd 27 68 18 be
       0.4839893 -0.058989033 -0.031390503 -0.14883481
000340 21 db 24 3e 98 78 ba 3c 24 4c 94 3d 48 5a 99 bd
       0.16099216 0.022762582 0.07241085 -0.07487923
000350 8c d6 8a bd fb e3 b9 be 5d 9f 0d be c6 83 b4 3e
       -0.06779203 -0.36306748 -0.13830324 0.35256785
000360 d5 af 9f bd e7 f8 23 3e 3e e3 f9 bd 74 1d 27 be
       -0.07797209 0.16012917 -0.12201546 -0.16319829
000370 0f 04 14 3e cd 0d 25 3e ef d0 47 3d 36 14 aa bd
       0.14454673 0.16118546 0.04878324 -0.08304636
000380 c0 89 36 3b d9 78 aa bd ab 64 91 bd 5a c7 ca ba
       0.0027853101 -0.08323831 -0.07099279 -0.0015470788
000390 c0 0d 0e bd fc ec 29 3d 40 8c 2b 3f a0 bb 72 3d
       -0.03468108 0.04148577 0.6701088 0.059260964
0003a0 b7 ef 73 be 6f 1a 52 3c 46 33 f8 3d f0 ae 2d be
       -0.23821913 0.012823685 0.12119155 -0.16961265
0003b0 15 2f 2c 3e 12 14 a2 3e ee 57 b1 3d a8 29 b4 3d
       0.16814835 0.31655937 0.086593494 0.08797008
0003c0 95 a8 34 bd 38 b5 cc bd 47 78 39 3e 01 02 d8 bd
       -0.044106085 -0.09995502 0.18112288 -0.10547257
0003d0 7d 32 b7 3d 48 c7 ea bc d6 9e f9 bd 5c c6 0d 3e
       0.08945177 -0.028659478 -0.12188499 0.138452
0003e0 6e f7 40 bd 76 49 1f 3d 47 4f ec be 27 f4 11 3e
       -0.047110967 0.038888417 -0.46154234 0.14253293
0003f0 a0 7d 8a 3b cc ad db be 5a ed 39 3e 79 e6 a6 be
       0.0042264014 -0.42906034 0.18156949 -0.32597712

arith.constant2 f4 [10]
000000 32 07 29 3c dd 25 f0 bc b3 f7 4d 3d 34 06 97 bc
       0.010316657 -0.02931493 0.050285053 -0.018435575
000010 32 4a ab bc a6 a5 ab bc 2f 67 b9 3b 7e df 0c 38
       -0.020909403 -0.02095301 0.0056580524 3.3586744e-05
000020 a1 16 a5 3c 3f 3d de bb
       0.020152392 -0.0067822034

sequential_1/dense_1_2/BiasAdd/ReadVariableOp f4 [64]
000000 1e e5 84 3c 95 1a 40 3d 0b 41 7b 3d 7b b6 54 3a
       0.016222533 0.04690035 0.061341327 0.000811435
000010 d2 31 bf bc c3 8d 63 bc 15 19 e7 ba e2 9a d8 3b
       -0.023339186 -0.013888779 -0.0017631376 0.0066102603
000020 d0 d5 d6 3b dd c6 f5 3a 00 00 00 00 f7 b1 c4 bb
       0.00655625 0.0018751282 0.0 -0.0060026604
000030 bb b3 71 3d 35 8d b7 3c 6d be a3 3c 00 00 00 00
       0.059009295 0.0224062 0.019988263 0.0
000040 ad 6c b4 3c cc 92 78 3c 1c be c4 bb 96 bd 80 3c
       0.022024477 0.015171718 -0.006004108 0.015715402
000050 00 00 00 00 cd a2 12 3c 5d 6b 6a 3d 00 00 00 00
       0.0 0.008949948 0.057231296 0.0
000060 49 a2 03 bc 01 57 2e 3d 08 17 45 bc 57 71 44 3d
       -0.008034297 0.042563442 -0.012029417 0.04795965
000070 04 0f e9 3c 2e be cf 3c dd 66 b3 bb bc db 9f 3c
       0.028449543 0.02535924 -0.0054749087 0.019513957
000080 46 bd 42 bc aa da 4d 3d 70 91 72 bc 9a 8a 39 bc
       -0.011885947 0.050257362 -0.014805183 -0.011324549
000090 64 f6 95 3c 51 e5 40 3d fc 14 82 3d 6a f6 b5 bb
       0.018305965 0.047093693 0.06351659 -0.0055530565
0000a0 a8 44 ef 3c fe e4 a8 bb 5d a4 1c 3d 86 f8 65 3d
       0.029207543 -0.005154251 0.038242687 0.056145214
0000b0 97 59 a0 3c 00 00 00 00 ae 41 27 3d 0b 51 b5 bb
       0.01957397 0.0 0.04083412 -0.0055333427
0000c0 ca 39 8a 3b 00 00 00 00 25 45 37 3d 5d 10 1b bc
       0.004218315 0.0 0.044743676 -0.0094643505
0000d0 ce 4b 50 3d 9f 2e bc 3c cb 9d 42 bc 54 24 56 bb
       0.050853543 0.02297145 -0.011878441 -0.0032675462
0000e0 72 4e c8 bb 6d a1 ab 3c 67 c0 71 3d 01 65 fb 3c
       -0.006112867 0.020950997 0.05902138 0.03068781
0000f0 9e 72 bf bb de 65 c0 3d 50 8c e1 3c e4 ff f5 3c
       -0.005842521 0.093944296 0.027532727 0.030029245

sequential_1/dense_1/BiasAdd/ReadVariableOp f4 [128]
000000 fb d4 63 3d 60 4a 12 3d d1 20 ee bc 39 cc 47 3d
       0.055623036 0.03571546 -0.029068382 0.048778746
000010 00 00 00 00 7b fc f1 bc 90 58 55 3d 15 75 73 3d
       0.0 -0.029539337 0.052086413 0.05943783
000020 00 00 00 00 25 aa 02 bc b2 02 05 3d e2 3e 5d 3d
       0.0 -0.007975136 0.032473274 0.054015048
000030 00 00 00 00 53 d9 09 3d c9 e3 a2 3c 0a 31 92 3d
       0.0 0.033654522 0.019884007 0.0713826
000040 e6 b8 8f bc 00 00 00 00 3b 56 db 3c e5 bd 84 3d
       -0.017544221 0.0 0.026774516 0.06481532
000050 ac 25 67 bb a0 e4 4e 3c 00 00 00 00 00 00 00 00
       -0.0035270257 0.012627751 0.0 0.0
000060 00 00 00 00 a5 fb 7b 3d e2 6d f7 bb ba 7f 8b 3d
       0.0 0.061519284 -0.007550941 0.06811471
000070 1b 1f 96 3c 1a a2 1a 3c 00 00 00 00 00 00 00 00
       0.01832538 0.009438062 0.0 0.0
000080 61 61 eb ba ab fe 01 3e 86 6f f1 bb 00 00 00 00
       -0.0017958098 0.12694804 -0.007368031 0.0
000090 3a 9c a9 bc 09 db 2c 3d cf a7 24 3d ae 09 88 3d
       -0.020704377 0.042201076 0.040199097 0.06642471
0000a0 00 00 00 00 51 f8 03 3b 5c 1e 0d 3d 48 8f 7f 3d
       0.0 0.0020137022 0.03445278 0.062392503
0000b0 00 00 00 00 00 00 00 00 ad 2a 45 bc 41 61 7c bb
       0.0 0.0 -0.0120341005 -0.0038510116
0000c0 00 00 00 00 aa 85 da bc a5 ca 9f 3d c5 52 b0 3c
       0.0 -0.026675064 0.07802323 0.021523843
0000d0 86 64 5c 3d d6 63 d7 3c b8 f1 d3 3c e0 c5 37 3d
       0.053806804 0.026292723 0.025872096 0.044866443
0000e0 60 e6 26 3b 27 1c 23 3d e4 2e d2 ba 4b 63 e0 3c
       0.0025466904 0.03982177 -0.0016035703 0.027391097
0000f0 d0 60 14 3d d2 0b cc 3c e6 af 40 3c 00 00 00 00
       0.03622514 0.02490798 0.011760687 0.0
000100 00 00 00 00 25 b6 45 3d b1 13 7a 3d 23 00 4e 3d
       0.0 0.04826941 0.061053935 0.0502931
000110 00 00 00 00 6b 8e a1 3d a7 50 3d bb 60 6e 4a 3c
       0.0 0.07888492 -0.0028887184 0.012355417
000120 00 00 00 00 63 62 59 3d 62 bc 8f 3d 25 03 1d bc
       0.0 0.053072345 0.07018353 -0.009583269
000130 ce 07 ce 3c b1 b6 6f 3b 00 00 00 00 26 c2 1b bc
       0.025150206 0.0036577398 0.0 -0.009506738
000140 53 44 74 3c 41 58 e5 bb a7 90 a1 bc 00 00 00 00
       0.014908868 -0.006999046 -0.019722296 0.0
000150 00 00 00 00 4b 3d 07 bd 3e 0c ca 3c 7c 96 73 3d
       0.0 -0.033017438 0.02466404 0.059469685
000160 00 00 00 00 b8 b1 89 3b fc 90 5f 3d b6 66 ac bb
       0.0 0.004202094 0.054581627 -0.0052612675
000170 25 7e 7e 3d e3 ff 3b 3d 2b fc 14 3d 6b 20 02 bc
       0.06213202 0.04589833 0.0363733 -0.007942299
000180 00 00 00 00 c3 59 0f bd 2c 31 54 bd bf 94 d7 3c
       0.0 -0.034997713 -0.051804706 0.026316045
000190 9e e9 80 bc 00 00 00 00 e2 f6 96 3d dc 10 f2 3c
       -0.015736397 0.0 0.07371308 0.029549055
0001a0 77 d4 43 bd 07 c0 c5 bc 00 00 00 00 f7 7d c2 ba
       -0.047810044 -0.024139417 0.0 -0.0014838566
0001b0 00 00 00 00 70 86 12 3d 20 14 88 bc 7c 86 81 3d
       0.0 0.03577274 -0.016611159 0.06324479
0001c0 92 14 31 3c 63 3b 3d bc aa 1d 4b bc 00 00 00 00
       0.010808127 -0.011549803 -0.012397209 0.0
0001d0 ba 15 b9 3d 00 00 00 00 ec fc 48 3b 6d 00 a4 3d
       0.09037347 0.0 0.0030668331 0.08007894
0001e0 68 b3 a8 3a 15 4f 0a bc 93 df 8e 3b 00 00 00 00
       0.001287085 -0.008441706 0.004360148 0.0
0001f0 00 00 00 00 eb fa 6e 3d b5 f0 3e 3d 54 40 5d bd
       0.0 0.058344763 0.046616275 -0.054016426

sequential_1/dense_1/MatMul f4 [128, 63]
000000 7e 31 99 bd b5 73 f0 bc 59 fe 73 3d 22 3e 94 3c
       -0.07480143 -0.029352048 0.059568737 0.018096033
000010 0a 13 0d 3e 96 01 85 bd d2 d5 3e 3d 73 26 e9 3d
       0.13776794 -0.06494443 0.046590634 0.11384287
000020 f3 55 69 be 0b 7a 3d 3e 84 f4 34 3d da 16 91 be
       -0.22786693 0.18503587 0.0441785 -0.28337747
000030 58 eb b0 3e 19 54 90 be 76 e0 5a be 35 c3 d3 3c
       0.34554553 -0.2818916 -0.21374688 0.025849918
000040 ab 97 13 3e 47 58 b3 3d cc 07 b5 bd d7 e8 31 3d
       0.14413325 0.08757072 -0.08839378 0.043434944
000050 65 ba 0a be 74 fd 2b 3e b1 c8 4d bd d0 d5 1e 3d
       -0.13547666 0.16795903 -0.050240222 0.038778126
000060 23 94 b9 bc 95 fb d7 3c ea 4b ad bc 92 06 dd 3d
       -0.022653645 0.02636508 -0.021154363 0.10792269
000070 d1 0a 9b bd be 15 fb 3a 5d 18 f4 3b 5b 53 2c 3e
       -0.075704224 0.001915626 0.0074491934 0.16828673
000080 89 dd 52 be be 57 46 be 61 74 88 3e 04 e2 c2 3d
       -0.20592321 -0.19369408 0.2665129 0.09515765
000090 d7 12 27 3d dd d9 18 3f f7 7a 06 be 58 08 f3 bd
       0.04078945 0.59707433 -0.13132845 -0.11866826
0000a0 30 cb 81 3d bb 44 46 bd a8 c8 00 3d d0 1b df bd
       0.06337583 -0.04840539 0.03144136 -0.10893977
0000b0 f8 63 ef bc fd 21 61 be 7b c9 9e 3d 0e 6a 22 3e
       -0.029222474 -0.21985622 0.07753273 0.15860769
0000c0 15 09 04 3d 6b a1 50 3e e3 23 18 3e ab 04 b7 3c
       0.032235224 0.20374076 0.1485744 0.022341093
0000d0 37 37 da 3d 23 02 13 3e 53 81 f4 bd 4a 30 70 bd
       0.10655063 0.14356284 -0.11938729 -0.058639802
0000e0 b8 59 e7 3d ac 5d 11 be 12 6d f8 3d cb e0 21 3e
       0.11296409 -0.14195889 0.121301785 0.15808408
0000f0 03 59 a7 ba 15 04 3b be 3c cc d7 3d 23 1a 5d 3d
       -0.0012767616 -0.18263276 0.105370015 0.053980004
000100 21 9f b7 bc 64 b2 8d bb 8d 27 25 3e 2e cf 8c bd
       -0.022414746 -0.0043242443 0.16128369 -0.06875454
000110 88 4b b2 3d 45 80 0b 3d 42 71 03 3e 9f 30 bb bd
       0.08705813 0.034057874 0.12836173 -0.09140133
000120 ce c7 65 3d ea a3 8f 3d 17 22 51 3e b0 4a 7d 3e
       0.05609875 0.07013686 0.2042316 0.24735522
000130 e5 4d 19 3d 98 54 19 bc 04 ff 69 3e 80 56 e1 3c
       0.0374278 -0.009358548 0.22851187 0.027507067
000140 a7 6f 5f 3e 5b 01 3f 3e a7 77 cd bc 2d 08 18 3e
       0.21819936 0.18652861 -0.025081469 0.14846869
000150 a6 b5 d0 3d b7 46 1d 3e d2 00 e3 bc bb ae 5b 3d
       0.10190897 0.15359007 -0.027710352 0.053633433
000160 d8 bb b3 3e 00 96 8e 3d 48 e5 81 3d 20 d4 b4 bc
       0.3510425 0.06962204 0.0634256 -0.022073805
000170 a9 8f 93 bc 58 74 47 3e df 11 f8 3c 0a 24 e9 bc
       -0.018012838 0.19477975 0.03028196 -0.028459568
000180 d1 a0 8c 3e d2 b8 73 be 5a 61 7c 3e dd 3c a3 3d
       0.27466443 -0.23800972 0.24646512 0.07970593
000190 32 58 db be 27 44 ff 3d c3 77 d6 3d e0 b5 c6 3d
       -0.42840725 0.12464171 0.104720615 0.09702659
0001a0 2d c1 0c 3e 56 ac 34 3d 7e 7d 0e 3e c5 2b 0e 3e
       0.13745566 0.044109665 0.13915059 0.13883884
0001b0 90 a4 f2 bd f2 a3 4b 3d ad a6 4a 3d e7 5a 33 be
       -0.11847794 0.049716897 0.04947536 -0.17515145
0001c0 dc ee b6 3e 64 58 9f 3d 86 42 49 3d 2c 9c 4e bd
       0.3572911 0.07780531 0.049135707 -0.050441906
0001d0 f1 2d 12 be 10 b1 71 be 16 99 8d 3d 58 53 3d be
       -0.14275338 -0.236027 0.069139645 -0.18488824
0001e0 ff 20 af be 58 1e 35 3e be c4 db 3d 43 79 90 be
       -0.34204862 0.17687356 0.10730885 -0.28217515
0001f0 4e 94 bf 3e 1f ae 2b 3e 3a 5b 73 3e fa 9a 1f be
       0.37417835 0.1676564 0.23765269 -0.15586463
000200 be 81 8b 3d 2c 0d 11 3e f4 05 28 3d be c1 07 be
       0.06811856 0.14165181 0.041021302 -0.132575
000210 a8 85 95 3d d4 ae ef bd 7f c8 e2 3d 64 ad 04 3e
       0.073008835 -0.11703268 0.11073398 0.12956768
000220 38 18 68 bd 99 fa 1f 3e da b4 84 be aa b9 6b 3d
       -0.05666372 0.15622939 -0.2591923 0.05755011
000230 eb 85 a4 3d 9d 37 8b 3e 2d e0 ff 3c 3f 41 c3 3d
       0.08033355 0.27190867 0.031234825 0.09533929
000240 73 40 90 3e c3 4e aa bd 50 2d 8b bd dd c4 91 3e
       0.2817417 -0.08315804 -0.06795752 0.28470507
000250 2b 04 18 bd 15 78 9a bd cb 9c 4d 3e ad fe ea bd
       -0.03711335 -0.07542435 0.20079343 -0.11474357
000260 db b3 11 3e 35 68 95 bb 39 00 9d 3a 6b 2e 69 be
       0.14228766 -0.0045595416 0.0011978216 -0.22771613
000270 f5 72 e7 3d 4c ab fb bd 21 a6 64 be e2 14 21 bc
       0.11301223 -0.12288532 -0.22328998 -0.009831639
000280 43 d6 08 3e bd 2d 4c be 77 f1 84 3e 15 b4 40 3e
       0.13362984 -0.19939323 0.25965473 0.18818696
000290 67 04 08 3e b1 d5 74 3e 13 d7 af bc 10 66 92 3c
       0.1328293 0.23909642 -0.02146486 0.017870933
0002a0 1e 70 d5 bc 83 38 d8 3d 86 76 e7 bd 23 78 20 3e
       -0.026054438 0.10557654 -0.113019034 0.15670829
0002b0 0c 16 0d be e0 86 69 be 97 5e b8 bd a3 d3 b9 bc
       -0.13777941 -0.22805357 -0.090024166 -0.022683924
0002c0 42 5c a7 be 3c 4e b2 bd cb 74 12 be 0c 6b e2 bd
       -0.32687575 -0.08706328 -0.14302365 -0.11055574
0002d0 dd 5d 4b bd 46 27 5e bd 56 91 a0 bd 54 e1 b7 be
       -0.049650062 -0.054236673 -0.07840221 -0.359141
0002e0 88 9e d5 bb 19 9e e3 3c 0c 51 ea bd a2 cc 96 3e
       -0.0065191425 0.027785348 -0.1144124 0.29452997
0002f0 72 d5 fc bd b2 c0 3b 3e 28 39 9b bc b9 5d f0 bc
       -0.12345399 0.18335226 -0.018948153 -0.029341565
000300 bd e9 35 3e 7e 83 15 3e 16 8a cc bb be b6 94 3e
       0.17764945 0.14600942 -0.006242047 0.2904567
000310 8d 35 cd 3c a4 90 79 3c 89 20 bd 3d 1e 2c cb bd
       0.025049949 0.015232239 0.09234721 -0.09920524
000320 74 84 e5 bd a5 f0 7a 3e 6e b4 ed bd 18 bc 18 bb
       -0.11206904 0.24505861 -0.1160668 -0.0023305472
000330 20 58 87 3b da 3f aa bd c1 68 0b 3c 4a c9 59 3e
       0.0041303784 -0.0831296 0.008508862 0.21268192
000340 4b e1 8b bd 8d 9d 2e be d1 60 b4 3d 02 c8 e4 3c
       -0.068300806 -0.17052288 0.08807529 0.027927402
000350 c1 34 9c 3c 21 3d 10 3e a5 bc d5 3e da a1 b7 bd
       0.019068124 0.14085819 0.41745487 -0.089664176
000360 2e 23 50 3c e6 fb 2d 3d 86 35 22 be 5b 40 95 bd
       0.0127037 0.042476557 -0.1584073 -0.072876655
000370 c2 29 57 be 37 ea 74 bd a4 42 55 bd a3 5e 84 bb
       -0.21012023 -0.059793677 -0.052065507 -0.004039602
000380 2d 4b 81 bd 33 71 9f bd 28 fa 83 3e 62 98 1d be
       -0.06313167 -0.07785263 0.25776792 -0.1539016
000390 77 d7 b0 3c 94 b7 02 be 66 3c a7 bd 0a 0d 31 3c
       0.021587117 -0.12765342 -0.08165817 0.010806331
0003a0 da 8c 8b bd 91 e2 50 be 65 70 0f be 23 65 60 3d
       -0.06813975 -0.20398928 -0.14007719 0.05478395
0003b0 71 bb e1 3d d8 72 92 be 22 a5 a9 3e 8f 34 5e 3d
       0.1102208 -0.28603244 0.331338 0.054249343
0003c0 49 a7 0b 3e a4 2b b2 bd 96 e6 c0 bd f6 0c 20 be
       0.13638033 -0.0869973 -0.09418981 -0.15629944
0003d0 8b a1 d8 bd 95 80 42 be f5 4f 4b be b4 7b 1f 3e
       -0.10577687 -0.18994363 -0.1985472 0.15574533
0003e0 e7 cc 99 bd f4 6c 16 be c9 be 7f 3e bb 0d 03 3d
       -0.07509785 -0.1469 0.24975123 0.031995516
0003f0 c8 4c ec 3c fc bd 1e 3d 0b 56 bb bd 13 ce 1d be
       0.028845206 0.038755402 -0.09147271 -0.15410642
