Phrases Recog Model/gesture_model.tflite (tflite, 68680 bytes, 6 tensors)

arith.constant f4 [3, 64]
00000000: 2152 583e f2bc 993e 4605 4ebe 7a9c 72bd
00000010: 3495 1fbe 3286 ebbe c7b5 0cbd 29fe 593e
00000020: 5c5a aabe 8879 8abe 4efc f23e 6d07 31bd
00000030: bf34 1cbd 39f6 953e d6ef 8f3e 1696 cf3e
00000040: 2d26 67bc 3205 c1be 46be 8c3e a75c acbe
00000050: 48a5 5c3c 261e 75be 494b b73e d135 be3e
00000060: 095b 253e e587 fabe 4112 dcbd a0fc d4be
00000070: 192e 8d3e 1609 333e 2901 d7be 3458 3dbe
00000080: 8df9 64bd dbcc ef3e b1d9 76bc 3b5c e7bb
00000090: b2d6 86be 87be a7bb 6ae1 1c3b d57d d6be
000000a0: 5822 c53b a42b 3c3b bbc5 bb3e 0be1 bebe
000000b0: 581a adbe 1388 aebe db44 c53e 6bd7 8a3d
000000c0: e6d9 bd3e 27c4 4cbe 1e8f 803e 2912 863e
000000d0: e1ac 1e3e 60fe 58bd 9154 683e 6e2a 543e
000000e0: 93de a4be ed7b cbbe 7332 c43d 2f2f ec3e
000000f0: effa eebd 855f a8be f4d1 693e 46ba d23e
00000100: e598 a23e 4213 f8be 97e5 9c3e 0632 a4bd
00000110: fae2 82bd 503b b03e 5df1 c1be 3f59 953e
00000120: b264 793e 65d3 843d 44d2 9fbe 73ee 9b3e
00000130: 3652 5d3d b4c1 1d3d d8a9 94be 76f3 c2be
00000140: e762 1dbd 7d4b 43be 6b47 cdbe e0ff 963e
00000150: 445a d0bd 1b5c 7abe 05bc 3c3e baa5 82bd
00000160: 0cc3 b6bd 6f8d e9bc 276f a0be 92c9 80be
00000170: 3e61 88bd 68f8 a1bd 08d6 cd3e 6d2a c7be
00000180: c835 b43e 504f 8fbe 9fd8 2a3d a8b5 d1be
00000190: 56bf c3be 14ce a0bd 80d8 c03e c9ef 84be
000001a0: 0d45 bebe 1c45 bf3e b5fe 84be ff14 cfbd
000001b0: 7f01 643e 105c d13e 79e9 903c 192a 9e3e
000001c0: 300c c4be 0614 a63e 8f7b 5b3e 9897 94be
000001d0: ccdc 3cbe 688a 093e b327 93be b994 51bd
000001e0: 71f6 ba3e 0506 aa3e 6859 c5bd c896 58bd
000001f0: d2c5 0b3e 7d3a af3e e0f0 d8be 3dfd 6c3d
00000200: a050 45be fe36 d9be 9981 bd3e d9b0 d33e
00000210: d9fe 46be 1094 c9be a39b cb3c 12ee cfbe
00000220: 0d18 523e d73a 9c3e fd81 d0be a839 8dbe
00000230: 1256 d1be 2416 433e b922 a83e 609f 8f3d
00000240: 4939 3bbe d831 823e b798 263e 1e78 ab3d
00000250: ea58 96be 960f adba 0e98 b43d 98d2 6ebe
00000260: 260f b63e a872 883e bdba 74bd 8117 0f3f
00000270: 6d5e 513d 3d14 b2be c287 afbd 82ce 903e
00000280: deb2 87be 6078 f2bc b5ca c8be 9f71 5a3e
00000290: 5104 183f 9a41 e13e 632f bc3d a5d2 ed3e
000002a0: 708e d43d df22 543e f63a acbd ebfd 87bc
000002b0: f8d1 4fbe 9782 f73d f063 7ebc 52d6 69be
000002c0: 4b63 2bbe 96c6 783e 632f 43be c9f6 0e3e
000002d0: 3b08 803e 3b38 89be fc5a 6cbe 6791 abbe
000002e0: 822d f13d 59df afbe 6429 e7be a7e4 48bd
000002f0: 8799 28bc 14f5 55bd 9195 313e f49a c7be
0.2112508 0.30026966 -0.20119199 -0.05923126 -0.1558426 -0.4600082 -0.034353044 0.2128836
-0.33272064 -0.27045846 0.47458118 -0.043219972 -0.03813624 0.29289415 0.28112668 0.40544194
-0.014108223 -0.37699276 0.27488917 -0.33664438 0.0134671405 -0.23937282 0.35799626 0.37150434
0.16148008 -0.48931804 -0.10745669 -0.41598988 0.27574232 0.17483935 -0.41993073 -0.18490678
-0.055902053 0.4683598 -0.01506655 -0.0070605553 -0.26335675 -0.005119148 0.0023938068 -0.41892877
0.006016057 0.0028712535 0.36674294 -0.3728107 -0.3380916 -0.3408819 0.38529095 0.06779369
0.37080306 -0.19996701 0.2510919 0.2618573 0.15495636 -0.052976966 0.2268851 0.2071931
-0.3220106 -0.39742985 0.09579935 0.46129748 -0.116689555 -0.32885376 0.22833997 0.4115774
0.31757274 -0.48452193 0.30643913 -0.08017354 -0.063909486 0.34420252 -0.37879458 0.29169652
0.24354818 0.06485633 -0.31215107 0.3045536 0.05403348 0.038514808 -0.2903583 -0.3807637
-0.0384244 -0.19071765 -0.4009355 0.29492092 -0.10173467 -0.24449198 0.18431099 -0.06379266
-0.08923921 -0.028509824 -0.31334803 -0.25153786 -0.066591725 -0.07908708 0.40202355 -0.38899556
0.35197282 -0.27990198 0.041710492 -0.40958905 -0.38231915 -0.07851806 0.37665176 -0.25964192
-0.37162057 0.37357414 -0.25975576 -0.101114266 0.22266196 0.4089055 0.017689453 0.30891493
-0.38290548 0.32437152 0.21433853 -0.29021907 -0.18443602 0.13431704 -0.28741226 -0.051167224
0.36516145 0.33207718 -0.096361935 -0.05287817 0.13649681 0.3422431 -0.42371273 0.057858694
-0.19269037 -0.42424768 0.37012938 0.41345862 -0.19433154 -0.39370775 0.024854487 -0.4061132
0.20516987 0.3051364 -0.40724173 -0.2758305 -0.4088598 0.19051415 0.3283899 0.0701282
-0.18283571 0.25428653 0.16269194 0.0837252 -0.2936471 -0.0013203498 0.08818065 -0.23322523
0.35558432 0.26649976 -0.0597484 0.5589524 0.051115442 -0.34781066 -0.085708156 0.28282553
-0.26503652 -0.029598415 -0.39217153 0.21332406 0.59381586 0.43995363 0.09188726 0.46449772
0.1037873 0.20716427 -0.084096834 -0.01660057 -0.2029494 0.12085455 -0.015526757 -0.22835663
-0.16737096 0.24294505 -0.19061045 0.13961329 0.2500628 -0.26800713 -0.23081583 -0.3350937
0.11776258 -0.34350088 -0.45148766 -0.049046185 -0.01029051 -0.052235678 0.17342211 -0.38985407

arith.constant1 f4 [64, 128]
00000000: f738 263e 233f 2c3e b0b5 79bd 4950 18be
00000010: d4b3 063d c90f 213e 9b9e 213e 1c0f 4e3e
00000020: 8dba 26be 30f9 7ebc 2623 1dbd 6966 203e
00000030: fc3f e5bd 2429 babd df98 10bc 3646 183c
00000040: 5bb4 f63d 0625 973d 8c32 ab3d e2bc 3a3e
00000050: fef2 66be 5293 cd3d 5324 e9bd 6593 8ebd
00000060: df84 843c 187c 833d 580a f0bd c51d 21be
00000070: c1ef 4a3e 0f2b 1abe c383 25be 201a b5bd
00000080: f507 333e ee79 263d 36fe ab3c 3f4f 5d3e
00000090: e4b7 31be 7827 c3bc 2cbc 7ebd cecf 183e
000000a0: 1b69 143e 4b92 283e e22c a33d ae4e d93d
000000b0: 914f 8cbd 4253 46bd 05d1 d8bd 93cb c6bd
000000c0: 201e 0fbe d4ee 18bd c07d d739 1f56 e13c
000000d0: 9cd7 12be 7c62 ec3d 680b 003e 9f56 0a3e
000000e0: f025 b1bc 8e82 30be 1ff3 e63c f2a6 22be
000000f0: 30dd 14bc c0e4 ea3b a75d de3d 6ccf 533c
00000100: a3a9 2d3e 3ede 893d b8a4 f4bc d441 5f3d
00000110: faf3 e93d b363 60be 8aac db3d 7a1e fcbd
00000120: 80b4 5e3e 9c4a da3c 6052 f2bc e959 863c
00000130: e579 18be b7dc 1dbd e2a7 043e fcb2 7e3d
00000140: faaa 483e f256 e23d 2049 913e 6d14 1d3e
00000150: 10af 06bd 5929 0e3e ae83 883d 8b2b 33be
00000160: 2d1b a9bd e730 6cbc c063 613c eedd bb3c
00000170: 2ee9 953d 0d36 26be 56e8 90bd c422 01be
00000180: aa8c b13d c838 94bd 0320 edbd d212 b13d
00000190: 1e86 513d 7e96 0c3e 64c1 ec3c f06e aebc
000001a0: e2e1 fcbd d837 833e 22ff 393e 943f 10bd
000001b0: df28 c6ba d06c 233d acd6 7abc 6a59 08be
000001c0: f14a afbd b1e0 e93c f2db 7fbb 0f87 0bbe
000001d0: 82b8 233e 6cfe e73d dc92 5ebb 35ad 263e
000001e0: f941 d6bd 0069 4cba 924d 8f3d f675 fa3d
000001f0: 8e38 e6bd 81ec c8bd 9e48 78be 6619 563e
00000200: e8ce 49bd a163 213e f739 0bbd 09b1 233e
00000210: 40ae eb3c 6091 0cbd 697e c4bd ca60 6c3e
00000220: 8e12 6ebe 40f3 6cbb f13e 6c3e 7b7c ff3d
00000230: 7533 193e 8a7d b43d 08aa a7be 59b9 853e
00000240: 1bcb 92bd 3ca0 0b3e fcee 223e 1ec5 a0bd
00000250: aac7 23be a7ef 263e c498 033e d763 193e
00000260: 68d9 133d a83a 0bbe 206a 92be ba6e d3bd
00000270: 6696 223e 5226 e33c 1085 36bc d93d 9d3d
00000280: f544 503e 5f4d 753e 9d7e 743e a581 a83c
00000290: f4ce dcbd 408d 573d d2cb 64bd c55d 18be
000002a0: 2f91 bfbe fd11 333e 1167 293e b0e5 853d
000002b0: bcb5 25be c6eb b33d ad59 9abd 85b1 323b
000002c0: 131a fc3d 8ae7 c43d 5e1d 1dbe 10f0 e73d
000002d0: bfbd 613e 81a1 c5bd 1aa2 9dbe 81b5 c9bb
000002e0: c7e6 013e 5e99 843d 12b8 163e 87cb a0be
000002f0: 163f 7dbd 346e 373d df91 c53d 759e 613c
00000300: f0d8 2a3d 26dd d23d dfbe c2bd 26a1 c7bd
00000310: 1591 7dbc dfac 923d a14c 1d3e 2bdc 0c3e
00000320: 06aa 6cbc 4af9 4cbd 2eee b13d c051 d53d
00000330: 79aa 25be 2e9a 213d a7b3 cc3d ab18 1a3e
00000340: 2b55 a53d bacc c7bd fd2d 8a3d 21de 563d
00000350: 05ba 183e 61da 833d ac4b 22be 8a8a c3bd
00000360: 6c5c 3ebd 4f66 383d 80ff 623d e9f1 a33e
00000370: 00d6 eaba e4b2 713d 1927 0ebe 4ea0 d0bd
00000380: 6822 52bd 1b78 a3bb 2678 893d b3c0 bfbd
00000390: dbbb 423d 863f ee3e 1ea5 893d b638 bc3d
000003a0: fba5 b6be c2eb 34be 783b acbe a39c 02be
000003b0: b7b3 9bbe 3cbd 763d 649a f9bd e1fe 793e
000003c0: 4d58 91bd 3a70 1abe 44da cebd e4b9 ffbc
000003d0: 22c9 56bd 35dc 86bd 83d5 acbd 44fd 3c3d
000003e0: 2bdc aabe 5de2 1f3e a19b 8d3d a49c 113d
000003f0: 144a 6abd 9753 833d 189d 023e b8ee 84bc
0.16232668 0.1682096 -0.060964286 -0.14874376 0.03288634 0.15728678 0.1578316 0.20122951
-0.16282101 -0.015562341 -0.0383636 0.15664066 -0.11193845 -0.09089878 -0.00882551 0.009294083
0.12046119 0.073801085 0.083592504 0.18236116 -0.22553632 0.10037865 -0.113838814 -0.06961707
0.01617664 0.064201534 -0.11720723 -0.15734012 0.19818021 -0.15055488 -0.16163544 -0.088428736
0.17483504 0.040643625 0.02099524 0.21612261 -0.17355305 -0.023822531 -0.062191173 0.14923021
0.1449322 0.16462056 0.07967545 0.1061071 -0.068511136 -0.048419245 -0.10586742 -0.097067975
-0.13976336 -0.03733714 0.00041101687 0.027506886 -0.14340061 0.11542222 0.12504351 0.13509606
-0.021624535 -0.17237303 0.028192101 -0.15883997 -0.009085938 0.0071683824 0.108577065 0.012927871
0.16959243 0.067318425 -0.0298637 0.054506138 0.11423488 -0.21913032 0.107262686 -0.123105004
0.21748543 0.026646905 -0.029580295 0.016400294 -0.14890249 -0.03854057 0.12954667 0.06218241
0.19596472 0.1105174 0.28376102 0.15339823 -0.032881796 0.1388296 0.06665741 -0.17497079
-0.082571365 -0.014415956 0.013756692 0.022932973 0.07319866 -0.16231556 -0.070755646 -0.12610918
0.08669408 -0.07237393 -0.115783714 0.08646168 0.051153295 0.13729283 0.02890081 -0.021293133
-0.12347771 0.25628543 0.18163732 -0.035216883 -0.0015118382 0.039898694 -0.015309971 -0.13315359
-0.08559216 0.028549524 -0.003904101 -0.1362574 0.15988353 0.11327824 -0.0033962047 0.1627701
-0.10461802 -0.00077976286 0.06997217 0.122295305 -0.11241256 -0.098107345 -0.24246451 0.20908126
-0.049269587 0.15760662 -0.033990826 0.15985502 0.028769612 -0.034318328 -0.09594423 0.23083797
-0.23249266 -0.003615573 0.23070885 0.12474915 0.14961036 0.08813007 -0.3274691 0.26117972
-0.071676455 0.13635343 0.15911478 -0.07850097 -0.15994135 0.16302358 0.12851244 0.14979492
0.036096007 -0.13596594 -0.28596592 -0.10323854 0.15877685 0.027728233 -0.011140123 0.07677812
0.20338805 0.23955296 0.23876424 0.020569632 -0.10781661 0.05262494 -0.05585844 -0.1487952
-0.37415454 0.1748733 0.16543223 0.0653795 -0.16182607 0.087852046 -0.075366355 0.0027266454
0.12309661 0.09614475 -0.15343234 0.11325085 0.22045039 -0.09649945 -0.30787736 -0.00615567
0.12685691 0.06474565 0.14718655 -0.3140528 -0.06182774 0.044782832 0.09646963 0.013770689
0.041710794 0.10296087 -0.09509062 -0.097475335 -0.015476485 0.07161879 0.15361263 0.13755862
-0.014444834 -0.050042428 0.08688007 0.10415983 -0.16178311 0.039453678 0.099952035 0.15048473
0.08072885 -0.09755845 0.06747053 0.052457932 0.14914711 0.06438137 -0.15849179 -0.095479086
-0.04647486 0.045019444 0.055419445 0.320205 -0.001791656 0.059008494 -0.13882102 -0.10186826
-0.051302344 -0.004988683 0.067123696 -0.09362926 0.047542434 0.4653284 0.06720947 0.09190504
-0.35673508 -0.1766806 -0.3363912 -0.12755065 -0.3041055 0.06023906 -0.12187651 0.24413635
-0.0709692 -0.15081874 -0.101002246 -0.03121657 -0.05243791 -0.0658497 -0.08439162 0.04613997
-0.333711 0.15613694 0.069144495 0.035549775 -0.057199553 0.06412428 0.12755239 -0.016227111

arith.constant2 f4 [3]
00000000: 18c6 713d 2ae5 41bc 87cc 5abd
0.059026808 -0.011834422 -0.05341771

sequential_1/dense_1_2/BiasAdd/ReadVariableOp f4 [64]
00000000: f9c3 823d cbea 0e3e 30e1 f0bc b57e 77bb
00000010: 8ab4 b4bc 379a 7a3c af7d 3c3d eac3 983d
00000020: 7baf e1bc d618 39bc cb17 123e 4e85 7c3c
00000030: f79c b23d 6210 8a3d 4b8e 543d 6815 953d
00000040: 927f a6bc 159b 07bd b3cf a23d d849 edbc
00000050: 574e 783d ef86 e1bc 9000 993d 4136 b43d
00000060: 97f6 2a3d 9be1 a0bc f9ed 6c3d 42f9 123c
00000070: 5ec6 06bd 33d4 d53d b96c 723c 495e 0bbc
00000080: 702d f6bb dde1 b63d 1104 b43d bd8a 0e3d
00000090: a3ee cc3a 20c4 0e3c 889e dbbc 002c 1b3c
000000a0: 5c15 b23d 6c98 efbc be25 a73d 9984 adbc
000000b0: c113 b6bc d9bc 57bc 7b7c 8f3d 118e 333d
000000c0: 01dc ae3d eb24 6ebc a081 0a3e c344 a53d
000000d0: 9f81 94bc 5b08 813c b27d 61bb 9daa bc3d
000000e0: ee00 a2ba 69a6 0c3b 5c89 c83d 7ef8 083e
000000f0: a15c e5bc 83a2 b8bc a456 c33d 843e c83d
0.06385035 0.13956754 -0.029404253 -0.0037764732 -0.022058744 0.015295557 0.0460183 0.07459243
-0.027549496 -0.011297425 0.14266889 0.015412642 0.08721345 0.06741406 0.051893514 0.072794735
-0.020324502 -0.033106882 0.07949772 -0.028965876 0.060621586 -0.027530162 0.074708104 0.087994106
0.041739073 -0.019638827 0.057844136 0.0089705605 -0.03290402 0.104408644 0.014796429 -0.008506366
-0.007512741 0.08929799 0.08789838 0.03480028 0.0015635084 0.008713752 -0.026808992 0.00947094
0.0869548 -0.029247485 0.081614956 -0.021181392 -0.022226216 -0.013167583 0.07006165 0.043836657
0.08538056 -0.014535169 0.1352601 0.08069756 -0.018128214 0.015751055 -0.0034407196 0.092122294
-0.0012359896 0.0021461493 0.09791824 0.13376042 -0.02799827 -0.02253843 0.0953801 0.09777549

sequential_1/dense_1/BiasAdd/ReadVariableOp f4 [128]
00000000: 0000 0000 0000 0000 9dcb 35bc 1a59 7bbc
00000010: 0000 0000 0000 0000 0c84 12bd 9046 bf3d
00000020: e582 b1bd 0000 0000 c0c0 9d3d 9dd4 2ebc
00000030: 0000 0000 0000 0000 be6c a1bd cd6c 813d
00000040: 51e5 94bc a760 26bc bf7d 2bbc 99f8 f5bb
00000050: e4a0 84bd 42ad 84bb 5db3 6c3d 0000 0000
00000060: b0e9 4cbc 0000 0000 45cb 9dbd 0000 0000
00000070: bb37 1c3d d8e1 59bc 0000 0000 8584 82bc
00000080: df62 6b3d a957 853d 66e9 ba3d bfb3 d5bb
00000090: 0000 0000 0000 0000 0000 0000 694a 6cbc
000000a0: bc7f 67bd 0000 0000 0000 0000 0f02 b6bb
000000b0: 0000 0000 5f29 5bbc 886c 26bd c426 90bd
000000c0: dd2f 573d 0000 0000 d0c9 55bd 6223 3c3c
000000d0: fc37 3e3d 5516 8ebd 5b82 a2bd f26e 83bc
000000e0: 0000 0000 0000 0000 2584 bf3b 21f9 afbd
000000f0: 0000 0000 0000 0000 0922 163c ada5 81bd
00000100: 0000 0000 0000 0000 0000 0000 077d a0bd
00000110: d2bc c93c 3f1b 153d 0000 0000 0000 0000
00000120: cc2f 0b3d 42b4 e8bc 0000 0000 b345 893d
00000130: 0000 0000 e8da 2f3c f077 763d 0000 0000
00000140: 43b9 7f3d b22a 9f3c 9b5e 963d df10 153d
00000150: 0000 0000 f00f f83c da76 e8bb 0000 0000
00000160: 0000 0000 9430 d7bc 0000 0000 31ef c53d
00000170: 0000 0000 0000 0000 94b2 9dbd 44b6 00bc
00000180: bf9e d63c 917f c4bb 0000 0000 0000 0000
00000190: cd3d 793d ba23 ca3d a059 08bc 0000 0000
000001a0: 16b8 dbbd 6f48 6cbc 7d4b 0dbd d84b 80bc
000001b0: 0ac7 90bd 0000 0000 8124 0abc 0bfb e93c
000001c0: 4fe7 adbc 994d 88bd f330 1abc e338 85bd
000001d0: d851 533d 9fca 603c a19a 89bd 0000 0000
000001e0: dcb0 b7bd 0000 0000 af0e 993d 0000 0000
000001f0: 0000 0000 4404 b2bc fd7d 57bd 1960 5fbd
0.0 0.0 -0.0110959085 -0.015341068 0.0 0.0 -0.03577046 0.093396306
-0.08667544 0.0 0.0770278 -0.010670808 0.0 0.0 -0.07882069 0.0631958
-0.018175753 -0.01015488 -0.010466992 -0.007506442 -0.06476 -0.0040489743 0.05778824 0.0
-0.012506887 0.0 -0.07704786 0.0 0.038139086 -0.013298474 0.0 -0.01593233
0.057467338 0.065108605 0.091265485 -0.0065216715 0.0 0.0 0.0 -0.014422038
-0.0565183 0.0 0.0 -0.0055544446 0.0 -0.013376563 -0.040630847 -0.07038644
0.05253588 0.0 -0.052194417 0.011483045 0.04644011 -0.06937853 -0.079350196 -0.016044114
0.0 0.0 0.0058446103 -0.085924394 0.0 0.0 0.009163388 -0.06330428
0.0 0.0 0.0 -0.07836347 0.02462617 0.036402937 0.0 0.0
0.03398113 -0.028406266 0.0 0.06702747 0.0 0.010733344 0.060172975 0.0
0.06243254 0.019429538 0.07342263 0.036393043 0.0 0.030281037 -0.0070942463 0.0
0.0 -0.026268281 0.0 0.09664763 0.0 0.0 -0.07700077 -0.0078559555
0.026198743 -0.0059966524 0.0 0.0 0.060849953 0.098700956 -0.0083221495 0.0
-0.10728471 -0.014421566 -0.03449582 -0.015661165 -0.07069214 0.0 -0.008431555 0.02856209
-0.02122846 -0.066554256 -0.0094110845 -0.06504991 0.051591724 0.013720184 -0.06718946 0.0
-0.0896928 0.0 0.07473504 0.0 0.0 -0.02173055 -0.052610386 -0.054535005

sequential_1/dense_1/MatMul f4 [128, 63]
00000000: dd82 b8bd ce88 d2bd c52a e4bd 10e1 42bd
00000010: a0e5 fabb 4663 92bd f0cd 09bd 0021 e1bd
00000020: 2caa b83d 7b96 03be 2047 dd3c a046 ecbb
00000030: 224a 04be 88ba c1bc 0040 e6ba 600f f13b
00000040: 60e6 23bd 3459 e93d 5d96 21be def6 0fbe
00000050: 2820 c63d 1992 11be b4e6 ee3d a8fb 5d3d
00000060: 896b 12be 24a6 06be 10cb dcbc 690d 04be
00000070: 9cb2 1cbd 6c30 df3d 412d 9cbd d0c0 f63c
00000080: 9033 a03c c84c 8abc 1a6a 8e3d 3048 c23d
00000090: 6e4e 1e3e 3408 4cbd 7a4d afbd 9ab9 093e
000000a0: d413 24bd e4bd 783d becb a3bd 29a4 97bd
000000b0: 33f7 34be 146a f63d 940b bcbd 0c83 1a3e
000000c0: 72f0 133e a051 353e 79d5 a0bd ec66 b63d
000000d0: 74b8 18bd f2bb 813d 0054 7d3a 90f7 a63d
000000e0: 1cec a5bd c6f9 303e 5e8d f9bd 28af a63d
000000f0: dd51 d2bd 2e07 0abe 16df 20be 0778 dbbd
00000100: 1107 d1bd 2292 323e 7a8a e7bd a00d 31be
00000110: fa12 1c3e 8324 acbd 9c8f 853d b768 1bbe
00000120: d8be 9a3c 548f 1c3e 5882 da3c e462 1a3d
00000130: 28a5 1d3e 0084 7cbc fefb 2d3e 58dd 9b3d
00000140: dcc3 813d 9816 e23d 34a7 da3d b44e df3d
00000150: 260a 1a3e a512 9cbd 7822 753d 8cef c7bd
00000160: d0ca 923c 0eb1 99bd 06d6 00be e012 023d
00000170: 20c4 adbb 2d63 0bbe 005b 45bd 00f4 0e3a
00000180: c06f 223c b66f eabd 7654 34be 2405 cc3d
00000190: 970a 32be 4990 98bd 1fbd 22be 0292 1e3e
000001a0: 68f6 f9bd c3d0 d9bd a8a9 e03c 2c4e 32be
000001b0: 8685 01be d0b8 063d 94b4 143e c51c c1bd
000001c0: bb45 32be 40d6 46bd c5b5 0abe 4695 073e
000001d0: c4ed fc3d f2e7 2b3e 105f f13d 5427 6e3d
000001e0: cf30 0abe 487d df3d 8863 e23d b0d1 09be
000001f0: 584d fe3c a8a7 da3d 7f46 28be db26 113d
00000200: 3539 1cbe fe79 8a3d a866 803d 1091 dabd
00000210: f62f 723d 989a 55bd d468 1c3e a25d 20be
00000220: 0478 063e f744 813b 76c0 b7bd 7485 0e3e
00000230: 2078 0d3d c563 513d bc66 37be 0943 1ebd
00000240: 6cf9 58bd ae19 bdbd 7de3 033e dc11 8d3c
00000250: dc3c 26be 66f7 f1bd 6a32 143e 30a3 083e
00000260: e6ad 1dbe 2678 3abd dc35 cd3b 2ad3 233e
00000270: 14d1 963d 6042 03be 7ff9 c8bd 85f7 1bbd
00000280: 43e4 cfbd e844 35bd fdc5 8bbd 7f8a 03be
00000290: 9f8f 3c3a a7a9 ab3d 111d 90bd c3d0 46bd
000002a0: f24c 5c3d eb8c 7cbb 16ee 3e3b 1ec0 a13d
000002b0: 39e6 243e 6db1 4ebd 0d46 ed3d e3e5 2dbd
000002c0: f5ab fe3d b5ec bdbd d70a debd 261d 05bd
000002d0: 01ff 0bbe f09a 0b3c 0e49 9d3d a234 39bc
000002e0: 36d9 c5bd 989f 2c3d dca4 393d 0e1e a43d
000002f0: a9fe 313e 11f2 f53d 92fb 863d 881a 0abe
00000300: 5c19 fd38 7db9 e53c 8f40 56bd 2bcc 383e
00000310: 2e0f 323e 9e78 273d 00aa 49bd f6f4 97bc
00000320: 025e 353e 2afe bd3a b188 dbbd 3191 733d
00000330: 12a0 063d a646 cbbc 1224 cb3d ba96 143e
00000340: 1c33 313d 4f54 433b 9e8b 15bd a170 403e
00000350: f718 75bd 3b1c 173e 1143 41bd 55ac f2bd
00000360: 8144 d3bd 8a1a d0bd 27be 943d 696c 163d
00000370: 76e6 363e 787d 0d3d 9896 2b3d 1666 c43d
00000380: 23cf f43d 808e cc3d e82c 0cbe 5417 22be
00000390: 120b 1a3e 54cb f93d 781b 11be c754 8cbd
000003a0: 4767 e83c e4dc 293e 45cb 1abd c3cf 59be
000003b0: 1982 24be 2c8c 22be 7eed 9c3d 4080 74be
000003c0: 3bf1 17be 2c98 86bd 1d5c 03bd d7f9 babd
000003d0: 3ea9 bc3d 0854 9abd 525e 59be 718c 623d
000003e0: 8162 cabd 216c 09bc 7edb 383c a035 bfbd
000003f0: e205 313e ce98 023e 740a 793d 66eb 17be
-0.09009335 -0.1028 -0.1114097 -0.047577918 -0.007656768 -0.07147841 -0.033643663 -0.109926224
0.09016833 -0.12850372 0.027011454 -0.0072105676 -0.12918904 -0.023648515 -0.0017566681 0.007356569
-0.040014625 0.11393967 -0.15780015 -0.14059016 0.09674102 -0.14215888 0.11665097 0.054195076
-0.14298834 -0.13149315 -0.026952296 -0.1289574 -0.038256273 0.108979076 -0.07625819 0.030121237
0.019555837 -0.016882315 0.06953831 0.09486425 0.15459606 -0.04981251 -0.08559699 0.13449708
-0.040057972 0.06072797 -0.07997845 -0.07404358 -0.17672424 0.120319515 -0.09181896 0.15089053
0.14447191 0.17706919 -0.07853217 0.089063495 -0.037285283 0.06334676 0.0009663701 0.081526875
-0.08101675 0.17282781 -0.12185167 0.08138877 -0.102695204 -0.13479301 -0.157101 -0.10716253
-0.10206426 0.17438558 -0.11305709 -0.17290354 0.15241614 -0.084054016 0.06521532 -0.15176664
0.01888983 0.1528905 0.02667348 0.037691966 0.15395033 -0.015412331 0.16990659 0.07610577
0.06336185 0.11039466 0.10676423 0.10903683 0.15042934 -0.07620744 0.059847325 -0.09762487
0.017918974 -0.075044736 -0.12581643 0.03175628 -0.005302921 -0.13612051 -0.048182487 0.0005453229
0.009914339 -0.114470884 -0.17610344 0.09961918 -0.17386852 -0.07449395 -0.15892456 0.15485385
-0.122052014 -0.10635521 0.027424648 -0.17412633 -0.12648591 0.032891095 0.1452201 -0.094293155
-0.17409413 -0.04854417 -0.13545902 0.13240537 0.12350038 0.16787699 0.1178571 0.058142975
-0.13495182 0.109125674 0.1105414 -0.13458896 0.03104274 0.10676509 -0.16433142 0.035437446
-0.15256198 0.067615494 0.0626958 -0.106722 0.05912777 -0.052149385 0.15274364 -0.15660718
0.1313172 0.003944989 -0.08972256 0.13918096 0.03453839 0.05112054 -0.17910284 -0.03863815
-0.052972242 -0.09233414 0.12879749 0.01722043 -0.16234154 -0.11814766 0.14472356 0.13343501
-0.15398368 -0.04552474 0.006262524 0.15998521 0.07364097 -0.12818289 -0.098132126 -0.03807785
-0.10150959 -0.044255167 -0.06824873 -0.12845801 0.0007193032 0.08381968 -0.07036794 -0.048538934
0.05378432 -0.0038536142 0.002913361 0.078979716 0.16103448 -0.050462175 0.11585627 -0.042455565
0.12435142 -0.09273664 -0.10841911 -0.0324985 -0.13671495 0.008520827 0.0767995 -0.011304053
-0.0966057 0.042144388 0.045323238 0.08013545 0.17382301 0.12009061 0.06590952 -0.13486683
0.00012068704 0.02804255 -0.05230766 0.18046634 0.17388603 0.040886514 -0.04923439 -0.018549424
0.17711642 0.0014495302 -0.10719431 0.059464637 0.0328675 -0.024813961 0.09918989 0.14510623
0.043261632 0.002980489 -0.036510102 0.18792965 -0.05983826 0.14756863 -0.0471831 -0.11849276
-0.103158005 -0.10161312 0.07262831 0.03672448 0.17861351 0.034543484 0.041891664 0.09589784
0.11953571 0.09988117 -0.13689005 -0.15829211 0.15043285 0.12196985 -0.14170635 -0.068521075
0.028369559 0.1658817 -0.03779151 -0.21270661 -0.16065253 -0.15873784 0.076624855 -0.23877048
-0.14838116 -0.06571993 -0.032070268 -0.091296844 0.09211968 -0.07535559 -0.21227387 0.055309717
-0.098820694 -0.008387596 0.0112828 -0.093364 0.172874 0.12753603 0.060800985 -0.14835891
