Phrases Recog Model/gesture_model.tflite (tflite, 976880 bytes, 15 tensors)

arith.constant3 f4 [4, 32]
0	0x3e85ecb6	0.2615716
1	0xbdfb915b	-0.12283584
2	0x3dfd9941	0.123827465
3	0xbe66f396	-0.22553858
4	0xbd93d64c	-0.07218608
5	0x3da2f770	0.07957351
6	0xbe327a35	-0.17429431
7	0xbe895155	-0.26819864
8	0x39e007f3	0.00042730532
9	0xbe9189b2	-0.28425366
10	0xbce01118	-0.027351901
11	0xbe5f7b96	-0.21824488
12	0x3c73efeb	0.014888744
13	0x3e4da065	0.20080717
14	0xbd1ab57b	-0.03777073
15	0x3eb00e61	0.3438597
16	0x3e43e5cb	0.19130628
17	0x3e6ab19b	0.22919314
18	0x3dc5a57e	0.09650706
19	0xbe00bd04	-0.12572104
20	0xbcf7d1ed	-0.030251468
21	0xbed1f0fd	-0.41004172
22	0x3cf97d9f	0.030455409
23	0x3eb2eee9	0.349479
24	0xbea22959	-0.3167217
25	0xbeb36a11	-0.3504186
26	0x3e41c239	0.18921746
27	0x3e5896e6	0.21151313
28	0x3dd2c15b	0.10290786
29	0x3e8aa45e	0.27078527
30	0x3ebc2c6d	0.36752644
31	0xbe434965	-0.19070967
32	0xbe5a650b	-0.21327607
33	0xbe3f07e7	-0.18655358
34	0xbe475950	-0.19467664
35	0xbd37dc70	-0.04488796
36	0x3daae9e0	0.08345389
37	0xbec2305c	-0.3792752
38	0xbd944535	-0.07239763
39	0x3e5a88aa	0.21341196
40	0x3ead036f	0.33791682
41	0x3e0dc1c1	0.13843442
42	0x3da48776	0.080336496
43	0x3e39f137	0.18158422
44	0xbda59434	-0.08084908
45	0x3d134a43	0.035959493
46	0xbea92de2	-0.33042818
47	0xbe9f0ca6	-0.31064337
48	0xbcb76fcc	-0.022392176
49	0xbe5cbffa	-0.21557608
50	0xbd86df85	-0.06585602
51	0x3ecab23c	0.39589107
52	0x3ea02fc8	0.31286454
53	0x3b7b3cfa	0.0038335905
54	0x3e920c2f	0.2852492
55	0xbe92f4ba	-0.28702337
56	0xbe239c5c	-0.15977615
57	0x3dcf6ca5	0.10128144
58	0x3e8185a3	0.2529727
59	0xbda4bae2	-0.080434576
60	0x3e71e3ba	0.23622027
61	0x3eaacf55	0.33361307
62	0xbeb83ce2	-0.3598395
63	0x3e338f94	0.1753524
64	0x3df6df2a	0.12054284
65	0x3e693f71	0.22778107
66	0x3e25c966	0.16190109
67	0xbd213590	-0.03935772
68	0x3ea764e9	0.32694176
69	0xbcfad166	-0.030617427
70	0xbeaa5603	-0.33268747
71	0x3b8edbd4	0.0043597016
72	0xbe3a47b5	-0.18191417
73	0xbe627c42	-0.22117713
74	0xbebc0c47	-0.36728117
75	0x3d3cb479	0.04607055
76	0xbe1ee211	-0.15515925
77	0xbe91aa7e	-0.28450388
78	0x3dca4800	0.09877014
79	0xbe251124	-0.1611982
80	0x3e8448fe	0.2583694
81	0x3e3b09fb	0.18265526
82	0x3ebd42fb	0.36965165
83	0xbe747491	-0.23872592
84	0x3e26573f	0.16244219
85	0x3dd35ffa	0.103210405
86	0xbea36e1c	-0.31919944
87	0xbd0522ac	-0.03250377
88	0x3c55d533	0.013051319
89	0xbec6ed7d	-0.38853064
90	0x3e5bc5ce	0.21462175
91	0xbcd5e7c4	-0.026111491
92	0xbe96c95b	-0.29450497
93	0x3ea0bfcf	0.31396338
94	0xbe8db086	-0.2767374
95	0x3dbf28f1	0.09333981
96	0x3e958c52	0.29208618
97	0xbe93060b	-0.28715548
98	0xbce52627	-0.027972294
99	0xbe1133ee	-0.14179966
100	0xbe8d2099	-0.27563933
101	0x3e665a48	0.22495377
102	0x3e09111e	0.13385436
103	0xbe4434d3	-0.19160776
104	0xbe4067a0	-0.1878953
105	0xbe8b63e9	-0.27224663
106	0x3e0e7022	0.13909963
107	0xbdf8f9d0	-0.12157023
108	0x3d89fad7	0.06737297
109	0x3ea74d23	0.32676038
110	0xbecabe02	-0.3959809
111	0x3df2b1ca	0.11850317
112	0x3e57a460	0.21058798
113	0xbe3fb709	-0.18722166
114	0x3e913853	0.28363284
115	0x3d02d414	0.031940535
116	0x3c9356c8	0.017985716
117	0xbd6fab60	-0.058513045
118	0x3dad9791	0.084761746
119	0x3e79da82	0.2439976
120	0xbeaf84e4	-0.34281075
121	0xbea83128	-0.32850003
122	0x3e1e1549	0.15437807
123	0xbe310185	-0.17285736
124	0xbe7cdd03	-0.24693684
125	0x3d93479d	0.071913935
126	0xbec56e53	-0.38560733
127	0x3eb12011	0.34594777

arith.constant4 f4 [32, 64]
0	0xbde9917f	-0.11404704
1	0x3dac9e99	0.084286876
2	0xbe51f5b3	-0.20503883
3	0xbe048e7c	-0.12944978
4	0xbe506f3a	-0.2035493
5	0x3e0b45d4	0.13600856
6	0xbd3ad264	-0.0456108
7	0xbe3de059	-0.18542613
8	0x3dd4cda8	0.10390788
9	0x3dac8e34	0.084255606
10	0x3e1ad8bd	0.15121742
11	0x3d0be844	0.034157053
12	0xbe6e1e1a	-0.2325367
13	0x3e030405	0.12794502
14	0xbe802ea0	-0.25035572
15	0xbe8030f8	-0.2503736
16	0x3e35e4ff	0.17763136
17	0xbe6e75c5	-0.23287113
18	0x3e7128dd	0.23550744
19	0x3bc5cf23	0.0060366555
20	0x3e32c2b9	0.17457093
21	0x3adc9464	0.0016828892
22	0xbe4093ff	-0.18806456
23	0x3da27d9c	0.07934114
24	0x3e40e374	0.18836766
25	0x3d96412b	0.073366486
26	0x3dca10ed	0.098665096
27	0x3d2b1a2c	0.041773006
28	0xbdf00239	-0.11719174
29	0xbd703e3d	-0.058653105
30	0xbe6fd235	-0.23420031
31	0xbdcf49d6	-0.10121505
32	0x3e33d427	0.17561398
33	0x3c5ff09a	0.013668204
34	0xbe6f07f6	-0.2334288
35	0x3dfd04be	0.1235442
36	0x3e70f32e	0.23530266
37	0x3e6559be	0.22397515
38	0xbe87f103	-0.26551065
39	0x3e1d0d8d	0.153372
40	0xbd33411d	-0.04376327
41	0xbda02eae	-0.078214034
42	0x3dea6539	0.11445088
43	0x3d909ab1	0.07060755
44	0x3e4bdaef	0.19907735
45	0x3df07ec4	0.117429286
46	0x3e2a8fa7	0.16656362
47	0xbe2bd1be	-0.16779229
48	0xbe28b78f	-0.16476272
49	0x3e5a6c84	0.21330458
50	0xbdb99b60	-0.090628386
51	0xbdc6acb5	-0.0970091
52	0xbe40534c	-0.18781775
53	0xbdae16dd	-0.085004546
54	0x3dcedd1d	0.10100768
55	0xbd8fb0f3	-0.07016172
56	0xbe73bbbb	-0.23802082
57	0x3cf51629	0.029917793
58	0x3e0c6c86	0.13713273
59	0x3d7ebd65	0.06219234
60	0xbdafa036	-0.0857548
61	0xbe499c82	-0.19688609
62	0xbe57514e	-0.21027109
63	0x3dc7d553	0.09757485
64	0xbb5818ff	-0.0032973883
65	0x3e0276ba	0.12740603
66	0x3e4655e8	0.19368708
67	0x3df397e4	0.11894205
68	0x3e4dbb44	0.20090967
69	0xbd19dee0	-0.037566066
70	0xbd33bafc	-0.043879494
71	0xbe30f86d	-0.17282267
72	0xbdffe4a8	-0.124947846
73	0xbd93079d	-0.071791865
74	0x3dbfe318	0.093694866
75	0xbe2de970	-0.1698358
76	0x3d030073	0.03198285
77	0xbd979f5f	-0.074034445
78	0xbc339ab6	-0.010962179
79	0xbd8bbb03	-0.06822779
80	0xbdb0eb14	-0.086385876
81	0xbde31c98	-0.11089438
82	0x3de5805f	0.112061255
83	0xbe5b34c3	-0.21406846
84	0x3e50e2a6	0.2039896
85	0xbdee09b3	-0.11622944
86	0xbdac3cba	-0.0841002
87	0x3e345c09	0.17613234
88	0x3d095afa	0.033534028
89	0xbe7907b9	-0.24319352
90	0xbe03830c	-0.12842959
91	0x3e6ebd07	0.23314296
92	0x3da3f286	0.08005242
93	0xbddc6132	-0.10760726
94	0xbd4a5662	-0.049398787
95	0x3e287c8c	0.16453761
96	0x3e5aac57	0.21354805
97	0xbe6d897a	-0.23196974
98	0xbdad2e07	-0.08456045
99	0xbd40daa7	-0.047083523
100	0xbe02538d	-0.12727185
101	0x3e2cfcfc	0.16893381
102	0x3c91ca8c	0.017796777
103	0xbdc5f4c3	-0.09665825
104	0x3e1f93bf	0.15583704
105	0x3e2ba3a3	0.16761641
106	0xbcd72153	-0.026261007
107	0x3e3a8bfe	0.18217465
108	0x3d8036ee	0.06260477
109	0x3d8d852d	0.06910167
110	0x3dfa7f9e	0.12231372
111	0x3e6f8edb	0.23394339
112	0xbe0af16f	-0.13568662
113	0x3d362c3e	0.044475786
114	0xbdc025f5	-0.0938224
115	0xbe10ac74	-0.14128286
116	0x3e05ffcf	0.13085864
117	0x3d1ae107	0.03781226
118	0xbdd25ef7	-0.10272019
119	0x3dcda705	0.10041622
120	0xbddd3780	-0.108016014
121	0xbe458793	-0.19289999
122	0x3df20b32	0.118185416
123	0xbe025eab	-0.12731425
124	0xbc6c74fe	-0.01443219
125	0x3e19236b	0.14954917
126	0xbe756ab6	-0.23966488
127	0xbd0d3392	-0.03447301
128	0xbe1e4af6	-0.15458283
129	0xbda122a4	-0.07867935
130	0xbe592b54	-0.21207935
131	0x3e48929f	0.19587182
132	0xbdb4e7c7	-0.088332705
133	0xbe80a705	-0.25127426
134	0x3d5dbf4d	0.054137517
135	0x3d8fd961	0.070238836
136	0x3e77e181	0.24207117
137	0xbe6f7b1a	-0.23386803
138	0x3c1f6d01	0.009730578
139	0xbe4d92e6	-0.20075569
140	0x3e7f99ce	0.24961016
141	0xbe6bb86c	-0.2301957
142	0x3e2197b0	0.1578052
143	0x3e544199	0.20728149
144	0xbd93ee4c	-0.07223186
145	0xbe125b19	-0.14292563
146	0x3e49a8d0	0.19693303
147	0xbdefada9	-0.11703045
148	0xbda03afe	-0.07823752
149	0x3e3dc265	0.18531187
150	0x3d7c20ea	0.061554827
151	0xbe45ff6b	-0.19335715
152	0xbd7ba3f1	-0.061435644
153	0x3e62952d	0.22127219
154	0xbd34f136	-0.04417535
155	0x3e193b73	0.14964084
156	0xbdf93b51	-0.12169517
157	0x3d2ddef2	0.042448945
158	0xbe2420b2	-0.16028097
159	0xbe5b9369	-0.21442951
160	0xbe67aa7c	-0.22623628
161	0xbdb034fd	-0.08603857
162	0xb94aed71	-0.00019352675
163	0xbe81f137	-0.25379345
164	0x3cbed920	0.023296893
165	0x3d9a4df2	0.07534398
166	0xbe19a723	-0.15005164
167	0xbe20dbc7	-0.15708838
168	0x3e4db82d	0.20089789
169	0xbe35b336	-0.17744145
170	0x3e2615b3	0.16219215
171	0xbe174abe	-0.14774606
172	0xbd218aa5	-0.039438862
173	0x3db11bcf	0.08647882
174	0x3e2443c8	0.16041481
175	0xbc51acef	-0.012797578
176	0xbdc68d5b	-0.0969493
177	0x3e5624c8	0.20912468
178	0x3e3cb521	0.1842847
179	0x3d0de32a	0.03464047
180	0xbe452840	-0.19253635
181	0xbe81057e	-0.25199503
182	0x3d920aa4	0.07130936
183	0x3dfb3394	0.12265697
184	0x3e2bf6fb	0.16793434
185	0x3e06ecb0	0.13176227
186	0xbe3bf385	-0.18354614
187	0xbdcdff6c	-0.100584835
188	0xbdb84944	-0.08998349
189	0x3e584cc8	0.2112304
190	0xbd9db8a3	-0.07701232
191	0xbe1f0287	-0.15528308
192	0xbe597483	-0.21235852
193	0x3e03661e	0.12831923
194	0x3cf895b2	0.030344818
195	0xbd23ee96	-0.040022455
196	0xbd72180a	-0.059104957
197	0xbe3a8438	-0.182145
198	0x3db57cd1	0.088616975
199	0x3dd984a3	0.106210016
200	0x3e698120	0.22803164
201	0x3cda8b50	0.026677758
202	0xbcdb9d2d	-0.026808346
203	0x3d787056	0.060654007
204	0x3e5ccd5d	0.21562715
205	0xbded1ab4	-0.11577359
206	0x3c8bb273	0.017052865
207	0xbd9919d1	-0.07475627
208	0xbe2519d5	-0.16123135
209	0x3e6199df	0.22031353
210	0x3e58c8eb	0.21170394
211	0x3d859c5e	0.06523965
212	0x3e0a775e	0.13522097
213	0xbdd00f37	-0.10159152
214	0xbe381dc7	-0.17980109
215	0x3e7c5898	0.24643171
216	0xbd5de4ae	-0.054173164
217	0xbe60cbec	-0.2195279
218	0xba7ecaae	-0.00097195327
219	0xbd6d11cd	-0.057878304
220	0xbe2d8434	-0.16944963
221	0x3e372a93	0.17887335
222	0x3db682ed	0.08911691
223	0x3e8152d8	0.25258517
224	0x3e7518e4	0.23935276
225	0x3e257a20	0.16159868
226	0x3dc38454	0.09546724
227	0xbe0bfa79	-0.13669766
228	0x3de68435	0.11255685
229	0x3cc46527	0.023974014
230	0xbdd0a12c	-0.10186991
231	0x3c80894b	0.015690466
232	0x3e1ba319	0.15198936
233	0xbe5daf70	-0.21648955
234	0x3e2c681f	0.16836594
235	0x3cda23d5	0.026628414
236	0xbe4ccb5d	-0.19999452
237	0x3de3a0b8	0.11114639
238	0x3cf758aa	0.030193646
239	0xbddaa0de	-0.10675214
240	0x3e837332	0.25673825
241	0x3d307991	0.043084685
242	0x3c3565f3	0.01107167
243	0x3e27c73f	0.163846
244	0x3e343062	0.17596582
245	0x3e3bfb07	0.18357478
246	0xbcec6590	-0.028857023
247	0xbe333596	-0.1750091
248	0xbe174b10	-0.14774728
249	0xbdf3e153	-0.119082116
250	0x3e0c992e	0.13730308
251	0xbe024f59	-0.12725581
252	0x3e4677d7	0.19381653
253	0xbdece03a	-0.11566205
254	0xbd51b680	-0.051199436
255	0xbdd73065	-0.105072774

arith.constant5 f4 [64, 64]
0	0xbd0adca0	-0.03390181
1	0x3cc5b6c5	0.024135003
2	0x3e28ce4d	0.16484948
3	0xbe307235	-0.17231067
4	0x3e28f617	0.16500126
5	0xbd2ee436	-0.042698108
6	0x3acdff12	0.0015716276
7	0x3d930a15	0.07179657
8	0xbcb0efa3	-0.021598643
9	0x3d7e80c1	0.062134508
10	0xba5b5230	-0.0008366434
11	0xbe0e724e	-0.13910791
12	0x3d9d8e82	0.07693197
13	0xbe17a6a7	-0.14809667
14	0xbd8ddb93	-0.06926646
15	0xbcd3ab9e	-0.02583867
16	0xbd45e61f	-0.048315164
17	0xbe322d98	-0.17400205
18	0x3cc8571d	0.024455601
19	0xbe0fd103	-0.14044575
20	0x3c9454dc	0.01810687
21	0xbdbb08c0	-0.09132528
22	0x3e535362	0.20637277
23	0xbe503eba	-0.20336428
24	0xbdefc00e	-0.117065534
25	0x3dbada85	0.091237105
26	0xbd5edf7b	-0.054412346
27	0xbd8fb13f	-0.07016229
28	0xbc6bb1cb	-0.014385651
29	0x3e1f4cd7	0.15556656
30	0x3d797797	0.060905065
31	0xbd0e7170	-0.03477615
32	0x3dfc912b	0.12332376
33	0xbe1049a4	-0.14090592
34	0xbdca5cdd	-0.098809935
35	0x3e1bee0f	0.15227531
36	0x3c83657b	0.0160396
37	0xbc954024	-0.018219061
38	0x3d48cfba	0.04902623
39	0x3ddfc13f	0.10925531
40	0x3c6a7386	0.0143097695
41	0xbe406590	-0.18788743
42	0xbe29cffc	-0.16583246
43	0x3d40b9d9	0.047052238
44	0x3e421f4d	0.18957253
45	0x3df8296f	0.12117278
46	0x3dc91c4a	0.09819849
47	0xbde679a5	-0.112536706
48	0x3d6098b8	0.054833144
49	0x3d06bb3b	0.0328934
50	0xbe3fea0a	-0.18741623
51	0xbd5b2829	-0.053505097
52	0x3e5af920	0.21384096
53	0xbdaeaffc	-0.0852966
54	0xbe14a512	-0.14516094
55	0xbddb92eb	-0.10721382
56	0xbe319683	-0.17342572
57	0xbe35a606	-0.17739114
58	0x3e22171e	0.15829131
59	0xbe25e945	-0.16202267
60	0xbe12b36c	-0.14326257
61	0xbe2dffab	-0.16992061
62	0xbd58161d	-0.052755464
63	0xbd039ca2	-0.0321318
64	0x3e123a2f	0.14280008
65	0xbd9afb81	-0.07567502
66	0xbe2a8157	-0.16650902
67	0x3d9e5794	0.07731548
68	0x3dd69610	0.10477841
69	0x3de3d92c	0.111254066
70	0xbd403d5f	-0.046933528
71	0xbe1638d1	-0.14670111
72	0xbe360db0	-0.17778659
73	0xbe1a5382	-0.15070918
74	0x3ddaa3db	0.10675784
75	0x3dba9f5f	0.09112429
76	0xbd3ff88d	-0.046867896
77	0x3e441431	0.19148327
78	0x3d5c9a0d	0.05385785
79	0xbdf3b0cc	-0.11898956
80	0x3d408768	0.047004133
81	0xbe5bea72	-0.21476153
82	0x3d0a0a42	0.03370119
83	0xbdb6465f	-0.08900141
84	0x3dfc04dc	0.12305614
85	0x3e342627	0.17592679
86	0x3cf49024	0.029853888
87	0x3e3b3432	0.1828163
88	0x3d888965	0.06666831
89	0x3e3313f3	0.17488079
90	0xbe3a1751	-0.18172957
91	0x3d06590f	0.032799777
92	0xbe112ea5	-0.1417795
93	0xbd7f9fbd	-0.062408198
94	0x3d73b48d	0.05949836
95	0xbcc477f9	-0.023982989
96	0x3e043e90	0.1291449
97	0xbe52bdcc	-0.20580214
98	0x3e5e70f7	0.2172278
99	0x3e04b148	0.12958252
100	0xbe30bdbf	-0.17259882
101	0xbe47b973	-0.19504337
102	0x3e4733e8	0.19453394
103	0xbe5188ac	-0.20462292
104	0x3de91955	0.11381785
105	0xbe58225b	-0.21106856
106	0xbd69418f	-0.056947287
107	0xbd0a930f	-0.033831652
108	0x3e08d033	0.13360672
109	0xbde1fb7f	-0.11034297
110	0x3e1da63a	0.15395442
111	0x3e18cf08	0.14922726
112	0x3e5aca84	0.21366316
113	0xbdd97c40	-0.10619402
114	0xbe1969dd	-0.1498179
115	0xbe2fb530	-0.17158961
116	0xbe0e6122	-0.1390424
117	0x3cac82df	0.021058498
118	0xbe4ca58b	-0.19985025
119	0x3e3a8561	0.18214943
120	0x3dcfb30a	0.10141571
121	0x3dceab9d	0.100913264
122	0xbc39afea	-0.011333445
123	0x39988bcd	0.0002909586
124	0x3cf6d02b	0.03012856
125	0x3e2506a3	0.16115813
126	0xbe3b192d	-0.18271323
127	0x3db8179a	0.08988877
128	0xbcb30bf3	-0.021856284
129	0x3e552be9	0.20817532
130	0xbdf4a4ec	-0.11945519
131	0xbdf94afb	-0.121725045
132	0xbe4ff657	-0.20308815
133	0x3cd1cd26	0.025610518
134	0xbd4a717b	-0.04942463
135	0xbe16f383	-0.1474133
136	0xbe507199	-0.20355834
137	0x3d086aca	0.033304967
138	0x3db36eb5	0.0876135
139	0x3e635e91	0.22204043
140	0x3de76fd2	0.11300625
141	0xbe2017ad	-0.15634032
142	0xbd6029fe	-0.054727547
143	0x3e0862ce	0.13318941
144	0xbe231d86	-0.15929231
145	0x3e2ef6a1	0.17086269
146	0xbdaef8d0	-0.08543551
147	0xbe4170fc	-0.18890756
148	0xbda84f77	-0.08218282
149	0x3c8a923c	0.016915433
150	0xbca06c3e	-0.019582864
151	0x3e1d3a22	0.15354207
152	0x3d9c0b91	0.076193936
153	0xbb55749d	-0.0032570728
154	0x3d339712	0.043845244
155	0xbde043c0	-0.10950422
156	0x3dd99b00	0.10625267
157	0x3dcb04c6	0.0991302
158	0x3e589448	0.21150315
159	0x3d5b79dd	0.053583015
160	0x3c432f6e	0.011913164
161	0xbca10071	-0.01965353
162	0xbe1047ad	-0.14089842
163	0xbd3a2e61	-0.045454387
164	0x3df746a4	0.120740205
165	0x3de1bf19	0.11022777
166	0xbdc8cf4c	-0.09805164
167	0xbde3d1c5	-0.11123995
168	0xbe2cfc76	-0.16893181
169	0x3dbd074f	0.0922991
170	0xbc9d3919	-0.019192265
171	0x3caf81eb	0.021424254
172	0x397235f6	0.0002309902
173	0x3e4df2e4	0.20112187
174	0x3dacc914	0.0843679
175	0x3d26314f	0.040574368
176	0x3d1dca4b	0.038523
177	0xbe16193a	-0.1465806
178	0x3e2dff0d	0.16991825
179	0x3d87c644	0.06629613
180	0x3e3c31cc	0.18378371
181	0xbdc5ac3b	-0.09651991
182	0xbd1d9f57	-0.038482036
183	0xbe2be485	-0.16786392
184	0x3e5b373e	0.21407792
185	0x3d078304	0.03308393
186	0x3e585864	0.21127468
187	0xbc8637d7	-0.016384048
188	0xbc838582	-0.016054872
189	0xbe3c495b	-0.18387358
190	0xbdd0bbf7	-0.101921014
191	0x3d35106b	0.04420511
192	0xbd9dfb9c	-0.07714006
193	0xbe5beedb	-0.21477835
194	0x3e1cf5e2	0.15328172
195	0xbe31582d	-0.17318793
196	0x3e47b894	0.19504005
197	0x3e32d64f	0.17464565
198	0xbe131b63	-0.14365916
199	0xbd1be881	-0.03806353
200	0xbe0ff474	-0.14058095
201	0xbe4bafd8	-0.19891298
202	0xbcb58591	-0.022158416
203	0xbd88d1dc	-0.066806525
204	0x3e599784	0.21249205
205	0x3e135288	0.14386952
206	0x3d14bb78	0.036311597
207	0xbdc3f347	-0.09567886
208	0xbe126287	-0.14295398
209	0x3c06b6df	0.008222311
210	0xbe3ffc10	-0.18748498
211	0x3e267f6e	0.16259548
212	0xbe04d499	-0.12971725
213	0x3d8c8166	0.06860618
214	0xbe07c27a	-0.1325778
215	0xbc990695	-0.018679896
216	0x3e2cef70	0.16888213
217	0xbd3e93ef	-0.0465278
218	0xbcd840e9	-0.02639814
219	0x3dbffc65	0.09374312
220	0xbe090d09	-0.13383879
221	0xbc9b7b65	-0.018979738
222	0xbcc9c5f5	-0.024630526
223	0xbe3bd4fa	-0.18342963
224	0x3e45cecf	0.19317172
225	0x3d5361eb	0.051607054
226	0xbe2da2f5	-0.16956694
227	0xbde50694	-0.11182895
228	0x3dbccd59	0.092188545
229	0x3d1c0d33	0.038098525
230	0xbd8be5b9	-0.068309255
231	0x3d0e2569	0.034703646
232	0x3e4044f0	0.18776298
233	0x3e1fa91b	0.15591852
234	0x3e3c1a6c	0.18369454
235	0x3d23191a	0.03981886
236	0x3d6e1b45	0.058131475
237	0x3e50f55d	0.20406099
238	0xbdeadf3d	-0.114683606
239	0x3db29aaa	0.08720906
240	0x3bc0d954	0.0058852825
241	0x3d08cf2c	0.0334007
242	0x3e07cf7a	0.1326274
243	0xbe2fc1c5	-0.17163761
244	0xbcd33bf1	-0.025785418
245	0x3dbcf43c	0.092262715
246	0xbe428cac	-0.18998975
247	0x3dc8110d	0.09768877
248	0x3dac561e	0.08414863
249	0xbe57c6cc	-0.21071929
250	0xbc2add51	-0.0104287425
251	0x3dfd081d	0.12355063
252	0xbdc6f165	-0.09714011
253	0x3c995544	0.018717416
254	0x3e67470f	0.225857
255	0x3e07e41b	0.13270609

arith.constant6 f4 [4]
0	0xbc2a667a	-0.010400409
1	0x3c6cbacc	0.014448833
2	0x3c885dae	0.016646232
3	0xbc0475f3	-0.008084762

arith.constant7 f4 [64]
0	0x3bb1b868	0.0054235943
1	0xbc2c4b20	-0.010515958
2	0x3c4e34f1	0.012585864
3	0x3cc815e9	0.02442451
4	0x3c15d494	0.009144921
5	0xbbf7e628	-0.0075652786
6	0x3b01511e	0.0019732188
7	0xb9ec4d8e	-0.0004507121
8	0xbb1039b7	-0.0022007057
9	0xbc552ed9	-0.013011658
10	0x3bbc936b	0.0057548783
11	0x3c88d68e	0.01670387
12	0x3b8dacdd	0.0043235854
13	0xbb9d552e	-0.004801414
14	0x3c5dcf23	0.013538155
15	0x3c561094	0.013065476
16	0xbbc136e4	-0.005896436
17	0x3c6c22b3	0.01441257
18	0x3c918a91	0.017766269
19	0x3c492e98	0.012279175
20	0xbc8b0819	-0.016971635
21	0xbbadd890	-0.0053053573
22	0xbafd49a8	-0.001932432
23	0xbbc48da6	-0.005998331
24	0xbc0e72b4	-0.00869434
25	0xbbc5e4d9	-0.0060392437
26	0xbb959197	-0.004564475
27	0xbc09753a	-0.008389765
28	0x3b1f3d37	0.0024297961
29	0xbbe4b939	-0.006980088
30	0x3a9a522d	0.0011773758
31	0xbc5d6879	-0.013513678
32	0xbc117dc5	-0.008880083
33	0xbc147a82	-0.009062411
34	0x3c6425b0	0.013925001
35	0xbc0ce597	-0.00859966
36	0x3b507c41	0.0031812342
37	0x3c57cab4	0.013170887
38	0x3ca8396b	0.020535192
39	0xbb1e3d21	-0.0024145322
40	0xbbb3a2e7	-0.005482066
41	0x3a3c7050	0.0007188367
42	0xbbe76289	-0.007061307
43	0x3c1980a3	0.009369048
44	0xbb1116c1	-0.0022138807
45	0xbc4b18d5	-0.012396057
46	0xbaa72433	-0.0012751877
47	0x3ca57d13	0.020201242
48	0xbb2e790d	-0.0026622445
49	0x3b6e1d22	0.0036333282
50	0x3b17aed3	0.0023144975
51	0xbb3e2d21	-0.0029018598
52	0xb9c83f4f	-0.0003819414
53	0xbbc29c2a	-0.0059390264
54	0xbc664aec	-0.014055949
55	0xbc0818b9	-0.008306676
56	0xbc60f4ec	-0.013730269
57	0xbc4e084b	-0.012575219
58	0xbc561dbd	-0.013068614
59	0x3b7eeef8	0.003889976
60	0xbc4dfa66	-0.012571907
61	0xbc3fd944	-0.011709515
62	0x3c0a86bb	0.008454974
63	0x3c2d8a9e	0.010592131

arith.constant8 f4 [32]
0	0xbc814ab9	-0.0157827
1	0x3c77a2f1	0.015114532
2	0xbb665356	-0.0035144887
3	0x3c7fa9ac	0.015604418
4	0x3cb3ebdd	0.021963054
5	0xbba53d79	-0.0050427285
6	0x3bf6278d	0.007512039
7	0x3c883366	0.016626071
8	0xbc698997	-0.014253995
9	0xbb9278c6	-0.0044699637
10	0xbc84ad96	-0.016196053
11	0x3ca5a649	0.020220893
12	0xbcab65e3	-0.020922607
13	0xbc66987e	-0.014074443
14	0x3c115e92	0.008872645
15	0xbc6205ac	-0.013795298
16	0xbc760a88	-0.015017159
17	0xbb483a3b	-0.0030552286
18	0x3b270270	0.002548363
19	0xba941405	-0.001129747
20	0x3b19fac7	0.0023495422
21	0x3c1d9b89	0.009619602
22	0xbc47b26f	-0.012188538
23	0xbc616b05	-0.013758426
24	0x3c13b7cb	0.009015988
25	0xbbb3ed3a	-0.005490926
26	0x3cab0318	0.020875499
27	0x3a71d975	0.0009225824
28	0xbc2cb8e0	-0.0105421245
29	0x3ca18eb9	0.019721376
30	0xbc221299	-0.009892129
31	0x3b84ab73	0.0040487587

arith.constant22 f4 [256, 258]
0	0xbd891e37	-0.06695216
1	0x3d4ac18a	0.04950098
2	0xbdb82dd5	-0.08993117
3	0x3d7d741b	0.061878305
4	0x3d11b467	0.035572436
5	0x3d8f4b1b	0.06996747
6	0x3d734aa8	0.05939737
7	0x3ddc73d4	0.1076428
8	0x3d81c31a	0.06336041
9	0x3b8005e6	0.003906953
10	0x3cae5605	0.021281252
11	0xbc2f9f3b	-0.010719116
12	0xbd54c00b	-0.05194096
13	0x3ca77098	0.020439431
14	0xbd3279e4	-0.043573275
15	0xbcaa7559	-0.020807909
16	0xbd7b6cae	-0.061382942
17	0x3d1a3b8d	0.03765445
18	0x3db6cf85	0.089263
19	0x3d0a98ef	0.033837255
20	0x3cd50c7a	0.026006926
21	0xbd90a0c3	-0.07061913
22	0x3ccff4d9	0.025385307
23	0x3bb40e31	0.005494856
24	0xbcd03404	-0.025415428
25	0x3d27a828	0.04093185
26	0x3d5a38ad	0.053276706
27	0x3dbc4a84	0.091939
28	0x3dd2dd9b	0.10296174
29	0xbc3eb8df	-0.011640756
30	0xbc603b67	-0.013686038
31	0xbc592ca6	-0.013255274
32	0x3c240dd6	0.010013064
33	0xbd29f5b1	-0.041494075
34	0x3d72cf77	0.059279885
35	0xbc30647d	-0.010766146
36	0x3c9e0b06	0.019292366
37	0x3c35a6fa	0.011087174
38	0xbb8de021	-0.0043296968
39	0xbd1a32f7	-0.03764626
40	0x3d8f7be3	0.070060514
41	0x3dc848fa	0.09779544
42	0x3d65dd6d	0.05611937
43	0x3d5be713	0.053687166
44	0xbc0259c0	-0.007955968
45	0x3c57563c	0.0131431185
46	0x3cb240eb	0.02175947
47	0xbd16446a	-0.03668634
48	0xbd9b183c	-0.07572982
49	0xbd67419f	-0.056459066
50	0xbd745af6	-0.05965706
51	0xbd60e7aa	-0.054908432
52	0xbd87b71d	-0.06626723
53	0x3dd332fe	0.1031246
54	0x3d9c5808	0.07633978
55	0x3d4781e4	0.048707858
56	0xbde5db1d	-0.11223433
57	0x3d064458	0.03278002
58	0xbd8eb1a7	-0.06967478
59	0xbd32797e	-0.043572895
60	0xbd37f46f	-0.044910844
61	0xbdb32ce5	-0.08748797
62	0xbd3914a4	-0.0451857
63	0x3c613183	0.013744715
64	0x3d967ff8	0.07348627
65	0xbdba25a2	-0.09089209
66	0x3d1331ea	0.035936274
67	0xbdbc1b50	-0.09184897
68	0x3dc1e273	0.0946702
69	0x3d760ba9	0.060069714
70	0xbc3ac946	-0.011400526
71	0xbd481de3	-0.048856627
72	0xbc82d067	-0.015968515
73	0xbd8bfe0a	-0.068355635
74	0x3de0a153	0.1096827
75	0xbd4423e2	-0.047885783
76	0xbcebeff5	-0.028800944
77	0x3cf367e3	0.029712623
78	0xbd72358c	-0.059133098
79	0x3de0dd2e	0.10979687
80	0x3dc3946d	0.09549794
81	0x3bd15109	0.006387834
82	0xbc91a3a9	-0.017778235
83	0xbda00ee9	-0.07815344
84	0xbd928a14	-0.071552426
85	0x3d9c4aaf	0.07631432
86	0xbdc7e0fa	-0.09759708
87	0xbd0930cb	-0.0334938
88	0xbcc54a93	-0.024083411
89	0x3da8988b	0.0823222
90	0xbcaf3b81	-0.021390678
91	0x3d790921	0.06079972
92	0x3cf668b1	0.030079218
93	0xbd5b5393	-0.0535465
94	0xbdc55088	-0.09634501
95	0xbdc45008	-0.09585577
96	0xbd722680	-0.059118748
97	0xbd8f3aa9	-0.069936104
98	0x3d304445	0.043033857
99	0x3d10e1fd	0.03537177
100	0xbdb1705c	-0.08664009
101	0xbd345406	-0.044025443
102	0xbd373c2b	-0.044735115
103	0xbd8e02cb	-0.069341265
104	0xbd5e12d1	-0.054217163
105	0x3cc01847	0.023449076
106	0x3c30ca31	0.010790394
107	0x3ccec8fe	0.025242325
108	0x3d9a3001	0.07528687
109	0xbd9d7deb	-0.076900326
110	0x3d5e45f0	0.054265916
111	0xbc4684ea	-0.01211665
112	0xbb2e0502	-0.0026553278
113	0xbc1e17ca	-0.009649226
114	0x3dbcb471	0.09214104
115	0x3dcfa7e3	0.10139444
116	0x3dc49c88	0.096001685
117	0xbd99208f	-0.07476913
118	0x3bb944f7	0.005653973
119	0xbd8a732a	-0.06760247
120	0xbdd3a163	-0.103335164
121	0x3d9307a3	0.07179191
122	0x3d8cfd39	0.06884236
123	0xbd25bfe6	-0.04046621
124	0xbbf20d93	-0.007386872
125	0xbc44f704	-0.012021784
126	0xba19d14a	-0.00058676733
127	0x3d63b319	0.055590723
128	0xbc2dbb4e	-0.010603739
129	0x3c21ea9e	0.009882597
130	0x3d08fd7d	0.03344487
131	0xbd9aa4ef	-0.0755099
132	0xbd814e71	-0.0631379
133	0x3d13f240	0.0361197
134	0xb71d6238	-9.380798e-06
135	0xbd91723b	-0.07101866
136	0xbde94bf2	-0.113914385
137	0x3d92934b	0.07157
138	0x3d5b70b2	0.05357427
139	0xbd8aeff1	-0.067840464
140	0xbdade67d	-0.08491228
141	0xbd333185	-0.043748397
142	0x3db4a57e	0.08820628
143	0x3d1a64c0	0.03769374
144	0xbd8ac105	-0.06775097
145	0x3da0659e	0.07831882
146	0x3c907e97	0.017638488
147	0x3d214ed4	0.039381817
148	0xbd4bc40c	-0.04974751
149	0xbda6d7b6	-0.08146612
150	0x3c6b0c38	0.014346175
151	0xbdd367f5	-0.103225626
152	0xbc35539c	-0.011067297
153	0x3de552f0	0.1119746
154	0xbd319c77	-0.043362107
155	0x3d8c2811	0.068435796
156	0xbd833708	-0.06406981
157	0xbd675c3f	-0.056484457
158	0xbb832e4a	-0.004003321
159	0xbd9d4041	-0.07678271
160	0x3cad42ce	0.021150019
161	0xbd4b59f7	-0.049646344
162	0x3dea9c97	0.114556484
163	0xbcf8e572	-0.030382846
164	0xbd2f8e48	-0.0428603
165	0x3ddc3de7	0.107539944
166	0xbdb13bb7	-0.08653968
167	0x3b835d68	0.0040089376
168	0xbb55e8f9	-0.0032640083
169	0xbd39868c	-0.04529433
170	0x3dafb38f	0.0857917
171	0x3c058684	0.008149747
172	0xbcc4e045	-0.024032721
173	0x3c64c84f	0.013963773
174	0xbdcba24b	-0.09943064
175	0x3d58e044	0.05294825
176	0xba08111b	-0.0005190537
177	0xbc5a5dce	-0.013328029
178	0x3be14ef5	0.0068758675
179	0xbdb5889c	-0.08863947
180	0x3cac61e5	0.021042774
181	0xbdb49e9b	-0.08819314
182	0xbd08231b	-0.033236604
183	0x3d677210	0.056505263
184	0xbd5d69a7	-0.054055836
185	0x3d2c23df	0.042026397
186	0x3d961eca	0.07330091
187	0x3c631f70	0.013862476
188	0xbdb43071	-0.08798302
189	0xbc25df03	-0.010123971
190	0xbdd2d73c	-0.10294959
191	0x3dcd9e9a	0.100400165
192	0x3d42a515	0.047520716
193	0xbdbed195	-0.09317318
194	0x3d9e51ed	0.0773047
195	0xbdd0f74a	-0.10203417
196	0x3dca2128	0.09869605
197	0xbd6f97d4	-0.058494404
198	0xbd477346	-0.048693918
199	0xbc20f664	-0.009824369
200	0x3d7792fc	0.06044291
201	0xbd3adf3c	-0.04562305
202	0x3c636bcc	0.013880681
203	0xbd3439ac	-0.044000313
204	0xbcc11154	-0.023567833
205	0xbd8b96fa	-0.06815906
206	0xbd937980	-0.07200909
207	0xbda105d6	-0.07862441
208	0x3d88854c	0.06666049
209	0x3d68eae8	0.05686465
210	0xbcced6dc	-0.025248937
211	0x3a880e2a	0.0010380198
212	0x3c210d44	0.009829823
213	0x3dd066a4	0.10175827
214	0xbd6b3198	-0.057420343
215	0xbd398d1c	-0.045300588
216	0xbdbee1a9	-0.09320385
217	0x3d84a520	0.064768076
218	0xbd44e09e	-0.048065774
219	0xbc486dfc	-0.012233254
220	0xbce8ecbc	-0.028433196
221	0xbdddf2ea	-0.10837348
222	0x3db24430	0.08704412
223	0xbdc8e243	-0.09808781
224	0xbd6fcd64	-0.058545485
225	0x3d319444	0.043354288
226	0xbd5bdb11	-0.053675715
227	0xbdadf73a	-0.0849442
228	0xbddcbcb9	-0.107781835
229	0xbda62d82	-0.08114149
230	0xbd4ca170	-0.049958646
231	0xbda0e56a	-0.07856257
232	0xbd637ae1	-0.05553711
233	0x3db78b22	0.08962084
234	0xbda9a474	-0.0828332
235	0x3ce71574	0.028208472
236	0x3ca2b5ac	0.019862019
237	0x3b8314db	0.004000289
238	0xbda05ae3	-0.07829835
239	0xbcf2854c	-0.029604577
240	0xbdb4e7ff	-0.08833312
241	0x3d8762ea	0.06610663
242	0xbd3e4b82	-0.04645873
243	0xbd9c2956	-0.07625072
244	0x3d32338c	0.04350619
245	0xbd39cf58	-0.045363754
246	0xbda9e6f8	-0.08296007
247	0x3d1d32b0	0.038378417
248	0xbd02d858	-0.031944603
249	0xbd978c4d	-0.07399807
250	0x3d4a6e10	0.04942137
251	0xbd87b2f2	-0.06625928
252	0x3d0ebb80	0.034846783
253	0xbdb37873	-0.08763208
254	0x3c16e4ec	0.009209853
255	0x3da6fa4e	0.081532106

arith.constant23 f4 [256, 64]
0	0x3aff03e3	0.0019456114
1	0x3d8edb5c	0.06975433
2	0x3d299ee3	0.04141129
3	0x3dcfd0e6	0.10147266
4	0xbb65e152	-0.0035076928
5	0x3c623044	0.013805453
6	0xbd95deb2	-0.073178664
7	0xbd252e8c	-0.040327594
8	0x3d5f08c4	0.05445172
9	0xbd836602	-0.06415941
10	0xbcd9d089	-0.026588695
11	0x3daebd6b	0.08532222
12	0xbdcba384	-0.099432975
13	0x3c496e40	0.012294352
14	0x3c7c2803	0.015390399
15	0xbb5efd47	-0.0034025477
16	0x3c8775e1	0.016535701
17	0x3c73dd3b	0.014884288
18	0xb929b2e4	-0.00016183738
19	0x3d8a5b15	0.06755654
20	0x3da8fac7	0.08250957
21	0x3cdfbda5	0.02731211
22	0xbc19c1c1	-0.009384573
23	0x3b965142	0.0045873234
24	0xbdcc1a4c	-0.09965953
25	0x3d632cad	0.055462528
26	0x3d919eda	0.07110377
27	0xbd14e774	-0.036353543
28	0xbd7cd6c3	-0.06172825
29	0x3bd17c1f	0.00639297
30	0x3ccad063	0.02475757
31	0xbc872dc0	-0.016501307
32	0xbddad978	-0.1068601
33	0xbc54dd96	-0.012992283
34	0xbd8c63eb	-0.06854995
35	0xbdaf1700	-0.08549309
36	0x3c9d883a	0.019229997
37	0x3d494dda	0.04914651
38	0x3d1500df	0.036377784
39	0x3d1c1d14	0.03811367
40	0xbdb37f8d	-0.08764563
41	0x3bb2c469	0.005455543
42	0xbd7abe83	-0.061216842
43	0x3dfa7ccd	0.12230835
44	0x3cc1969b	0.023631385
45	0x3c89f501	0.01684046
46	0x3dfaf7eb	0.12254318
47	0x3c4ecb6d	0.012621743
48	0xbd71b6b5	-0.059012134
49	0xbe3936c2	-0.18087295
50	0x3db2072a	0.08692773
51	0xbdffd771	-0.12492264
52	0x3cf04351	0.029328974
53	0x3cddef81	0.027091743
54	0x3d8eb43a	0.06967969
55	0xbe1bab36	-0.1520203
56	0xbd6c3931	-0.05767173
57	0xbd336d20	-0.04380524
58	0x3df3c775	0.11903278
59	0xbdbbed2f	-0.091760986
60	0xbd653d3a	-0.055966593
61	0xbc87e3a0	-0.016588032
62	0xbc3bdebb	-0.011466677
63	0x3d11acb4	0.035565093
64	0x3b65fa87	0.0035091953
65	0x3c3a2b51	0.0113628665
66	0x3d7c217e	0.06155538
67	0x3d89f19c	0.067355365
68	0xbd91e42a	-0.07123597
69	0x3d6cb4db	0.057789665
70	0xba7489e2	-0.00093284075
71	0xbd4a79c3	-0.049432527
72	0xbda5afb5	-0.08090154
73	0x3d67cb81	0.05659056
74	0x3d48ce8c	0.049025103
75	0x3b35034c	0.0027620373
76	0x3d99f277	0.075169496
77	0xbdca1eb0	-0.098691344
78	0x3d48bcd4	0.049008206
79	0x3d0f4dd7	0.034986343
80	0x3db1269d	0.08649943
81	0x3cd0a4c9	0.0254692
82	0xbd280232	-0.04101772
83	0x3c970d0f	0.018438844
84	0xbde11ef4	-0.10992232
85	0xbc20521e	-0.009785203
86	0x3c9af478	0.0189154
87	0x3e07f427	0.1327673
88	0x3e03ca7c	0.1287021
89	0xbd8a9e24	-0.06768444
90	0xbd179a71	-0.03701252
91	0x3c276d63	0.010218951
92	0x3b181693	0.0023206815
93	0x3cabdcd2	0.020979319
94	0xbb5c14e6	-0.0033581792
95	0xbdb1dfef	-0.0868529
96	0x3d23bb3f	0.039973494
97	0xbdbc1d97	-0.09185331
98	0x3d5bccbb	0.053662043
99	0x3be241bf	0.00690481
100	0xbdbda7c2	-0.09260513
101	0x3dcf16ca	0.101117685
102	0xbd64110d	-0.055680323
103	0xbd5e807d	-0.054321755
104	0xbe107c99	-0.1411003
105	0xbdb2adf6	-0.08724587
106	0xbd60f6f4	-0.054923013
107	0x3d1f714b	0.038926404
108	0xbb39c4a7	-0.0028345974
109	0x3e1534cf	0.14570926
110	0xbcbd65b1	-0.02311978
111	0xbc13f09d	-0.009029535
112	0xbc81c9ff	-0.01584339
113	0x3d3af710	0.045645773
114	0xbd1a756f	-0.03770965
115	0xbd9a2c5c	-0.07527992
116	0x3c00a8ed	0.007852775
117	0x3d61f3b5	0.055164058
118	0xbde44565	-0.111460485
119	0x3ceacb43	0.028661376
120	0xbdd7dac3	-0.10539772
121	0xbd80609a	-0.06268425
122	0xbc05db59	-0.008169972
123	0xbca849a0	-0.02054292
124	0x3c0172d5	0.007900913
125	0xbd9f3021	-0.07772852
126	0xbd579f98	-0.052642435
127	0xbdb2eb29	-0.087362595
128	0xbd69cc70	-0.057079732
129	0x3cb04c63	0.021520799
130	0x3d7d0b7f	0.06177854
131	0xbd0bd87c	-0.034142002
132	0xbc35b525	-0.0110905515
133	0xbcf99aaa	-0.030469257
134	0xbdffe4e4	-0.12494829
135	0xbd3cd5d2	-0.046102352
136	0x3de951f6	0.11392586
137	0xbd8e8b7a	-0.06960197
138	0xbd41a061	-0.04727209
139	0xbcdad47d	-0.02671265
140	0xbd69aa5d	-0.057047237
141	0x3d2440ad	0.040100742
142	0xbd090819	-0.03345499
143	0x3dd603e3	0.1044996
144	0x3e17485d	0.14773698
145	0xbdcb6171	-0.09930695
146	0xbcca6d8e	-0.024710443
147	0x3db1cbea	0.08681472
148	0x3e2ea341	0.17054464
149	0xbd2b88d5	-0.04187854
150	0xbd1b6462	-0.03793753
151	0xbbec0027	-0.0072021666
152	0x3d607782	0.05480147
153	0x3d65b371	0.05607933
154	0x3c0af5ac	0.008481424
155	0x3c4dfee8	0.012572981
156	0x3d13007b	0.03588913
157	0x3c946b68	0.018117622
158	0xbd730b57	-0.059336986
159	0x3d2abee1	0.041685943
160	0xbb8de560	-0.004330322
161	0xbc86bba3	-0.016446894
162	0xbdbb5579	-0.09147162
163	0x3c2a63ff	0.0103998175
164	0xbd06abef	-0.032878812
165	0x3ca87f9f	0.020568667
166	0xbd38b549	-0.045094762
167	0x3d35b96e	0.044366293
168	0xbd2fbecd	-0.04290657
169	0x3c584cbf	0.013201891
170	0xbe38c889	-0.18045248
171	0xbce91866	-0.028454017
172	0xbdb8423e	-0.0899701
173	0xbd03713e	-0.032090418
174	0xbc9e14e2	-0.019297067
175	0xbd90d51a	-0.07071896
176	0x3dba03c0	0.090827465
177	0xbde4c16a	-0.11169703
178	0x3c6f583f	0.014608442
179	0x3d93182b	0.07182344
180	0xbcb78409	-0.022401826
181	0x3d96109f	0.07327389
182	0x3dd79d1c	0.10528013
183	0x3d24de1f	0.040250894
184	0xbd1b9aa3	-0.03798927
185	0x3b9d6a2f	0.004803918
186	0xbd0162a2	-0.031588204
187	0x3d22be86	0.03973248
188	0xbd22993a	-0.03969691
189	0x3c17bde9	0.009261587
190	0xbcd5b3c0	-0.026086688
191	0xbdd39644	-0.10331395
192	0xbd84cd4f	-0.06484472
193	0x3bd2a4a5	0.0064283186
194	0xbd30c89c	-0.043160066
195	0xbb814757	-0.003945272
196	0xbdf8a649	-0.121410914
197	0xbda4c338	-0.080450475
198	0x3d8dd851	0.06926025
199	0xbd7dada7	-0.061933186
200	0x3d2db953	0.042413067
201	0x3ba6e85f	0.0050936188
202	0x3d2a69d5	0.041604836
203	0xbd16bd34	-0.036801532
204	0x3e089b4d	0.13340493
205	0xbd54357a	-0.05180881
206	0x3d3a6960	0.04551065
207	0x3d7a113a	0.061051585
208	0x3d1fb6e8	0.038992792
209	0xbddd1658	-0.10795277
210	0x3c5bc58e	0.0134138
211	0xbb84f479	-0.0040574637
212	0xbaa0e205	-0.001227439
213	0xbbe30db9	-0.006929126
214	0x3cd3e803	0.025867468
215	0xbda6e25e	-0.08148645
216	0x3d074d7b	0.033032876
217	0xbc9a13a0	-0.018808186
218	0x3d15332e	0.036425762
219	0xbca268a6	-0.01982529
220	0xbdcceb39	-0.10005803
221	0x3d6d8579	0.057988618
222	0x3c55dbb1	0.013052867
223	0xbc7567b3	-0.014978337
224	0xbd29bee4	-0.041441813
225	0x3aec61b9	0.0018034495
226	0xbc68c20c	-0.014206421
227	0xbd230a06	-0.03980448
228	0x3d804357	0.06262844
229	0x3df8efaf	0.12155091
230	0xbd3c17a6	-0.04592099
231	0xbdb86c8e	-0.0900508
232	0x3caac768	0.020847037
233	0x3c9075c7	0.017634286
234	0x3d8272ef	0.06369578
235	0xbd19491a	-0.03742323
236	0x3d4d1ac7	0.050074365
237	0xbd552ddf	-0.0520457
238	0x3c54e99a	0.012995148
239	0xbdd35002	-0.10317995
240	0xbd385a86	-0.045008205
241	0xbd355f00	-0.044280052
242	0x3d4f3ac8	0.050593168
243	0xbe06ea64	-0.1317535
244	0x3df9da3b	0.12199827
245	0xbcf92a9e	-0.03041583
246	0xbd2735b9	-0.04082272
247	0x3df2a9e4	0.1184881
248	0x3e09a41d	0.1344151
249	0x3d9f6f44	0.07784894
250	0x3dbbe60b	0.091747366
251	0xbd818107	-0.06323438
252	0x3d4aa312	0.049471922
253	0xbda4363f	-0.08018159
254	0x3da357cb	0.079757296
255	0xbc1b9c96	-0.009497782

sequential_1/lstm_1/while/lstm_cell_1/add_1/ReadVariableOp f4 [256]
0	0x3afbbc7c	0.0019205953
1	0x3b467dd2	0.0030287397
2	0x3ac0ac0a	0.0014699709
3	0xbb1d1063	-0.0023966066
4	0xbb6d35fe	-0.0036195512
5	0x3aacc74b	0.0013181953
6	0xa7548ffb	-2.9498962e-15
7	0x3c0c7181	0.008571983
8	0x3b02c44e	0.0019953432
9	0x3b76e1ab	0.003767113
10	0xbc016336	-0.007897189
11	0xbaca3c9f	-0.0015429443
12	0xbb230374	-0.0024873884
13	0x39928d91	0.00027952765
14	0xbb9ecec2	-0.004846425
15	0xb9d41550	-0.0004045167
16	0x39d67a26	0.00040908268
17	0x3ab4baf4	0.0013788627
18	0xbb7dac63	-0.0038707487
19	0xbb26cb54	-0.0025450783
20	0xbb3e60ba	-0.0029049353
21	0xbbed4b77	-0.007241662
22	0xb650ccab	-3.1113548e-06
23	0xb9ccf5d3	-0.00039093065
24	0xbb0062f9	-0.0019590242
25	0xbbc60726	-0.0060433326
26	0x3be40aea	0.006959309
27	0x3b551b59	0.0032517521
28	0xbb99bffd	-0.0046920762
29	0xbbc44819	-0.00599004
30	0x3bc32104	0.0059548635
31	0xbbb51939	-0.0055266884
32	0xbade7df1	-0.0016974789
33	0xbba536ca	-0.0050419318
34	0xbb9f9dc3	-0.0048711016
35	0x3b9fb222	0.00487353
36	0x3af74e0c	0.0018867864
37	0x3ad06951	0.0015900527
38	0xbbc66740	-0.006054789
39	0xbba36c28	-0.0049872585
40	0x3b883aee	0.0041574156
41	0xbbe99817	-0.007128726
42	0x3b2ff977	0.0026851573
43	0xbc18b40b	-0.009320269
44	0xbc061ed5	-0.008186062
45	0xbbda96f2	-0.006670826
46	0xbb1d7034	-0.0024023177
47	0x3b8ed188	0.004358474
48	0x3bc8a08e	0.0061226552
49	0x3bc4c15e	0.0060044965
50	0x00000000	0.0
51	0xbb93f0ab	-0.004514774
52	0xbb40914c	-0.0029383479
53	0xbb8ba281	-0.0042613153
54	0xb8129684	-3.494929e-05
55	0xbbb13efe	-0.0054091206
56	0xbb529859	-0.0032134263
57	0xbb581e26	-0.0032976954
58	0x3bca84c2	0.0061803767
59	0xb9c84350	-0.00038197124
60	0xbb0ff66f	-0.0021966954
61	0xbbc2c6f9	-0.0059441295
62	0x388fb79e	6.852973e-05
63	0xbbb028b5	-0.0053759464
64	0x3f805413	1.0025657
65	0x3f7fcd17	0.9992232
66	0x3f808bef	1.0042704
67	0x3f7fc16b	0.9990451
68	0x3f7f25ad	0.99666864
69	0x3f7f5295	0.99735385
70	0x3f800000	1.0
71	0x3f80d79f	1.0065802
72	0x3f7ff601	0.9998475
73	0x3f7fe6f7	0.999618
74	0x3f7de576	0.99178255
75	0x3f7faaff	0.99870294
76	0x3f7f02ca	0.9961363
77	0x3f7f2e1b	0.99679726
78	0x3f7ee5bb	0.9956929
79	0x3f7fc71c	0.9991319
80	0x3f800115	1.000033
81	0x3f7fec03	0.999695
82	0x3f7e5186	0.99343145
83	0x3f7f852f	0.998126
84	0x3f7f7880	0.99793243
85	0x3f7e5e99	0.99363095
86	0x3f7ffffa	0.99999964
87	0x3f8005cf	1.0001773
88	0x3f8118b9	1.008567
89	0x3f7e534b	0.99345845
90	0x3f801649	1.0006801
91	0x3f7e023a	0.9922215
92	0x3f7fa641	0.9986306
93	0x3f7e68d5	0.9937871
94	0x3f7e7a62	0.9940549
95	0x3f7f4ef2	0.99729836
96	0x3f800000	1.0
97	0x3f7ea3c6	0.9946865
98	0x3f7ea7ac	0.99474597
99	0x3f804921	1.0022317
100	0x3f80c04b	1.0058683
101	0x3f8097c3	1.0046314
102	0x3f7e4ab9	0.9933277
103	0x3f7ec6df	0.99522203
104	0x3f805f02	1.0028994
105	0x3f7e0eb8	0.9924121
106	0x3f7fb379	0.9988323
107	0x3f7e1b3b	0.992603
108	0x3f7e30a9	0.99293
109	0x3f7ec079	0.9951244
110	0x3f8000a6	1.0000198
111	0x3f7cd06d	0.9875553
112	0x3f80b3d9	1.0054885
113	0x3f809438	1.0045233
114	0x3f800000	1.0
115	0x3f7f0940	0.9962349
116	0x3f7ecb73	0.9952919
117	0x3f7f411b	0.9970872
118	0x3f7f9b8f	0.9984674
119	0x3f7e408e	0.9931725
120	0x3f802e83	1.0014194
121	0x3f80c60e	1.0060441
122	0x3f80adf3	1.0053085
123	0x3f7fd215	0.99929935
124	0x3f7faa5c	0.9986932
125	0x3f7e87a3	0.99425715
126	0x3f8000d5	1.0000254
127	0x3f7eb056	0.9948782
128	0x3b750e82	0.003739268
129	0x3ace3d81	0.0015734882
130	0x3b58b87a	0.003306894
131	0xbb01f021	-0.0019826966
132	0xbb741a29	-0.0037247038
133	0xba68b50c	-0.0008877076
134	0xaacdf619	-3.658608e-13
135	0x3b7f39a9	0.003894428
136	0xbc06b3bc	-0.008221563
137	0x3b19e4ad	0.0023482249
138	0xbc027d0e	-0.007964386
139	0xbbc176ac	-0.0059040394
140	0xbaa5d376	-0.0012651521
141	0xbadc5ee6	-0.001681295
142	0xbb9409f7	-0.0045177895
143	0xbb230849	-0.0024876765
144	0x3b11db27	0.002225587
145	0xbaf331df	-0.0018554291
146	0xbb3ad0e6	-0.002850586
147	0xbb15f010	-0.0022878684
148	0x3a829ab6	0.000996432
149	0xbc03bab4	-0.008040119
150	0xb6fad449	-7.475294e-06
151	0x3b82b644	0.003989013
152	0x3c0c1b52	0.008551436
153	0x3b8d8333	0.0043186187
154	0x3bcafba6	0.0061945496
155	0xbc156493	-0.009118217
156	0xbb726e4d	-0.0036992014
157	0xbbc5a4d4	-0.006031612
158	0x3bc325e3	0.005955444
159	0x3b60b7a6	0.003428915
160	0xbbb299dd	-0.005450471
161	0xbbaeeb56	-0.005338113
162	0xbb678f24	-0.0035333121
163	0x3b4e838b	0.0031511511
164	0x3b32eb79	0.0027300997
165	0x3abd1f65	0.0014428912
166	0xbbc4a2bb	-0.0060008443
167	0xbba6b214	-0.0050871465
168	0x3b1667b9	0.0022950007
169	0xbbf3b9e5	-0.007437932
170	0xbaa41841	-0.0012519435
171	0xbbffc96e	-0.0078059947
172	0xbbd8e0f7	-0.006618615
173	0x3b5bdd7d	0.0033548765
174	0xbba06571	-0.0048949053
175	0x3b398916	0.002831047
176	0x3b5f31e8	0.0034056846
177	0xbad1ddb6	-0.001601151
178	0x00000000	0.0
179	0xbb94e31a	-0.004543674
180	0xbb9c95c3	-0.004778595
181	0xbb9a564d	-0.004709995
182	0x3af38e7c	0.0018581892
183	0xbb221701	-0.002473295
184	0x3ae0281d	0.0017101798
185	0xbba116f2	-0.0049160654
186	0x3a2157f9	0.00061547715
187	0xb9fd6c42	-0.0004833658
188	0x3a4639bd	0.0007561704
189	0xbbb89736	-0.00563326
190	0xba96e6ab	-0.0011512836
191	0xbbaf265d	-0.0053451494
192	0x3b6b5ea7	0.0035914571
193	0xbb913774	-0.0044316594
194	0x3b02a00e	0.0019931826
195	0x3a0fb0a4	0.00054813386
196	0xbb8277d0	-0.003981568
197	0x3a443ef1	0.00074861856
198	0xa7920520	-4.0528697e-15
199	0x3bc12d34	0.005895281
200	0x3a6e0d70	0.0009080982
201	0xbc0de2d8	-0.008660041
202	0xbbf20db4	-0.0073868874
203	0xbb1e32fc	-0.0024139276
204	0x3b2f6979	0.0026765747
205	0x3ab6dac6	0.0013950698
206	0xbbb607b4	-0.0055551175
207	0xba257b5c	-0.00063126325
208	0x3927eb94	0.00016014121
209	0xbb82526b	-0.00397711
210	0xbb0de997	-0.0021654123
211	0xbb7af37c	-0.00382921
212	0xbb84b60e	-0.004050023
213	0xbbd81054	-0.0065937433
214	0xb425e3c8	-1.5449689e-07
215	0xba17871c	-0.0005780326
216	0x3c195a6e	0.009359939
217	0xbbd9dd8a	-0.006648724
218	0x3bf1a7c3	0.007374735
219	0x3b95d3e2	0.0045723775
220	0xbbc85845	-0.006114038
221	0x3bc2b562	0.0059420327
222	0x3ba3944a	0.0049920427
223	0xbb8972a2	-0.0041945735
224	0xbb12c568	-0.0022395495
225	0x3bdaf3aa	0.006681879
226	0xbba72ef7	-0.005102034
227	0x3beceb34	0.007230187
228	0x3a7201af	0.0009231818
229	0xba365b09	-0.00069563143
230	0xbbc42f5c	-0.005987091
231	0xbba3ccc1	-0.004998774
232	0x3b14f066	0.0022726296
233	0xbbf1a9af	-0.007374964
234	0x3b35c790	0.0027737357
235	0xbbdd079d	-0.0067452923
236	0xbc0980c8	-0.00839252
237	0xbc23fc53	-0.010008889
238	0xba6e7005	-0.00090956717
239	0x3b663714	0.0035128044
240	0x39ca9a60	0.0003864346
241	0xbbac63b8	-0.005260911
242	0x00000000	0.0
243	0xbb88481a	-0.004158986
244	0xba6faf08	-0.0009143208
245	0xbb2658ff	-0.0025382636
246	0x3aa84305	0.0012837356
247	0xbb9404a8	-0.0045171566
248	0xbaf896b9	-0.0018965817
249	0xbb5e7116	-0.0033941916
250	0x3a34be64	0.00068948255
251	0xba44cd57	-0.00075074047
252	0xbb89c171	-0.004203968
253	0xbbccf22a	-0.006254454
254	0x3a290f39	0.0006449107
255	0xbbb19fc0	-0.005420655

arith.constant26 f4 [512, 64]
0	0x3dbbda3e	0.09172486
1	0x3c19df26	0.009391582
2	0x3d5a9258	0.05336222
3	0xbcd0f2d3	-0.025506413
4	0xbd80b182	-0.06283857
5	0x3cd22506	0.02565242
6	0x3d6a768c	0.05724196
7	0xbdab32ca	-0.083592966
8	0xbdbbd54e	-0.09171544
9	0x3cd0dcc8	0.025495902
10	0xbc23637e	-0.009972451
11	0x3d99fa6d	0.07518468
12	0xbcdd1e9f	-0.02699214
13	0xbd2e47a8	-0.042548805
14	0xbd93898b	-0.072039686
15	0xbd25a8bc	-0.04044412
16	0x3d826274	0.06366435
17	0xbd57c05b	-0.05267368
18	0xbc0ca3fa	-0.008584017
19	0xbd0f21b5	-0.034944255
20	0xbd92079e	-0.07130359
21	0x3d98deb8	0.07464355
22	0x3d2912a8	0.041277558
23	0xbdbe2a04	-0.092853576
24	0x3cedd983	0.029034382
25	0xbd5edff5	-0.0544128
26	0x3d7ae3b9	0.06125233
27	0x3dbc10c6	0.09182887
28	0x3dd03636	0.1016659
29	0x3da53db7	0.08068412
30	0xbdcde85b	-0.10054084
31	0x3b100179	0.0021973534
32	0x3dcc8267	0.0998581
33	0xbdcf5bb2	-0.10124911
34	0xbdb93fc2	-0.09045364
35	0x3cde2982	0.027119402
36	0x3b157bb7	0.0022809335
37	0xbb9ab261	-0.0047209715
38	0xbd8e65d2	-0.069530144
39	0x3da1b96a	0.07896693
40	0x3d7a5d1d	0.061123956
41	0xbdcae958	-0.09907788
42	0xbd5a3da9	-0.05328146
43	0x3dae63bf	0.08515119
44	0x3d5bb5e8	0.053640276
45	0x3ce37198	0.027764127
46	0xbd8bd643	-0.068279766
47	0x3d0cd3ab	0.03438155
48	0x3d1f527c	0.038897023
49	0x3d5b882a	0.053596653
50	0x3d97893c	0.07399222
51	0xbd53c89e	-0.051704995
52	0xbd347c99	-0.044064138
53	0x3dabbdb4	0.083857924
54	0x3d6337fe	0.05547332
55	0x3d4210f2	0.04737944
56	0x3c717675	0.014737715
57	0xbd941077	-0.07229703
58	0xbd7fc5d7	-0.062444534
59	0xbd917d23	-0.07103946
60	0xbc5b52d3	-0.013386446
61	0xbdd71ac8	-0.10503155
62	0x3d0e3296	0.03471621
63	0xbba889a7	-0.0051433626
64	0x3ce99055	0.028511206
65	0x3d7fba47	0.062433507
66	0x3d1b2b35	0.037883002
67	0x3cb63c3e	0.022245523
68	0xbd383263	-0.044969928
69	0xbdb5cf70	-0.08877456
70	0xbcddfc1c	-0.027097754
71	0xbd806d24	-0.06270817
72	0x3d3b1c86	0.0456815
73	0xbd9371f9	-0.07199473
74	0xbc4c85ed	-0.012483102
75	0x3c929f99	0.017898368
76	0x3d90110b	0.07034501
77	0x3d4ea0ed	0.05044644
78	0xbdce99cb	-0.100879274
79	0x3cee20ef	0.029068438
80	0xbd3e2707	-0.046423938
81	0x3cb961ad	0.022629583
82	0xbcf20165	-0.02954168
83	0x3d7ed826	0.062217854
84	0xbd8480e5	-0.06469897
85	0x3b349f4c	0.0027560769
86	0x3dc16a04	0.09444049
87	0x3d09b5fc	0.03362082
88	0xbda99f63	-0.08282354
89	0xbd6367e5	-0.055519003
90	0xbdb9b5aa	-0.09067853
91	0x3db89bee	0.09014116
92	0x3d87d341	0.0663209
93	0xbd465ec1	-0.048430208
94	0xbd39b362	-0.04533709
95	0x3dba628c	0.091008276
96	0x3caf2317	0.021379037
97	0xbd6a0dcf	-0.057142075
98	0x3d560bca	0.052257337
99	0xbc9b6265	-0.018967817
100	0xbd965137	-0.07339709
101	0xbca18a84	-0.01971937
102	0xbdc81229	-0.09769089
103	0xbd74a0e6	-0.059723757
104	0xbd42f88d	-0.047600318
105	0x3d052c85	0.03251316
106	0x3d5584ef	0.05212873
107	0x3cd4d9f8	0.025982842
108	0xbda7e7a7	-0.08198481
109	0xbdbc556e	-0.09195982
110	0x3d9cb50e	0.07651721
111	0x3d8190eb	0.06326469
112	0xbcc1a481	-0.023638012
113	0xbcfa9639	-0.03058921
114	0x3d931a06	0.07182698
115	0x3d37e136	0.044892512
116	0xbbff15f1	-0.007784598
117	0xbd79262f	-0.06082743
118	0x3d78ebe2	0.06077183
119	0x3b9406b9	0.004517403
120	0x3dae5d01	0.08513833
121	0xbbb108ac	-0.005402645
122	0xbdcc15e4	-0.09965113
123	0xbd5e9bf6	-0.054347955
124	0x3d3d0f0b	0.046156924
125	0xbdb2a30a	-0.087225035
126	0x3da7d104	0.081941634
127	0x3be1ab80	0.0068868995
128	0x3d48b8d4	0.04900439
129	0xbdc82c5c	-0.09774086
130	0x3d7a4a29	0.06110588
131	0x3d9790d7	0.07400673
132	0xbbf0ea84	-0.007352175
133	0xbca1389b	-0.019680312
134	0xbd2744e2	-0.040837176
135	0xbda8e108	-0.08246046
136	0x3cf1702f	0.029472439
137	0xbd1ceb89	-0.03831056
138	0x3d6d9c3d	0.05801033
139	0xbdcf1eab	-0.10113271
140	0x3d2a3589	0.04155496
141	0x3d1d37e6	0.038383387
142	0xbdd4a14e	-0.10382329
143	0x3d4904a4	0.04907669
144	0xbcc67a8a	-0.024228353
145	0xbd68173f	-0.056662794
146	0xbccfc9e9	-0.025364833
147	0xbda8386b	-0.08213886
148	0x3ab9b7c8	0.0014169151
149	0x3d64cc77	0.055859055
150	0x3d1646e4	0.0366887
151	0xbd047d7d	-0.032346237
152	0xbdbb09d1	-0.09132732
153	0x3cf76870	0.030201167
154	0x3cc2137f	0.023690937
155	0x3d0091e6	0.03138914
156	0x3d846bb9	0.06465859
157	0xbd8aa39e	-0.06769489
158	0x3cf3982d	0.029735649
159	0xbc8aed92	-0.016958985
160	0x3d994a06	0.07484822
161	0x3d4f196c	0.050561354
162	0x3bdd0852	0.0067453766
163	0xbdcb6198	-0.09930724
164	0x3dbd5b42	0.09245922
165	0x3a10a25d	0.0005517358
166	0xbd836dd2	-0.06417431
167	0xbd831ac3	-0.06401589
168	0xbd876a7f	-0.066121094
169	0xbdbe1524	-0.09281376
170	0x3d4e911f	0.050431367
171	0xbd90fc8a	-0.07079418
172	0xbd618cf2	-0.055066057
173	0xbdc6a3b8	-0.096991956
174	0x3d4bbb76	0.049739324
175	0xbd694740	-0.056952715
176	0x3d41b353	0.047290158
177	0xbda8a0fc	-0.0823383
178	0xbbfaf950	-0.007659115
179	0x3d8d3555	0.06894938
180	0x3d9fac06	0.07796483
181	0x3c06ef7c	0.008235808
182	0x3da5ca2d	0.080952026
183	0x3d55acee	0.05216687
184	0x3d118300	0.035525322
185	0xbb316072	-0.0027065543
186	0xbdbc4c75	-0.091942705
187	0xbd5dc261	-0.054140452
188	0xbb9a5cac	-0.0047107544
189	0x3d88b350	0.06674826
190	0x3c07da90	0.008291855
191	0x3d7064a4	0.05868973
192	0xbd8f5320	-0.06998277
193	0x3daee487	0.08539682
194	0x3d918758	0.07105893
195	0xbd252bcb	-0.040324967
196	0xbcf93fc1	-0.030425908
197	0xbd99167f	-0.07474994
198	0x3d86489a	0.065568164
199	0x3d8b3a5c	0.067982405
200	0xbdd78cd7	-0.1052491
201	0xbdc4fb56	-0.09618251
202	0xbc8e623e	-0.01738083
203	0xbd409154	-0.047013596
204	0xbc1b82cf	-0.009491636
205	0xbc4164b1	-0.011803792
206	0xbc1a256a	-0.009408334
207	0x3d105c18	0.035244077
208	0xbdb78c43	-0.089623
209	0x3d85267d	0.06501482
210	0xbd89dafc	-0.06731221
211	0xbda94606	-0.08265309
212	0x3b396935	0.0028291468
213	0xbda7b1d6	-0.081882164
214	0x3d91090a	0.07081802
215	0x3da8bb35	0.08238832
216	0xbc4cf6cb	-0.012510012
217	0x3c3c92a9	0.011509576
218	0x3da2600d	0.079284765
219	0xbc22b46f	-0.009930714
220	0x3d3766d7	0.04477581
221	0xbc5a502a	-0.013324777
222	0xbd687d25	-0.056759972
223	0x3d8bb211	0.06821073
224	0xbc86e7c4	-0.016467936
225	0xbdac827c	-0.084233254
226	0x3d21b904	0.039483085
227	0x3d44e16c	0.04806654
228	0xbbc67347	-0.0060562226
229	0x3bcd40a7	0.0062638107
230	0x3dda6bbf	0.10665082
231	0x3b4304e9	0.0029757565
232	0x3db26fc4	0.08712724
233	0xbd5a32a4	-0.05327095
234	0xbd5e27df	-0.054237243
235	0x3da0472f	0.07826077
236	0x3dac101d	0.08401511
237	0x3dc9ee92	0.09859957
238	0xbdc14f37	-0.09438937
239	0xbd4e4191	-0.050355498
240	0x3d6373f8	0.05553052
241	0x3c128305	0.00894237
242	0xbcbc3908	-0.022976413
243	0xbdb86a3f	-0.0900464
244	0xbdc8c416	-0.098030254
245	0x3d2c1d14	0.04201992
246	0x3abbdd10	0.001433285
247	0x3d57c99d	0.052682508
248	0xbd8fb932	-0.07017745
249	0x3d605196	0.054765306
250	0xbd1f0c0a	-0.03882984
251	0xbd5320b1	-0.05154485
252	0x3da88aa7	0.08229571
253	0xbdaf34d5	-0.08554999
254	0x3d200891	0.03907067
255	0xbd2cf76a	-0.04222814
