Phrases Recog Model/gesture_model_final.tflite (tflite, 294632 bytes, 15 tensors)

arith.constant11 f4 [32]
000000 8a 5c 66 3a de c4 86 bc 1c 72 1a bc f5 70 8c 3c
       0.0008787593 -0.016451295 -0.00942662 0.017143706
000010 79 1b 72 3c fc d9 4d bc e8 68 43 bc 82 5d d4 b9
       0.014777058 -0.012564179 -0.011926867 -0.0004050546
000020 41 8b 22 bc bd 03 e2 ba 3b 94 fd 3b c6 47 2d bc
       -0.009920896 -0.0017243546 0.0077386177 -0.010576194
000030 19 3e 9b 3b 03 21 9c 3a d9 c0 25 bb b6 14 cb 3b
       0.004737627 0.0011911694 -0.0025291948 0.0061975373
000040 62 3a 95 3b 85 77 ad bb 65 f9 1a bb 55 81 41 bc
       0.004554079 -0.005293789 -0.0023647186 -0.01181062
000050 72 5f 92 3c 30 03 5f bc f7 1f 87 bc 1c e0 27 3b
       0.017867777 -0.0136116 -0.016494734 0.0025615757
000060 a3 b4 4c 3c 5a a3 98 3c cd 76 77 bc f2 e8 1e 3c
       0.012494239 0.01863258 -0.015104008 0.009699093
000070 2d 1e b9 3b 4e 70 fc bb ae 84 1e 3b 00 f7 72 3b
       0.005649349 -0.0077038174 0.002418797 0.0037073493

arith.constant12 f4 [64]
000000 af 66 58 3c c2 aa ab bb 25 6e 10 bc 60 bd 36 bc
       0.013208075 -0.005238862 -0.008815323 -0.011153549
000010 c1 af 19 bc d4 0d a7 ba 74 a3 57 bc 03 2d 49 3b
       -0.009380282 -0.001274521 -0.013161529 0.0030696995
000020 a4 d5 ec 3b 91 44 17 bb bf 3c 11 3b 49 87 50 bb
       0.0072276164 -0.002308164 0.0022161452 -0.0031818917
000030 b0 20 4f 3b ba 33 6a 3c 64 23 9f bb 44 0b f5 3b
       0.0031605177 0.014294559 -0.004856514 0.0074781496
000040 86 27 e0 3b 6b ed fe 39 16 82 66 3c d7 72 0e 3b
       0.006840649 0.00048623545 0.014069101 0.002173593
000050 2d f4 17 bc 4d 34 e2 ba b1 9d 6f bb 86 cf ea ba
       -0.009274525 -0.0017258018 -0.0036562497 -0.001791463
000060 57 0e cb bb 9f 36 a2 bb 47 99 00 bc 6d f6 24 3c
       -0.006196778 -0.004950359 -0.007849044 0.010068518
000070 51 25 0c bb 22 85 0b bc 0a 38 09 bc 81 f3 42 bc
       -0.0021384547 -0.008515628 -0.008375177 -0.011898876
000080 b1 0d 11 bc 76 17 d2 ba 17 5f 11 bc 53 cd ae 3c
       -0.008853362 -0.001602872 -0.008872769 0.02133814
000090 82 08 de 3b 9b 44 ed 39 00 0c 55 ba 7b 69 79 bb
       0.0067759166 0.00045255278 -0.00081270933 -0.0038057256
0000a0 ad 1e 6e 3b 18 88 1b bc d1 04 2d bc 34 eb ea ba
       0.0036334202 -0.0094928965 -0.01056023 -0.0017922879
0000b0 3b 82 00 bc f3 66 45 3c b5 88 a9 3b 7b e6 fd 3b
       -0.007843549 0.012048471 0.0051737675 0.0077484227
0000c0 d2 7b cb bb df 0d e5 bb 32 21 14 bc 01 51 b4 bb
       -0.006209829 -0.006990179 -0.0090411175 -0.0055028205
0000d0 b9 d2 5d bb 96 7b a1 b9 15 22 ce 3b d9 f8 25 3c
       -0.0033847524 -0.00030800392 0.006290684 0.010130131
0000e0 e3 08 55 3c 56 aa fa 3b 34 42 e5 bb e3 8e 04 3c
       0.013002607 0.0076497 -0.0069964174 0.0080907075
0000f0 f6 1e 75 3a ee b5 98 bb 02 fa a6 bc d9 0f 4d bb
       0.0009350622 -0.0046603596 -0.020382885 -0.0031289964

arith.constant13 f4 [4]
000000 f2 f0 9b bb 66 cb 78 3c c8 04 2f 3c 2d 8b 4c bc
       -0.0047589475 0.015185213 0.010682292 -0.012484354

arith.constant17 f4 [4, 32]
000000 0c 1a 2f 3b 20 9b 75 bd dd 11 ae 3d 7a a6 4a bd
       0.0026718406 -0.05996239 0.08499501 -0.04947517
000010 f7 e3 20 be 84 b6 f1 3d 5e 9e a5 bd d7 dc af be
       -0.15711962 0.1180239 -0.08086847 -0.34348175
000020 79 c7 8d 3e cf 20 58 3e 5a 55 72 be e2 33 83 be
       0.27691248 0.21106265 -0.23665372 -0.2562552
000030 a3 e8 e6 bd 79 ab 22 3e 28 c5 ca 3e 29 67 e5 3d
       -0.11274841 0.15885724 0.39603543 0.11201317
000040 df 54 2f be a2 27 ff 3d 8b 4b 16 be 5c de 8f 3e
       -0.1712222 0.12458731 -0.14677255 0.28099334
000050 4a 8c 7a be af 4b a9 3d 2f 02 39 be 92 e0 60 bc
       -0.24467579 0.082663886 -0.18067239 -0.013725417
000060 7f 5c 00 3e 68 85 0b be c2 fb 4b be b3 be ca 3e
       0.12535284 -0.13625109 -0.19920257 0.39598617
000070 08 c2 a9 be 4f 45 54 bd 2d 1e 2a 3e 96 92 83 be
       -0.33155847 -0.05182391 0.16613074 -0.25697774
000080 fd ef 23 3d 3b 56 b7 3e 83 45 ce be da 11 51 3e
       0.040023793 0.35807976 -0.40287408 0.20416966
000090 b9 4a dc ba 1c 8b a5 be f7 30 6c bd a1 8f 11 3e
       -0.0016806937 -0.32332695 -0.057663884 0.14214946
0000a0 91 d5 6a 3d c4 cb 34 be 5a fc c9 3d f4 65 b8 be
       0.05733258 -0.17655855 0.09862585 -0.36015284
0000b0 cd 13 df bb 34 e6 c6 3d 0a fc 73 3d 28 a1 6c be
       -0.0068077804 0.097118765 0.059566535 -0.23108351
0000c0 eb 01 95 3e bd fb 55 be ce 02 57 bd 76 ae 81 3e
       0.29103026 -0.20896812 -0.05249291 0.25328416
0000d0 28 70 0a be bd c5 5c bd 1e 1c aa be b2 7b 91 be
       -0.13519347 -0.053899515 -0.33224577 -0.28414685
0000e0 75 5f be 3e 26 53 89 3e 22 33 2b be 3f b6 9f 3e
       0.37182203 0.2682125 -0.16718724 0.3119373
0000f0 dd 01 19 be 62 a0 c0 bd b6 ed 1d be bb 33 4d 3e
       -0.14942117 -0.094055906 -0.15422711 0.20039265
000100 61 33 89 bd 9d 49 61 be 0b 02 89 3e 9e 0c 4d 3d
       -0.06699253 -0.22000737 0.2675937 0.05006086
000110 8f 1b 9a 3e 80 92 08 be 25 88 8d bd 9d 75 3b be
       0.3009915 -0.13337135 -0.06910733 -0.18306585
000120 72 b8 0f be 90 a8 74 3e b2 25 87 bd 26 0a 16 3e
       -0.14035204 0.23892426 -0.06598987 0.14652309
000130 70 f6 c6 be 86 1d b1 3e 10 f5 8a 3e e1 40 e2 3d
       -0.38859892 0.34592837 0.27140093 0.11047531
000140 34 44 ac bc e0 49 ae be 4e 20 8b 3d 17 49 d0 bd
       -0.021028616 -0.34040737 0.06793271 -0.10170191
000150 0c 82 c9 3e f9 09 c1 be 6e 51 0d be 22 c4 a0 3e
       0.3935703 -0.3770292 -0.13800594 0.31399637
000160 55 29 a8 be d9 09 98 3d c7 d7 ca be 6d aa 82 be
       -0.32844034 0.07423753 -0.3961775 -0.2552065
000170 20 1c 1d 3e f2 fa df bd e3 90 b2 3b a5 fe 89 bd
       0.1534276 -0.10936536 0.0054494007 -0.06738023
000180 f3 38 2b 3e 90 ec 61 3e a0 23 f7 3d 15 f0 bd be
       0.16720943 0.22062898 0.12067342 -0.3709723
000190 1f 3f a5 bd 45 6b 8f 3d 8e 39 b6 3e aa cd 52 3e
       -0.0806868 0.07002882 0.35590786 0.20586267
0001a0 be ab 8f bc 31 6f 9e 3e 49 33 97 be 3a f7 aa 3e
       -0.017537948 0.30944207 -0.29531315 0.33391744
0001b0 c5 c8 77 3e 92 48 b2 be fd 48 53 3e a2 b6 6e be
       0.24197681 -0.34820992 0.20633312 -0.23311856
0001c0 8c e5 b9 be 56 98 8d be fd 18 cc 3e f2 33 ba 3e
       -0.36307943 -0.27655286 0.39862815 0.36367756
0001d0 63 c6 b2 be e2 62 f7 bc c4 af 64 3d 98 5b d4 bd
       -0.34916982 -0.030198518 0.055831686 -0.103690326
0001e0 d6 5c a4 be 61 61 c2 be 21 3c 41 3e 09 09 b4 be
       -0.32102078 -0.3796492 0.18870594 -0.35163143
0001f0 70 f8 26 3d 64 42 c8 3e 0f de b3 be b6 19 55 3e
       0.040764272 0.39113152 -0.35130355 0.20810589

tfl.pseudo_qconst i1 [32, 64]
000000 93 db f5 34 00 23 41 77 92 6a bd bf 2d 59 58 fc
       -109 -37 -11 52 0 35 65 119 -110 106 -67 -65 45 89 88 -4
000010 c7 b9 ea 63 6b 3e b5 7f d7 65 a9 c8 15 42 8a b5
       -57 -71 -22 99 107 62 -75 127 -41 101 -87 -56 21 66 -118 -75
000020 94 6d f7 fe 70 fe 96 d4 f5 2c fb 58 ba 41 d7 09
       -108 109 -9 -2 112 -2 -106 -44 -11 44 -5 88 -70 65 -41 9
000030 fe ca 64 8b 1a e8 9e 39 08 63 cc ac ee e7 4e 08
       -2 -54 100 -117 26 -24 -98 57 8 99 -52 -84 -18 -25 78 8
000040 0a 4d 8c a7 97 71 73 0e e2 37 46 0b c4 16 a2 51
       10 77 -116 -89 -105 113 115 14 -30 55 70 11 -60 22 -94 81
000050 29 d0 8d 45 ef 26 89 0b 6d b7 1c 9f e0 14 0d 99
       41 -48 -115 69 -17 38 -119 11 109 -73 28 -97 -32 20 13 -103
000060 40 6d 6a 92 81 13 0b 2b d3 79 f3 60 e8 ad 9a ac
       64 109 106 -110 -127 19 11 43 -45 121 -13 96 -24 -83 -102 -84
000070 1c 6d 7c 3e 17 fb be 9b 15 a7 fe 81 a1 eb 26 10
       28 109 124 62 23 -5 -66 -101 21 -89 -2 -127 -95 -21 38 16
000080 0c f0 5b 74 56 6b f6 c8 9f 73 f3 4d 4e a3 42 f9
       12 -16 91 116 86 107 -10 -56 -97 115 -13 77 78 -93 66 -7
000090 5b 3e 96 9d 6f d7 ef 31 52 0e 0b 77 1a 7f 41 a5
       91 62 -106 -99 111 -41 -17 49 82 14 11 119 26 127 65 -91
0000a0 99 db 44 7d 53 11 e9 e2 26 6e ac c7 15 81 d3 b4
       -103 -37 68 125 83 17 -23 -30 38 110 -84 -57 21 -127 -45 -76
0000b0 32 a4 22 16 8e d6 2d d1 38 01 22 98 fd 63 e7 4c
       50 -92 34 22 -114 -42 45 -47 56 1 34 -104 -3 99 -25 76
0000c0 58 95 93 4b 01 4a 0e 58 a0 c6 3c 91 5a 42 8b ed
       88 -107 -109 75 1 74 14 88 -96 -58 60 -111 90 66 -117 -19
0000d0 fd 90 4a f7 89 a6 70 e4 e4 03 af 52 b4 14 53 b5
       -3 -112 74 -9 -119 -90 112 -28 -28 3 -81 82 -76 20 83 -75
0000e0 3d 09 d8 e7 3d 60 7f 8e ae 0a a9 45 f2 36 6f 66
       61 9 -40 -25 61 96 127 -114 -82 10 -87 69 -14 54 111 102
0000f0 11 cc cb 17 a0 ee 0c ce 70 9e 16 1c 49 af d4 03
       17 -52 -53 23 -96 -18 12 -50 112 -98 22 28 73 -81 -44 3

tfl.pseudo_qconst1 i1 [64, 64]
000000 e0 97 e7 1c e4 9e 93 7d 63 83 35 f9 35 47 37 57
       -32 -105 -25 28 -28 -98 -109 125 99 -125 53 -7 53 71 55 87
000010 57 40 73 5a 3b 58 b2 9f d5 ae f6 7f bf 77 49 32
       87 64 115 90 59 88 -78 -97 -43 -82 -10 127 -65 119 73 50
000020 f8 73 5f d8 92 e1 64 ea 53 19 a5 de fd 38 ca ce
       -8 115 95 -40 -110 -31 100 -22 83 25 -91 -34 -3 56 -54 -50
000030 ad 81 66 f9 6d a5 ff e9 74 fe 9b ec 61 e7 bf 7e
       -83 -127 102 -7 109 -91 -1 -23 116 -2 -101 -20 97 -25 -65 126
000040 7f f9 b1 55 41 b7 4b 39 08 44 9c b5 e0 a2 e7 0f
       127 -7 -79 85 65 -73 75 57 8 68 -100 -75 -32 -94 -25 15
000050 d3 8f 40 75 bd bd 98 8c a6 9e 12 ab 0e ea 75 78
       -45 -113 64 117 -67 -67 -104 -116 -90 -98 18 -85 14 -22 117 120
000060 04 8e 93 65 26 93 f2 70 21 2a bb 15 0c 8f 65 af
       4 -114 -109 101 38 -109 -14 112 33 42 -69 21 12 -113 101 -81
000070 4e 89 c8 64 4d e4 9d d9 6d 3d e8 29 fd 92 22 a8
       78 -119 -56 100 77 -28 -99 -39 109 61 -24 41 -3 -110 34 -88
000080 b0 9a a6 04 6a 8d 5d ba c8 5b 58 70 46 50 a2 3a
       -80 -102 -90 4 106 -115 93 -70 -56 91 88 112 70 80 -94 58
000090 13 e9 5f 4b 7d b3 20 c5 12 40 fa 6d 6c 36 3d 37
       19 -23 95 75 125 -77 32 -59 18 64 -6 109 108 54 61 55
0000a0 25 8d e8 db c0 40 be 33 69 13 c6 93 27 c8 b6 9a
       37 -115 -24 -37 -64 64 -66 51 105 19 -58 -109 39 -56 -74 -102
0000b0 ed 44 e9 ae 7b 87 50 5f bb 7f 2b d0 ba cd 14 03
       -19 68 -23 -82 123 -121 80 95 -69 127 43 -48 -70 -51 20 3
0000c0 eb b0 c5 9c a5 fb 90 a5 e9 66 e0 1c b5 c8 75 1d
       -21 -80 -59 -100 -91 -5 -112 -91 -23 102 -32 28 -75 -56 117 29
0000d0 a9 d7 e3 39 ff c6 ad 2a 43 58 3e 20 dc 84 85 55
       -87 -41 -29 57 -1 -58 -83 42 67 88 62 32 -36 -124 -123 85
0000e0 8e 18 9e 09 ed d1 4f b7 cd 0c 46 60 de 51 30 64
       -114 24 -98 9 -19 -47 79 -73 -51 12 70 96 -34 81 48 100
0000f0 00 c4 e3 ac 81 07 b5 53 50 c9 aa 60 0b e9 39 5c
       0 -60 -29 -84 -127 7 -75 83 80 -55 -86 96 11 -23 57 92

arith.constant20 f4 [256]
000000 63 ce 88 bb 12 13 c2 3b 9c ea 0f bc 22 d1 7e bb
       -0.004174994 0.0059226835 -0.008783963 -0.0038881977
000010 33 91 14 bc 83 c7 c0 3b 09 cc 59 ba 77 80 d0 ba
       -0.009067821 0.0058831587 -0.00083082967 -0.0015907426
000020 e6 8b 06 bc ba 85 9c 3b cb 2c 8c 3b fc 7d f7 bb
       -0.008212065 0.0047766836 0.0042778007 -0.0075528603
000030 fe f6 ae 3a d5 5f 92 ba 31 7b d6 bb dc a0 89 ba
       0.0013348756 -0.0011167476 -0.0065454473 -0.001050021
000040 47 4e f6 3a 6a 27 f1 3a 77 7a 6a 3a 6a f6 c6 3b
       0.0018791639 0.0018398587 0.000894464 0.0060718553
000050 42 f8 84 b9 3c 04 b0 3b f0 20 54 3b c4 10 5c 38
       -0.00025361968 0.0053715985 0.0032368265 5.24677e-05
000060 00 00 00 00 e8 af 9c 3b b7 b6 55 b9 26 ab 5b bb
       0.0 0.004781712 -0.0002038133 -0.003351876
000070 8e b0 8f b9 8f ed 9b 3b 0f a8 30 bb d8 d4 28 36
       -0.0002740663 0.004758544 -0.002695564 2.5157842e-06
000080 00 00 00 00 25 cd 7b bb 53 9e ed bb 00 00 00 00
       0.0 -0.0038421836 -0.0072515397 0.0
000090 c5 41 43 bb 62 fe 80 3a 56 7b 91 3a 07 ef 20 bc
       -0.002979384 0.0009841437 0.0011099379 -0.009822614
0000a0 a6 af 48 3a 13 fe 38 bb 26 21 47 3b a9 ed 05 3b
       0.0007655568 -0.0028227612 0.0030384748 0.0020435846
0000b0 31 65 92 bb fa 05 04 3b 86 02 0d bb e2 2b ee bb
       -0.0044676294 0.0020145164 -0.0021516397 -0.007268415
0000c0 35 d0 69 bb c5 62 cd 3b 20 4d 72 bb 6f 3d bb 3a
       -0.003567708 0.0062678778 -0.003697224 0.0014285276
0000d0 3e 13 3b 3b 0c 3c 47 3b 28 4d a3 bb e8 1e 5a 3b
       0.0028545405 0.003040078 -0.004983563 0.0033282582
0000e0 f2 86 31 bb f3 9c 28 3a ca a8 ec 3a f3 17 52 3a
       -0.002708849 0.00064320787 0.0018055674 0.0008014433
0000f0 a2 09 d4 ba 44 3d 60 3b af 93 cb ba 77 67 4c 3b
       -0.0016177187 0.0034216205 -0.0015531684 0.00311896
000100 c7 98 7e 3f 49 bf 80 3f e2 15 7e 3f ad 1b 7f 3f
       0.9945187 1.0058376 0.9925214 0.99651605
000110 06 d8 7d 3f d9 ca 80 3f f4 d0 7f 3f 88 d4 7f 3f
       0.9915775 1.0061904 0.9992821 0.9993367
000120 fe c5 7d 3f be 6f 80 3f 52 57 80 3f ca 0d 7e 3f
       0.9913024 1.0034101 1.0026648 0.9923979
000130 c9 25 80 3f 15 62 7f 3f 32 4a 7e 3f 0c e0 7e 3f
       1.0011531 0.99759036 0.99331963 0.9956062
000140 71 54 80 3f b4 5b 80 3f 10 9a 7e 3f 2b e5 80 3f
       1.002577 1.0027986 0.9945383 1.0069937
000150 6a 85 7f 3f e4 e3 80 3f da 97 7f 3f 9c dc 7f 3f
       0.9981295 1.0069547 0.9984108 0.99946
000160 00 00 80 3f 28 54 80 3f 53 2a 80 3f d7 b4 7f 3f
       1.0 1.0025682 1.0012916 0.99885315
000170 ae 96 7f 3f 13 aa 80 3f d5 93 7f 3f 00 00 80 3f
       0.99839294 1.0051903 0.9983495 1.0
000180 00 00 80 3f 60 4e 7f 3f d7 64 7e 3f 00 00 80 3f
       1.0 0.99728966 0.9937262 1.0
000190 57 22 7f 3f bd 61 80 3f 80 dc 7f 3f 55 62 7d 3f
       0.99661773 1.0029827 0.9994583 0.9897817
0001a0 29 5e 7f 3f 1e 4b 7f 3f b8 d6 80 3f 8f 4c 80 3f
       0.9975305 0.99723995 1.0065527 1.0023364
0001b0 cd d2 7e 3f d7 f7 7f 3f f9 99 7f 3f 34 44 7e 3f
       0.99540406 0.9998755 0.9984432 0.9932282
0001c0 b4 e6 7e 3f 5f 0e 81 3f 1b 11 7e 3f ef 7e 7f 3f
       0.99570775 1.0082511 0.9924485 0.9980306
0001d0 1c 7a 80 3f 86 36 80 3f b9 cf 7e 3f 3c 7a 7f 3f
       1.0037265 1.0016639 0.9953571 0.9979589
0001e0 f8 5d 7f 3f 3b 15 80 3f 30 20 80 3f ff ae 80 3f
       0.9975276 1.0006479 1.0009823 1.0053405
0001f0 63 cd 7f 3f e2 43 80 3f f2 6a 7f 3f a4 55 80 3f
       0.9992277 1.0020716 0.9977256 1.0026135
000200 53 d8 a8 bb 38 88 69 bb 57 4d 07 bc 4a 3d be bb
       -0.005152741 -0.0035634171 -0.008258185 -0.005805646
000210 e2 06 c8 bb aa f5 ca 3a 62 47 8f ba 32 59 e9 bb
       -0.006104336 0.001548459 -0.0010931308 -0.0071212286
000220 bb c8 01 bc 53 4e 5d 3b 40 40 0a 3a 5f 39 bd bb
       -0.007921393 0.0033768609 0.0005273856 -0.0057746614
000230 95 23 82 38 b1 fd ba bb fe c0 d2 bb de 8c fb ba
       6.205511e-05 -0.005706512 -0.006431698 -0.0019191762
000240 99 38 f5 b9 5b 4d ab 3a 8e 9c 84 bb 2f ce 9b 3b
       -0.0004677221 0.0013069318 -0.004046983 0.0047548036
000250 b6 cb 7c 3a c8 47 75 3b ab 8d aa ba ef 69 6f b9
       0.00096433924 0.0037426818 -0.0013012191 -0.0002283228
000260 00 00 00 00 c2 b4 49 ba bc e8 57 ba f9 76 fd ba
       0.0 -0.00076944765 -0.0008236279 -0.0019337825
000270 17 e5 fa ba ad 8b be 3a 36 4c bf 39 f5 3a c6 39
       -0.001914176 0.0014537476 0.0003648714 0.0003780943
000280 00 00 00 00 8a c9 bd bb 57 99 4e bc 00 00 00 00
       0.0 -0.0057918476 -0.012609801 0.0
000290 fc 8c 35 bb 12 92 1f 3a e0 70 56 3b e7 d6 0c bc
       -0.0027702441 0.0006087135 0.0032721087 -0.008596159
0002a0 6a 64 5d bb 41 aa 2d bb 6c a8 0e b9 2c f7 22 3b
       -0.0033781775 -0.0026499184 -0.00013604917 0.0024866564
0002b0 97 d5 8f bb 1c 39 86 bb 73 46 9e bb 5b c2 d1 bb
       -0.0043894756 -0.0040961634 -0.0048301755 -0.006401343
0002c0 69 79 f5 b8 58 90 3c 3b b4 0e 90 bb d8 29 94 38
       -0.00011705125 0.002877256 -0.004396284 7.064984e-05
0002d0 8e 88 8b b9 c8 73 f4 3a 1f ac e3 bb fd 80 7d 3b
       -0.00026613887 0.0018650228 -0.0069480087 0.003868162
0002e0 ac db 4b bb 1d 1f f9 b7 36 d9 2f 3b 9d 8b 35 3b
       -0.0031106276 -2.9697601e-05 0.0026832349 0.0027701624
0002f0 f0 8a 2e ba ef d7 4a 3a ba 35 96 ba 82 ed 5a bb
       -0.00066582765 0.0007737865 -0.0011460104 -0.0033405726
000300 42 69 88 bb 71 21 be 3b 40 32 e4 bb 21 be c0 bb
       -0.0041629383 0.0058023264 -0.006963998 -0.00588204
000310 d0 bf f3 bb 87 6a a2 3b 7c af 9f ba e0 0f 61 bb
       -0.0074386373 0.0049565467 -0.0012183036 -0.0034341738
000320 46 e7 f9 bb f0 3e a5 3b f4 0a d0 3a 4c 41 f7 bb
       -0.007626447 0.005042903 0.0015872405 -0.007545626
000330 5a c5 c2 3a 00 0b a4 ba 6f 47 dc bb 38 3c 1a bb
       0.0014859841 -0.0012515485 -0.0067223827 -0.0023534428
000340 cf 5c be 3b 01 5d aa 3b 2d ca 59 ba 1f 0e c9 3b
       0.0058094035 0.005199075 -0.00083080196 0.0061357166
000350 de 4c ec b9 ef cc c3 3b d0 99 21 3b 71 ed 50 ba
       -0.00045070698 0.0059753577 0.002465833 -0.0007969952
000360 00 00 00 00 7a c4 83 3b a7 c5 56 ba cd b2 45 bb
       0.0 0.0040212246 -0.00081929046 -0.0030166388
000370 76 8a 31 38 ef 70 9b 3b 61 b0 7a bb e0 4e d4 35
       4.232904e-05 0.0047436873 -0.0038252103 1.5818187e-06
000380 00 00 00 00 75 9a 65 bb 6c 30 f0 bb 00 00 00 00
       0.0 -0.003503469 -0.007329991 0.0
000390 7c 9d 4b bb 4b 4e 6a 3a b4 93 95 3a a8 c7 23 bc
       -0.003106921 0.0008938058 0.0011411817 -0.009996332
0003a0 64 c1 ff b8 b5 69 79 bb b1 30 86 3a 17 9e 3b 3b
       -0.00012195369 -0.003805739 0.00102379 0.0028628164
0003b0 f8 db 91 bb 8f 46 12 3b 10 b5 41 bb f2 8f e3 bb
       -0.004451271 0.0022319888 -0.0029557385 -0.00694465
0003c0 b3 8c 81 bb 34 8b e0 3b bf b9 d2 bb b8 e1 8e 3a
       -0.00395354 0.006852532 -0.006430834 0.001090101
0003d0 0f af 4e 3b 40 5f 8b 3b ee 90 a0 bb c8 43 2a b7
       0.0031537449 0.004253298 -0.0049000895 -1.0148571e-05
0003e0 c7 cd 3b bb 9c 88 62 39 84 96 2b 3b fd 7b 98 3a
       -0.0028656588 0.0002160393 0.0026182244 0.0011633631
0003f0 ce eb a1 ba 98 4b 01 bb 67 3f 03 bb 17 ca 3a 3b
       -0.00123536 -0.0019728895 -0.0020026804 0.0028501803

tfl.pseudo_qconst2 i1 [256, 258]
000000 cb 58 30 c7 e9 06 68 2b 69 e5 1c 38 d5 a6 4a 13
       -53 88 48 -57 -23 6 104 43 105 -27 28 56 -43 -90 74 19
000010 e6 42 c5 42 19 59 b8 ec 16 46 c4 d4 d4 fd 8b f0
       -26 66 -59 66 25 89 -72 -20 22 70 -60 -44 -44 -3 -117 -16
000020 a8 4d 0e b5 d9 e7 61 f3 34 66 b7 89 f2 35 bc f3
       -88 77 14 -75 -39 -25 97 -13 52 102 -73 -119 -14 53 -68 -13
000030 97 4a 4f e4 8d 64 a3 92 b4 1a 5e dc 74 39 ec 67
       -105 74 79 -28 -115 100 -93 -110 -76 26 94 -36 116 57 -20 103
000040 f0 ab 2a 00 45 03 77 31 6c bf c1 5a 98 e0 70 31
       -16 -85 42 0 69 3 119 49 108 -65 -63 90 -104 -32 112 49
000050 bb b4 b9 0e 2e fe c4 01 bf 45 26 2c 89 9d 27 a9
       -69 -76 -71 14 46 -2 -60 1 -65 69 38 44 -119 -99 39 -87
000060 d4 b2 4c 05 53 1d 8c 29 16 4e 59 71 39 3f f4 68
       -44 -78 76 5 83 29 -116 41 22 78 89 113 57 63 -12 104
000070 d1 8f a8 c5 57 8b d1 24 61 21 b9 36 cd 2b 56 3a
       -47 -113 -88 -59 87 -117 -47 36 97 33 -71 54 -51 43 86 58
000080 a6 69 9e 65 ec 06 8d 1a e5 22 1d 9c 8b 81 12 e0
       -90 105 -98 101 -20 6 -115 26 -27 34 29 -100 -117 -127 18 -32
000090 c8 49 37 27 b5 99 dc 14 07 eb 45 eb d9 fb c0 ac
       -56 73 55 39 -75 -103 -36 20 7 -21 69 -21 -39 -5 -64 -84
0000a0 fe 7b e9 27 0b 12 5e 9a 74 ab b2 af 38 ea 15 94
       -2 123 -23 39 11 18 94 -102 116 -85 -78 -81 56 -22 21 -108
0000b0 c8 2a 08 36 fe e0 69 b8 37 eb 4f 32 a2 72 db f4
       -56 42 8 54 -2 -32 105 -72 55 -21 79 50 -94 114 -37 -12
0000c0 22 d9 de 67 46 67 a8 9d b8 95 5a d3 ca 5c b2 a7
       34 -39 -34 103 70 103 -88 -99 -72 -107 90 -45 -54 92 -78 -89
0000d0 79 3a c6 5c e7 37 a5 ae 46 3a 26 74 1a 1d e4 a3
       121 58 -58 92 -25 55 -91 -82 70 58 38 116 26 29 -28 -93
0000e0 d2 c4 41 8e d7 28 40 00 25 1a 72 d5 d0 f1 2e 06
       -46 -60 65 -114 -41 40 64 0 37 26 114 -43 -48 -15 46 6
0000f0 a0 fb b5 9c 2a a7 da 20 4a 7a ba f8 eb ab f8 d3
       -96 -5 -75 -100 42 -89 -38 32 74 122 -70 -8 -21 -85 -8 -45

tfl.pseudo_qconst3 i1 [256, 64]
000000 c0 05 f8 34 e5 e1 34 d9 ed 1d cf ff 11 dd 20 11
       -64 5 -8 52 -27 -31 52 -39 -19 29 -49 -1 17 -35 32 17
000010 27 3a dd 18 fe 40 c8 ec bb 0e f0 3f e2 7f e0 2d
       39 58 -35 24 -2 64 -56 -20 -69 14 -16 63 -30 127 -32 45
000020 dd d4 a0 00 c8 1e 1f ed 0d e2 d5 3b da f6 1b d6
       -35 -44 -96 0 -56 30 31 -19 13 -30 -43 59 -38 -10 27 -42
000030 00 e5 c2 f5 0c 9f eb 22 da db fb e9 b9 e5 b8 44
       0 -27 -62 -11 12 -97 -21 34 -38 -37 -5 -23 -71 -27 -72 68
000040 fe d6 ed 20 12 04 fc fa 04 22 f7 d7 ef f4 04 18
       -2 -42 -19 32 18 4 -4 -6 4 34 -9 -41 -17 -12 4 24
000050 2c 26 08 f2 fa 27 26 f3 25 0b 1e dd f6 f5 0a 02
       44 38 8 -14 -6 39 38 -13 37 11 30 -35 -10 -11 10 2
000060 21 f8 21 7f ed dc 0f 33 27 12 17 0a ff d0 0e f9
       33 -8 33 127 -19 -36 15 51 39 18 23 10 -1 -48 14 -7
000070 02 11 13 f0 ea 03 f4 f0 2f 2e 03 f3 1d c5 05 f1
       2 17 19 -16 -22 3 -12 -16 47 46 3 -13 29 -59 5 -15
000080 ad 58 81 02 d3 ed fa 11 36 23 f4 24 19 fa fd e5
       -83 88 -127 2 -45 -19 -6 17 54 35 -12 36 25 -6 -3 -27
000090 29 d6 e7 fa f7 00 f1 f7 f7 3e 19 bc 1e 13 5e f2
       41 -42 -25 -6 -9 0 -15 -9 -9 62 25 -68 30 19 94 -14
0000a0 06 a7 17 e4 c0 eb 0a 22 26 25 10 01 c8 3d 04 29
       6 -89 23 -28 -64 -21 10 34 38 37 16 1 -56 61 4 41
0000b0 d8 d6 f5 b5 0b e1 f3 f5 fb 2d f8 39 0e e6 02 0b
       -40 -42 -11 -75 11 -31 -13 -11 -5 45 -8 57 14 -26 2 11
0000c0 f6 f8 eb 29 46 fc dd 23 3e 98 f8 22 a2 e5 fb 2b
       -10 -8 -21 41 70 -4 -35 35 62 -104 -8 34 -94 -27 -5 43
0000d0 44 dd fe 18 9e 1f 03 b3 9c dc 38 9f 81 e6 e5 fb
       68 -35 -2 24 -98 31 3 -77 -100 -36 56 -97 -127 -26 -27 -5
0000e0 21 cd 63 e9 f1 3c ad d5 50 19 4b ef 67 60 f8 3f
       33 -51 99 -23 -15 60 -83 -43 80 25 75 -17 103 96 -8 63
0000f0 f7 d6 08 2a ef 78 b2 26 f5 16 1d d0 e3 6d d9 d7
       -9 -42 8 42 -17 120 -78 38 -11 22 29 -48 -29 109 -39 -41

arith.constant23 f4 [512]
000000 25 e8 c4 3b 60 03 2c 38 82 13 1c bb 8f 34 1f bc
       0.006009119 4.101114e-05 -0.0023815338 -0.009717121
000010 3d 2c a1 3b 22 d6 25 3b fe 72 df bb 05 0d 1d bb
       0.0049186037 0.0025304635 -0.006819128 -0.002396406
000020 fc 31 a3 39 98 8e a2 3a e8 eb 41 39 08 c6 ac bb
       0.00031127024 0.0012402115 0.00018493796 -0.0052726306
000030 82 26 16 3a 96 74 48 3a 75 a3 15 bb 63 48 55 bc
       0.0005727784 0.0007646767 -0.0022833024 -0.013017747
000040 f7 87 eb bb 83 22 bf bb 9e 03 d8 bb 77 c9 b6 bb
       -0.007187839 -0.0058329715 -0.006592228 -0.0055782157
000050 35 ca 92 bb c5 d5 9d 39 f5 40 12 3c 65 ea d3 bb
       -0.0044796714 0.00030104644 0.00892662 -0.006467151
000060 d7 63 ce 3b 21 20 3f ba 1b 77 19 3b 44 4a c7 3b
       0.006298523 -0.00072908594 0.002341694 0.006081851
000070 8e 54 b5 bb a7 4a 03 bc c4 bb c1 3b a0 53 ce bb
       -0.0055337613 -0.008013404 0.005912276 -0.00629659
000080 a7 e7 70 3b be ca cf bb ca 77 ab ba eb 83 b0 3a
       0.003675917 -0.0063413074 -0.0013081965 0.0013467049
000090 c2 dc 2e bb 99 b4 87 b9 a9 2c c6 3b 0b b1 12 3c
       -0.0026681875 -0.00025883762 0.0060478044 0.008953343
0000a0 5f df bf bb f3 b5 06 bc fc d4 96 38 bc 54 9f ba
       -0.0058554853 -0.008222091 7.192229e-05 -0.001215599
0000b0 44 06 1e bb e4 04 05 bc 48 fd d1 bb 36 19 18 bb
       -0.0024112621 -0.008118842 -0.0064083673 -0.0023208386
0000c0 c4 3c 30 bb 89 57 04 bc 95 9a c7 bb b8 89 71 b9
       -0.0026891688 -0.008077511 -0.0060914257 -0.00023034855
0000d0 e5 a8 a9 ba 4f 39 94 38 36 dd 13 bc dc e0 43 3b
       -0.0012944011 7.0678645e-05 -0.009024909 0.0029888665
0000e0 37 18 1b bb c0 73 eb 3b ae 2d bb 3a 9b 7f d1 bb
       -0.0023665556 0.0071854293 0.0014280581 -0.0063933856
0000f0 8c cb da ba e1 13 b3 3b 09 fb 80 bb dc 86 00 3c
       -0.0016692742 0.0054650162 -0.0039361757 0.007844653
000100 e6 90 87 bc 2d 9b e5 ba a8 06 31 bb 93 dd d3 bb
       -0.016548585 -0.001751756 -0.0027012024 -0.0064656227
000110 38 25 c7 ba 34 65 51 3b 2b 7f 39 bb fc 18 c6 3b
       -0.0015193587 0.003195119 -0.0028304558 0.006045459
000120 c3 3f f7 bb 51 3e 49 bb eb ba 6f 3b 76 b6 7f b9
       -0.007545443 -0.003070731 0.0036579918 -0.00024386667
000130 6a 84 f9 3a 6d 02 9f 3b c9 26 12 3c cf 1d 16 bb
       0.0019036655 0.004852584 0.00892038 -0.002290595
000140 cc d1 18 3b 69 36 81 3b 61 53 22 3c be 48 ea bb
       0.0023318408 0.003943254 0.009907574 -0.007149785
000150 a6 99 29 3b 9c e3 60 3b 51 96 fd bb c5 e0 1b 3b
       0.0025878935 0.0034315353 -0.0077388664 0.0023785096
000160 3e 05 f2 39 88 85 d2 bb 00 f5 54 3b b4 a8 3d bb
       0.00046161743 -0.0064246096 0.0032494664 -0.0028939666
000170 56 9c ce 3b 4f fa 87 3b d9 c2 cd bb 92 99 90 3b
       0.006305258 0.004149712 -0.006279331 0.0044128383
000180 f8 e2 62 bb 3b 21 18 bc 02 b4 c1 bb 70 54 40 3b
       -0.0034620147 -0.0092852665 -0.005911351 0.0029347204
000190 24 20 7b bb d5 d7 9f 3b c4 2e ab 38 85 36 bf ba
       -0.0038318718 0.004878024 8.162626e-05 -0.0014588392
0001a0 93 b6 4a 3a 3e c0 0f bb c8 6d 1c bc be 88 cb ba
       0.0007732894 -0.0021934654 -0.009547658 -0.0015528423
0001b0 66 42 28 ba 30 ad 27 bb 07 09 c1 ba bd e9 95 bb
       -0.00064185855 -0.0025585406 -0.0014727422 -0.004574983
0001c0 5d b7 fb bb 75 53 3b bb 38 26 14 bb d4 7d d1 ba
       -0.0076817707 -0.002858368 -0.0022605788 -0.0015982934
0001d0 21 4a c6 bb d3 b2 bc 3a f5 40 ff bb 68 84 8b 3a
       -0.0060513173 0.0014396555 -0.007789726 0.0010644319
0001e0 25 8f 11 bb ad 05 42 bc 5f d0 08 bc 96 98 e5 bb
       -0.0022210565 -0.0118421735 -0.008350461 -0.007006715
0001f0 e0 ab 2c 3a 32 4e ad b9 b1 ca bf b8 45 6d a0 bb
       0.00065868907 -0.0003305539 -9.145344e-05 -0.0048958384
000200 21 fd 80 3f e1 19 80 3f 45 91 7f 3f 78 82 7d 3f
       1.0077249 1.0007898 0.9983104 0.99027205
000210 d8 b6 80 3f 74 2f 80 3f 47 34 7f 3f 10 64 7f 3f
       1.00558 1.0014482 0.99689144 0.9976206
000220 48 ec 7f 3f a9 21 80 3f d1 11 80 3f 2e 1d 7f 3f
       0.9996991 1.0010272 1.0005437 0.996539
000230 91 04 80 3f 2b 02 80 3f 65 80 7f 3f 0d b8 7c 3f
       1.0001394 1.0000662 0.9980529 0.9871834
000240 87 3d 7e 3f de d6 7e 3f 93 0b 7d 3f 84 11 7f 3f
       0.99312633 0.9954661 0.98845786 0.996361
000250 cb e0 7e 3f f6 21 80 3f 9d bf 80 3f 61 1d 7e 3f
       0.99561757 1.0010364 1.0058476 0.9926358
000260 45 43 81 3f 5a 97 7f 3f 2c 38 80 3f 29 76 80 3f
       1.0098654 0.9984032 1.0017142 1.003606
000270 81 43 7e 3f f4 f7 7d 3f 82 c4 80 3f 6e 76 7e 3f
       0.9932175 0.9920647 1.005997 0.9939946
000280 fe 58 80 3f 83 05 7e 3f 82 e8 7e 3f 5e 25 80 3f
       1.0027158 0.9922716 0.9957353 1.0011404
000290 a3 3e 7f 3f 9a bb 7f 3f 73 df 80 3f 9a 28 81 3f
       0.9970495 0.9989563 1.0068191 1.0090516
0002a0 73 79 7e 3f 49 de 7d 3f db 0c 80 3f 7c c9 7f 3f
       0.99404067 0.99167305 1.0003923 0.99916816
0002b0 0b cd 7e 3f 67 3e 7e 3f 11 49 7e 3f dd 34 80 3f
       0.9953162 0.9931397 0.9933024 1.0016133
0002c0 b0 45 7f 3f 99 18 7e 3f 71 7f 7e 3f 75 6b 80 3f
       0.9971571 0.99256283 0.9941321 1.0032793
0002d0 4e 30 80 3f 32 10 80 3f ba f3 7d 3f d5 04 80 3f
       1.0014741 1.0004942 0.9920002 1.0001475
0002e0 ae f2 7e 3f cc cd 80 3f d9 53 80 3f e2 e9 7e 3f
       0.9958905 1.0062804 1.0025588 0.99575627
0002f0 52 aa 7f 3f 87 19 80 3f 0b 7b 7e 3f 12 31 81 3f
       0.99869263 1.000779 0.994065 1.00931
000300 2d 61 7b 3f 0b a5 7f 3f 09 98 7e 3f 1e 9d 7e 3f
       0.98195153 0.9986121 0.9945074 0.9945849
000310 46 1e 80 3f 1e 1d 81 3f bc 11 7f 3f 9e 2c 81 3f
       1.0009239 1.0087011 0.99636436 1.0091741
000320 71 f3 7d 3f b3 3d 7f 3f a1 fb 7f 3f d3 0d 80 3f
       0.9919959 0.9970352 0.9999333 1.0004219
000330 f8 6f 80 3f e9 98 80 3f 11 d2 80 3f 5a 01 80 3f
       1.003417 1.0046664 1.0064107 1.0000412
000340 fc f2 7f 3f 5c 9e 80 3f 61 72 80 3f f9 4c 7e 3f
       0.9998014 1.0048327 1.0034906 0.993362
000350 b5 99 80 3f 39 83 80 3f 60 dc 7d 3f cf 60 80 3f
       1.0046908 1.0040046 0.9916439 1.0029544
000360 ac 20 7f 3f a3 34 7e 3f 93 92 80 3f e9 92 7e 3f
       0.9965923 0.9929907 1.0044731 0.9944292
000370 90 a8 80 3f 4e a4 80 3f 44 63 7e 3f 10 d4 80 3f
       1.0051441 1.0050142 0.9937022 1.0064716
000380 c7 1a 7f 3f 67 d7 7d 3f 05 82 7e 3f 0d 69 80 3f
       0.99650234 0.991568 0.99417144 1.0032059
000390 0f eb 7e 3f 3d 7c 80 3f b9 cd 7f 3f 1a 77 7f 3f
       0.9957742 1.0037915 0.9992328 0.9979111
0003a0 a4 e8 7e 3f d7 92 7f 3f 8f a4 7d 3f 4b b1 7f 3f
       0.9957373 0.99833435 0.9907922 0.998799
0003b0 a5 20 80 3f fd d7 7f 3f ca 49 7f 3f 9e f2 7d 3f
       1.0009962 0.99938947 0.9972197 0.9919833
0003c0 5a 15 7e 3f 2e d6 7f 3f b8 93 7f 3f 4c 89 7f 3f
       0.9925133 0.9993619 0.99834776 0.99818873
0003d0 4f 9d 7e 3f fe b4 7f 3f af 26 7d 3f 36 4c 80 3f
       0.99458784 0.9988555 0.9888715 1.0023258
0003e0 67 de 7e 3f 90 72 7d 3f f3 a8 7d 3f 6d 78 7e 3f
       0.9955811 0.99002934 0.9908592 0.99402505
0003f0 ec 09 80 3f 1e be 7f 3f ab 00 80 3f 1d bc 7e 3f
       1.0003028 0.9989947 1.0000204 0.9950579

tfl.pseudo_qconst4 i1 [512, 64]
000000 e3 5f bb 55 cf 1c 4d 4a a2 02 00 7f 0f 98 1a 2e
       -29 95 -69 85 -49 28 77 74 -94 2 0 127 15 -104 26 46
000010 3b 37 82 59 00 07 9c 00 9c 28 70 39 54 20 d5 d0
       59 55 -126 89 0 7 -100 0 -100 40 112 57 84 32 -43 -48
000020 94 12 ae 6f 75 94 a2 d6 eb 6e 07 f5 68 87 49 02
       -108 18 -82 111 117 -108 -94 -42 -21 110 7 -11 104 -121 73 2
000030 cf b6 9a 72 e2 a9 14 91 62 20 8d 83 d4 10 13 54
       -49 -74 -102 114 -30 -87 20 -111 98 32 -115 -125 -44 16 19 84
000040 35 99 83 08 7d 90 98 fd 5e d0 e5 91 01 1a a4 84
       53 -103 -125 8 125 -112 -104 -3 94 -48 -27 -111 1 26 -92 -124
000050 a7 0d 1c 95 b7 cb b2 40 91 3e f4 ab 62 f2 16 42
       -89 13 28 -107 -73 -53 -78 64 -111 62 -12 -85 98 -14 22 66
000060 b5 56 3e 29 f9 ba 0e d1 c9 65 10 02 67 a3 e1 cf
       -75 86 62 41 -7 -70 14 -47 -55 101 16 2 103 -93 -31 -49
000070 6c 05 ce ef e3 39 27 7f 9d d7 85 11 63 e3 58 27
       108 5 -50 -17 -29 57 39 127 -99 -41 -123 17 99 -29 88 39
000080 fd 2b 10 e3 c7 90 d5 2b 4c bc 39 f1 b4 5d 69 9f
       -3 43 16 -29 -57 -112 -43 43 76 -68 57 -15 -76 93 105 -97
000090 bb b3 2d 66 5c 75 77 5c bf cd 91 f0 bb c7 b9 1e
       -69 -77 45 102 92 117 119 92 -65 -51 -111 -16 -69 -57 -71 30
0000a0 c2 48 a7 a0 32 e3 0e b3 a4 5b 7f 6a 44 9e 3c 46
       -62 72 -89 -96 50 -29 14 -77 -92 91 127 106 68 -98 60 70
0000b0 d1 ae 09 ac 65 74 6e c7 38 cb e8 ac a9 c1 50 05
       -47 -82 9 -84 101 116 110 -57 56 -53 -24 -84 -87 -63 80 5
0000c0 30 52 47 59 a9 f4 a4 cb c2 c8 46 ab 88 9c c3 81
       48 82 71 89 -87 -12 -92 -53 -62 -56 70 -85 -120 -100 -61 -127
0000d0 ee 52 b0 3c 8d 39 1f 3a f7 b6 a7 02 be b2 a6 ee
       -18 82 -80 60 -115 57 31 58 -9 -74 -89 2 -66 -78 -90 -18
0000e0 ed 29 92 32 1d 1f 8c b8 1b 6e 5f 1c 1e 48 32 70
       -19 41 -110 50 29 31 -116 -72 27 110 95 28 30 72 50 112
0000f0 e1 e1 ae ce 67 43 d2 02 ab 9d c8 22 8c 31 2c be
       -31 -31 -82 -50 103 67 -46 2 -85 -99 -56 34 -116 49 44 -66

tfl.pseudo_qconst5 i1 [512, 128]
000000 04 04 33 dd 02 13 3e 76 e8 09 17 df 0e f1 d8 a3
       4 4 51 -35 2 19 62 118 -24 9 23 -33 14 -15 -40 -93
000010 dc 65 f1 f1 d9 16 17 f6 f2 28 23 0c 37 ad 2c 81
       -36 101 -15 -15 -39 22 23 -10 -14 40 35 12 55 -83 44 -127
000020 e8 28 0a 1d 35 3c 29 ed df cc e8 e0 cb f0 c5 d4
       -24 40 10 29 53 60 41 -19 -33 -52 -24 -32 -53 -16 -59 -44
000030 52 e1 ce f5 b1 d5 d3 ef e8 df f2 0f f7 f3 0e 1c
       82 -31 -50 -11 -79 -43 -45 -17 -24 -33 -14 15 -9 -13 14 28
000040 a9 24 fc 09 0f 17 f2 27 c4 de ef d2 0e d5 c7 db
       -87 36 -4 9 15 23 -14 39 -60 -34 -17 -46 14 -43 -57 -37
000050 11 10 c4 cf 3e f6 35 11 29 29 11 33 37 03 09 04
       17 16 -60 -49 62 -10 53 17 41 41 17 51 55 3 9 4
000060 f5 ee 3f e9 06 e8 de d3 2c 1d ff 30 e3 c2 2f eb
       -11 -18 63 -23 6 -24 -34 -45 44 29 -1 48 -29 -62 47 -21
000070 e0 97 02 e0 f2 2b d3 dd f7 02 12 03 4b e8 0f 11
       -32 -105 2 -32 -14 43 -45 -35 -9 2 18 3 75 -24 15 17
000080 05 ef 1c ac 58 eb f6 00 09 31 e6 c8 3a ce fe 03
       5 -17 28 -84 88 -21 -10 0 9 49 -26 -56 58 -50 -2 3
000090 25 cd 1e 62 c3 bd 28 14 f0 b2 f5 b2 3d 31 01 ee
       37 -51 30 98 -61 -67 40 20 -16 -78 -11 -78 61 49 1 -18
0000a0 0c e1 d9 ef 7f dd 29 f0 b6 c8 e3 cd 12 27 f9 ba
       12 -31 -39 -17 127 -35 41 -16 -74 -56 -29 -51 18 39 -7 -70
0000b0 59 35 e2 bf df 1b f6 15 2c f9 e6 17 78 1e 08 10
       89 53 -30 -65 -33 27 -10 21 44 -7 -26 23 120 30 8 16
0000c0 d0 fb 98 e5 3f 38 f3 bf ee 3b 77 d5 5e 7c 7e 5a
       -48 -5 -104 -27 63 56 -13 -65 -18 59 119 -43 94 124 126 90
0000d0 0e ae 99 62 36 1f 10 cf f7 30 2c 69 25 fa 06 14
       14 -82 -103 98 54 31 16 -49 -9 48 44 105 37 -6 6 20
0000e0 cf 14 d1 65 0d c3 ec db 56 e3 aa d0 2b b3 fc 32
       -49 20 -47 101 13 -61 -20 -37 86 -29 -86 -48 43 -77 -4 50
0000f0 1e 21 0a da af b2 e8 ad ee 02 e7 0e e3 41 99 09
       30 33 10 -38 -81 -78 -24 -83 -18 2 -25 14 -29 65 -103 9

arith.constant27 f4 [256]
000000 a6 06 23 3a 7d 10 57 bc 3f 38 43 3b 55 7c ac ba
       0.0006218947 -0.01312649 0.0029788164 -0.0013159612
000010 5a 7c 68 b8 e5 3c 15 bc 25 0d e4 bb 70 e1 f6 ba
       -5.542892e-05 -0.009108757 -0.0069595748 -0.0018835496
000020 fd 8f 38 3c ec ab 06 bc 92 2c 25 ba 9d 0d 0f bb
       0.011264798 -0.0082197 -0.0006300892 -0.0021828183
000030 2e 14 f1 bb 15 86 99 bc 23 e9 48 bb ea 25 15 3b
       -0.007357142 -0.018740693 -0.0030656538 0.0022758194
000040 4e 53 dd 3b 7d 48 55 bb d3 bd 00 bc 8a 5c fb 3b
       0.0067543155 -0.0032544427 -0.007857758 0.0076709436
000050 25 36 40 bb bf 50 bd bb 05 4f f0 bb bf 44 9c bb
       -0.0029329148 -0.005777448 -0.0073336386 -0.0047689374
000060 16 7a 9f bb 91 40 f0 3b c8 be 03 3c 6a 55 e9 bb
       -0.0048668487 0.0073319157 0.008041091 -0.007120778
000070 12 10 8d bb 1b 99 aa 3b 1e c0 ff 3a aa ef 64 bb
       -0.0043048942 0.00520624 0.0019512211 -0.003493289
000080 87 b0 32 bc 17 00 1a bb 72 05 50 bb d9 ed 5b bc
       -0.010906345 -0.0023498589 -0.0031741527 -0.0134234065
000090 bc ff 5d 39 a6 4d b9 bb b2 1c 89 3b 78 fe ea ba
       0.00021171471 -0.0056550084 0.004184329 -0.0017928621
0000a0 bb 35 5d bb 82 e1 d7 3a 28 03 0a 3c 60 96 a4 3a
       -0.003375395 0.0016470405 0.008423604 0.0012557022
0000b0 ae c0 38 bb 34 5d 35 3c 06 a8 e1 bb 1e 4d 7b bb
       -0.0028191018 0.011069585 -0.006886485 -0.0038345526
0000c0 0d fc 73 bb 66 49 6f bb 51 32 0d bc 87 41 df bb
       -0.0037229091 -0.0036512255 -0.008617953 -0.0068132314
0000d0 77 15 fa ba a1 1a 16 bc 98 2f bb 3a 41 5e 5e 3b
       -0.0019079883 -0.009161622 0.0014281152 0.0033930691
0000e0 25 ea a2 3c a2 d7 bf 3a 65 f9 bb ba 64 a8 a3 bc
       0.01988704 0.0014636407 -0.0014341293 -0.019977756
0000f0 22 22 02 ba 33 80 a2 3b a0 be 36 bc 3c af 30 bb
       -0.00049641926 0.00495913 -0.011153847 -0.0026959917
000100 78 8c 7f 3f 84 38 7d 3f 78 0d 80 3f 8d 24 80 3f
       0.99823713 0.9891436 1.000411 1.0011154
000110 9d 32 80 3f 04 eb 7d 3f 09 49 7e 3f 9e 35 7f 3f
       1.0015446 0.9918673 0.9933019 0.9969119
000120 7e c6 81 3f a0 97 7d 3f d4 13 80 3f 73 4f 7f 3f
       1.01387 0.99059486 1.0006051 0.99730605
000130 5f 4b 7e 3f 74 05 7c 3f 68 33 7f 3f 5a 65 80 3f
       0.9933376 0.9844582 0.99687815 1.003093
000140 97 cb 80 3f 63 b5 7f 3f 77 df 7c 3f 17 ca 80 3f
       1.0062131 0.9988615 0.9877848 1.0061673
000150 6a dc 7e 3f 5d 6d 7e 3f 68 32 7e 3f 11 47 7e 3f
       0.99555075 0.99385625 0.99295664 0.9932719
000160 01 f2 7d 3f 9f 78 80 3f 84 cd 80 3f a6 38 7e 3f
       0.99197394 1.0036811 1.0062718 0.9930519
000170 9e 19 7f 3f 47 b4 80 3f ee 41 80 3f 5d fd 7e 3f
       0.99648464 1.0055016 1.002012 0.9960535
000180 a8 7b 7f 3f 18 a5 7f 3f c0 2b 80 3f 5c 25 7b 3f
       0.9979806 0.9986129 1.0013351 0.9810388
000190 40 21 7f 3f 13 d6 7e 3f 01 b9 80 3f 09 2e 7f 3f
       0.9966011 0.995454 1.0056459 0.9967962
0001a0 ad 59 7f 3f 7a 7b 80 3f 9f 09 81 3f ba 12 80 3f
       0.9974621 1.0037682 1.0081061 1.0005715
0001b0 ea eb 7e 3f e3 34 81 3f 83 f5 7e 3f 2e ed 7e 3f
       0.99578726 1.0094265 0.9959337 0.9958066
0001c0 d0 43 7f 3f fa 15 7f 3f 60 d5 7d 3f 73 8e 7e 3f
       0.9971285 0.9964291 0.9915371 0.9943611
0001d0 35 05 80 3f d4 bc 7f 3f 15 ee 7f 3f af 1e 81 3f
       1.0001589 0.99897504 0.9997266 1.0087489
0001e0 dc fd 81 3f 6c 8a 7f 3f 5f ac 7f 3f 91 b2 7a 3f
       1.0155597 0.9982059 0.9987239 0.9792872
0001f0 8d bf 7f 3f 36 63 80 3f e6 ed 7c 3f a8 a4 7f 3f
       0.9990166 1.0030277 0.98800504 0.9986062
000200 f6 10 12 bb 68 2d a4 bb 3e f4 fc 3a c4 df e7 3b
       -0.0022287942 -0.0050102957 0.0019298864 0.0070762355
000210 1a 42 1b 3b 4b 9c f5 bb 6e 8d fd bb 0a 96 22 3a
       0.0023690523 -0.007495438 -0.007737807 0.0006202167
000220 b3 34 67 3c eb 85 15 bc 62 58 31 3a 9a dc fd bb
       0.014111686 -0.009126167 0.0006765184 -0.007747245
000230 a9 07 c3 bb ec b7 80 bc f6 ae 8e bb be ab 0c 38
       -0.005951841 -0.0157127 -0.004354353 3.353855e-05
000240 e5 08 45 3b d8 f3 51 bb fb f2 a3 bb 4c f4 a4 39
       0.0030065116 -0.0032036211 -0.0050033308 0.00031462533
000250 31 61 85 bb 9d c7 dc bb 2d e0 cf bb 29 68 98 bb
       -0.004070424 -0.006737663 -0.0063438625 -0.0046510887
000260 bb 97 d8 bb c4 76 49 3a 92 3b 00 3c 18 f5 0c bc
       -0.0066098846 0.0007685239 0.007826703 -0.008603357
000270 0c c2 5f bb f8 3a 17 3c 7d 1a e6 3b fa a5 96 b9
       -0.003414276 0.009230368 0.0070222006 -0.00028733892
000280 8f fe c1 bb 0e 6c 3b ba a8 a2 ce 3b 4d a3 9e bc
       -0.0059202383 -0.0007149585 0.006306011 -0.019364977
000290 2b 4c 0c bc d9 8c 7f bb 2b 93 16 3c 4b 48 aa bb
       -0.008563082 -0.0038993864 0.009190361 -0.0051966063
0002a0 02 c2 4f bb 9a 85 87 39 ff 49 c8 3b 24 d3 91 39
       -0.003170133 0.00025848747 0.0061123366 0.00027813867
0002b0 16 35 6d bb 04 c3 3a 3c 87 f7 a6 bb c8 a9 a4 bb
       -0.0036194972 0.011399034 -0.0050954255 -0.0050251223
0002c0 ba 5c f0 ba 83 7e 7e bb bd fa 15 bb b1 0c f0 bb
       -0.0018338182 -0.003883273 -0.0022885047 -0.0073257317
0002d0 32 49 0b 3a ef 16 e5 ba 82 d1 8f ba 65 a5 ec 3a
       0.0005313336 -0.0017478148 -0.0010972472 0.0018054663
0002e0 20 8e 48 3c cf 62 b3 3a 55 38 50 bb f9 86 7b bc
       0.0122409165 0.0013686063 -0.0031771858 -0.015352004
0002f0 af 81 2a 3b e7 f7 40 bb 43 c6 61 bc 99 12 05 ba
       0.002601724 -0.0029444636 -0.013780179 -0.00050763186
000300 d5 c0 ab ba 41 ba 5d bc 63 ed 8d 3b dc b0 8b ba
       -0.0013103733 -0.013533176 0.004331277 -0.0010657567
000310 7d 01 78 3a 7f 84 60 bb f5 6f 13 bc 89 12 4b bb
       0.0009460671 -0.0034258661 -0.008998861 -0.003098639
000320 fe d4 71 3c 46 a9 1b bc cb 26 87 3a a2 6f fe ba
       0.014760254 -0.009500807 0.0010311244 -0.0019411931
000330 10 1d d3 bb e8 db 83 bc e1 37 b6 bb 6f 2e 71 39
       -0.0064426735 -0.01609607 -0.0055608605 0.00023000849
000340 4a 5f 8c 3a 09 c0 89 ba 45 1c 95 bb 6d 8c d5 3b
       0.0010709551 -0.0010509501 -0.004550489 0.006516984
000350 aa d0 96 ba c7 37 c1 bb 39 60 06 bc e0 81 01 bc
       -0.0011506279 -0.0058965418 -0.008201652 -0.0079045
000360 69 92 14 bc 5d 56 72 3b e2 02 0f 3c e5 92 cd bb
       -0.00906811 0.0036977746 0.008728715 -0.0062736147
000370 53 4e cf b9 73 fd a1 3b 6f 2b 82 3b 93 60 8d bb
       -0.00039540473 0.0049435436 0.003972463 -0.004314491
000380 96 10 66 bb d0 38 69 bb 7f 60 6a bb ac e6 41 bc
       -0.00351051 -0.0035586841 -0.0035763083 -0.011834782
000390 cd 8a 9e bb 6d 76 fa ba da 1e ca 3b 2a 83 74 bb
       -0.0048383237 -0.001910878 0.0061682286 -0.0037309625
0003a0 95 45 17 bb 31 cd 9b 3b 47 0c 1a 3c 7c 75 0c 3b
       -0.0023082246 0.0047546853 0.009402341 0.002143233
0003b0 c6 66 9a bb e1 55 21 3c c8 96 fa bb 9c 8b af b9
       -0.0047119586 0.009847135 -0.007647369 -0.00033482618
0003c0 82 33 84 bb 22 12 a4 39 65 d4 0c bc 3e 6e ac bb
       -0.0040344605 0.00031294028 -0.008595561 -0.0052621653
0003d0 c2 c0 ec b9 4e 76 08 b9 0b bc d8 3a 9e 63 d0 3a
       -0.00045157043 -0.00013014043 0.0016535533 0.0015898829
0003e0 4b 07 98 3c 01 25 96 3b e1 cc 61 39 bf c0 a3 bc
       0.018558165 0.004582048 0.00021533995 -0.01998937
0003f0 80 0b 22 3a 57 9c a0 3b 32 3c 31 bc 45 38 6e bb
       0.0006181523 0.0049014497 -0.010817574 -0.0036349457

tfl.pseudo_qconst6 i1 [256, 128]
000000 b4 4a 98 6b fc c8 99 64 0d 76 f7 77 f9 1b 76 b4
       -76 74 -104 107 -4 -56 -103 100 13 118 -9 119 -7 27 118 -76
000010 5c b7 ad 6d 35 af 9d cc 8c 3f f7 3a 77 11 ee 67
       92 -73 -83 109 53 -81 -99 -52 -116 63 -9 58 119 17 -18 103
000020 50 a7 c7 1d e6 fd 99 2d 6c 32 00 8f 25 04 18 40
       80 -89 -57 29 -26 -3 -103 45 108 50 0 -113 37 4 24 64
000030 1d 4c 0a 4a 81 4b a2 fb b7 11 12 07 2d 6f b0 a5
       29 76 10 74 -127 75 -94 -5 -73 17 18 7 45 111 -80 -91
000040 9a 9e af 65 40 73 55 41 d3 28 2b d2 08 b0 c8 30
       -102 -98 -81 101 64 115 85 65 -45 40 43 -46 8 -80 -56 48
000050 78 ed 15 b6 e5 e2 96 d8 38 60 c3 fe 13 71 65 fa
       120 -19 21 -74 -27 -30 -106 -40 56 96 -61 -2 19 113 101 -6
000060 91 fc aa ca b7 1f 7b 09 f3 93 94 30 91 47 63 c3
       -111 -4 -86 -54 -73 31 123 9 -13 -109 -108 48 -111 71 99 -61
000070 91 ce f6 08 b0 f4 0c b3 43 5d 41 d8 48 fb 54 63
       -111 -50 -10 8 -80 -12 12 -77 67 93 65 -40 72 -5 84 99
000080 27 10 9f c7 9d 05 0a 53 f1 d4 f5 20 39 12 cb d2
       39 16 -97 -57 -99 5 10 83 -15 -44 -11 32 57 18 -53 -46
000090 e2 3f 38 33 05 48 40 09 0a 68 05 95 3b 5b 45 72
       -30 63 56 51 5 72 64 9 10 104 5 -107 59 91 69 114
0000a0 f7 f9 6e 4d ae 4d e4 e3 23 ae eb ac 0c f8 a9 86
       -9 -7 110 77 -82 77 -28 -29 35 -82 -21 -84 12 -8 -87 -122
0000b0 03 ce 0a 3b 88 b5 17 d2 2f 0f aa 8b 24 e1 11 e1
       3 -50 10 59 -120 -75 23 -46 47 15 -86 -117 36 -31 17 -31
0000c0 c4 63 66 b2 10 c1 50 e5 3b 06 ec 0b 4f d5 0f 0e
       -60 99 102 -78 16 -63 80 -27 59 6 -20 11 79 -43 15 14
0000d0 4e db 32 5c af 57 81 d2 6d a0 15 fe 1f 8a ca 1b
       78 -37 50 92 -81 87 -127 -46 109 -96 21 -2 31 -118 -54 27
0000e0 92 0b 97 53 f2 34 8f 9d 68 b3 4d f1 6a b6 77 54
       -110 11 -105 83 -14 52 -113 -99 104 -77 77 -15 106 -74 119 84
0000f0 cc cd f6 70 05 55 04 0f cd e3 d2 a8 bc ab 5c 06
       -52 -51 -10 112 5 85 4 15 -51 -29 -46 -88 -68 -85 92 6

tfl.pseudo_qconst7 i1 [256, 64]
000000 15 0e f0 a8 ff 49 e5 1b de ef f0 49 08 2e 26 e5
       21 14 -16 -88 -1 73 -27 27 -34 -17 -16 73 8 46 38 -27
000010 bf e5 34 ce e1 3f 14 be 06 25 23 09 04 3f f5 7f
       -65 -27 52 -50 -31 63 20 -66 6 37 35 9 4 63 -11 127
000020 f0 d6 d8 d1 55 4e ef 4d 05 2f 1d 23 4e fd 13 f5
       -16 -42 -40 -47 85 78 -17 77 5 47 29 35 78 -3 19 -11
000030 fe d4 17 12 00 cf 29 05 bf 47 f4 38 03 12 d5 d4
       -2 -44 23 18 0 -49 41 5 -65 71 -12 56 3 18 -43 -44
000040 b8 b9 20 de 51 7f 4a 1b cf c7 c6 61 20 31 c9 51
       -72 -71 32 -34 81 127 74 27 -49 -57 -58 97 32 49 -55 81
000050 da 4d 02 2a ed 21 cc 0d d8 ad 37 9d 11 c3 2e 87
       -38 77 2 42 -19 33 -52 13 -40 -83 55 -99 17 -61 46 -121
000060 1f 8c e9 e9 fa dd 28 27 29 91 34 33 b9 24 13 5b
       31 -116 -23 -23 -6 -35 40 39 41 -111 52 51 -71 36 19 91
000070 2c 14 cd c1 2b 15 25 e8 14 c7 e3 44 28 f8 01 eb
       44 20 -51 -63 43 21 37 -24 20 -57 -29 68 40 -8 1 -21
000080 e8 9b 8b de 41 d8 a0 89 fb bb 20 10 c0 81 4d ec
       -24 -101 -117 -34 65 -40 -96 -119 -5 -69 32 16 -64 -127 77 -20
000090 14 13 e5 2e c9 6e 12 13 c6 39 12 ef 0a d1 bc e2
       20 19 -27 46 -55 110 18 19 -58 57 18 -17 10 -47 -68 -30
0000a0 99 1e 23 16 e3 06 ec 25 5e 0b 66 3e 87 38 76 33
       -103 30 35 22 -29 6 -20 37 94 11 102 62 -121 56 118 51
0000b0 17 46 ad 66 da a5 1d fc ec 06 a3 f2 4a 0b d7 dd
       23 70 -83 102 -38 -91 29 -4 -20 6 -93 -14 74 11 -41 -35
0000c0 fa c2 96 2d f6 61 58 e5 d5 f3 bf e6 91 ad 42 52
       -6 -62 -106 45 -10 97 88 -27 -43 -13 -65 -26 -111 -83 66 82
0000d0 ed 19 f2 21 28 ee f0 97 a3 31 39 0e f5 f6 81 f9
       -19 25 -14 33 40 -18 -16 -105 -93 49 57 14 -11 -10 -127 -7
0000e0 99 3f 19 a8 de b6 08 06 f1 0f dd d4 eb 63 a1 1e
       -103 63 25 -88 -34 -74 8 6 -15 15 -35 -44 -21 99 -95 30
0000f0 09 62 3e ed ce 08 c3 10 51 f1 28 37 fd 59 fd 13
       9 98 62 -19 -50 8 -61 16 81 -15 40 55 -3 89 -3 19
