Alphabet Recog Model/asl_mlp_model_v2.tflite (tflite, 218124 bytes, 8 tensors)

arith.constant f4 [26, 64]
0	0x3e14af5b	0.14520018
1	0xbd8f3fbb	-0.069945775
2	0x3e120ece	0.1426346
3	0xbc84f290	-0.016228944
4	0xbe7681c6	-0.24072942
5	0x3e75dc78	0.24009883
6	0xbe15555d	-0.14583345
7	0xbdd3f768	-0.10349923
8	0xbe1b20e4	-0.15149266
9	0xbdbe95d6	-0.09305923
10	0xbd88a624	-0.06672314
11	0xbe172a27	-0.14762174
12	0xbdf12da9	-0.11776287
13	0x3ccbda17	0.024884267
14	0x3e1eccc6	0.15507802
15	0xbe249ba5	-0.16074999
16	0xbe1e9101	-0.15485002
17	0xbe81711d	-0.2528161
18	0xbd89e61f	-0.06733345
19	0xbd8b8668	-0.06812745
20	0xbe22b65b	-0.15889876
21	0xbe3b69c5	-0.18302067
22	0x3e7f93c5	0.24958713
23	0x3dc1b8c2	0.09459068
24	0xbd22435d	-0.039615024
25	0xbe15ac07	-0.14616404
26	0x3e56168f	0.20907043
27	0x3e578e33	0.21050338
28	0xbe2c1ded	-0.16808291
29	0xbdae79d6	-0.08519332
30	0x3daebd13	0.08532157
31	0x3e704f1f	0.23467682
32	0x3d353a9f	0.04424536
33	0xbe209bb7	-0.156844
34	0xbe5d046f	-0.21583723
35	0x3e5bcd4c	0.21465033
36	0xbdab6a22	-0.083698526
37	0x3e22cea8	0.15899146
38	0x3b14563a	0.0022634403
39	0x3e903001	0.28161624
40	0xbb566436	-0.003271354
41	0xbdb0ff50	-0.08642447
42	0x3d9e4016	0.07727067
43	0xbb540a2b	-0.0032354693
44	0xbcae5c6c	-0.021284305
45	0x3d415dea	0.047208704
46	0xbd119991	-0.035546843
47	0xbe1b12e9	-0.15143932
48	0x3d375cfb	0.044766407
49	0x3cfa61e6	0.03056426
50	0xbe802905	-0.25031295
51	0xbe7235c0	-0.23653316
52	0x3db8b07e	0.09018038
53	0xbcab10e6	-0.020882081
54	0x3ca5a001	0.020217897
55	0x3e481504	0.19539267
56	0x3d9a5180	0.07535076
57	0xbe3f01f4	-0.18653089
58	0x3db98271	0.09058083
59	0xbc93e0e7	-0.018051578
60	0x3e61c90a	0.22049347
61	0xbdcd640d	-0.10028849
62	0xbdcb0a4e	-0.09914075
63	0xbe239386	-0.15974244
64	0x3dd05f51	0.1017443
65	0x3e62557c	0.22102922
66	0xbd902354	-0.07037988
67	0x3e057e3a	0.13036433
68	0x3ea7922c	0.32728708
69	0x3d409211	0.0470143
70	0x3e68fe1d	0.22753187
71	0x3e657791	0.22408892
72	0x3e89a214	0.26881468
73	0xbec3eb0f	-0.38265273
74	0x3e1edac1	0.15513135
75	0xbd9face7	-0.077966504
76	0xbe23ef7b	-0.16009323
77	0x3c896a99	0.016774463
78	0xbe363d3a	-0.17796794
79	0xbe7566d8	-0.23965013
80	0xbdf8f9d5	-0.12157027
81	0xbdb5b8c6	-0.08873133
82	0x3e90c303	0.28273782
83	0xbe49835e	-0.19679019
84	0xbc1d00df	-0.009582727
85	0xbdad13cb	-0.08451041
86	0xbdcf4cb2	-0.1012205
87	0xbd0f605e	-0.035004012
88	0x3e7c5af0	0.24644065
89	0xbe605525	-0.2190748
90	0xbcd49d56	-0.02595393
91	0xbdfd8e0a	-0.123806074
92	0xbdc007f4	-0.09376517
93	0x3eb750d2	0.35803849
94	0xbcafbd3a	-0.021452535
95	0xbdd616c8	-0.10453564
96	0x3e0e9ce5	0.13927038
97	0xbd86689d	-0.06562922
98	0xbe1671d9	-0.14691867
99	0xbd3bce0d	-0.045850802
100	0xbde583c7	-0.11206775
101	0xbc85d301	-0.016335966
102	0x3daf1129	0.08548195
103	0xbcf7f41b	-0.030267766
104	0x3dc2e5f7	0.095165186
105	0xbe166bef	-0.14689611
106	0xbe253976	-0.16135201
107	0xbe07f71e	-0.13277861
108	0xbe106ad5	-0.14103253
109	0xbe83dd29	-0.2575467
110	0x3e124cb5	0.14287074
111	0xbc1f3341	-0.00971681
112	0xbe085f90	-0.13317704
113	0x3c95ced4	0.0182871
114	0xbe5afe19	-0.21385993
115	0x3e0e5428	0.1389929
116	0xbdc100d3	-0.09423985
117	0xbe23dfab	-0.16003291
118	0xbc7a34c6	-0.015271371
119	0xbe215485	-0.15754898
120	0xbe459d8a	-0.19298378
121	0xbe88f631	-0.2675033
122	0xbb399e2d	-0.002832304
123	0xbde2c653	-0.110729836
124	0x3df7e841	0.12104846
125	0xbdbc9e5e	-0.09209894
126	0x3e130f45	0.14361294
127	0xbea561b7	-0.32301113
128	0x3bae540f	0.005320079
129	0xbe0483cc	-0.12940902
130	0xbdff4c21	-0.12465692
131	0xbe0eb32b	-0.13935535
132	0x3da0cdf7	0.07851785
133	0xbe45e75e	-0.19326541
134	0x3e3e14b5	0.18562587
135	0x3db5771b	0.08860608
136	0xbe7f2831	-0.24917676
137	0x3e5ccf54	0.21563464
138	0x3e35e776	0.17764077
139	0xbda680f4	-0.081300646
140	0x3e86dce4	0.263404
141	0x3dd5f014	0.10446182
142	0xbded7b56	-0.1159579
143	0xbe927f38	-0.28612685
144	0x3cf92421	0.030412735
145	0x3e53ec10	0.2069552
146	0xbe19ccf1	-0.15019585
147	0xbe856092	-0.2605024
148	0x3e1636a4	0.14669281
149	0xbd9bed1e	-0.07613586
150	0xbde038fe	-0.109483704
151	0xbe0c59c0	-0.13706112
152	0x3e4d9799	0.20077361
153	0xbdb0df0d	-0.086362936
154	0xbdc3e12f	-0.09564435
155	0xbd68533d	-0.056720007
156	0xbd6139c5	-0.054986734
157	0x3e39d39b	0.18147127
158	0x3deb2ab0	0.11482751
159	0xbe60a1ee	-0.21936771
160	0xbdeada29	-0.11467392
161	0x3d50854e	0.05090838
162	0xbe3336d6	-0.17501387
163	0xbda84657	-0.08216541
164	0xbddeb7e9	-0.10874922
165	0x3de3abef	0.11116778
166	0xbe18ce9c	-0.14922565
167	0xbd9f6e29	-0.07784683
168	0x3e333eac	0.17504376
169	0xbdfb4b56	-0.122702286
170	0xbe0a8e61	-0.13530876
171	0xbb3ba294	-0.002863084
172	0xbd296f66	-0.041366003
173	0x3e1632ec	0.14667863
174	0x3e1c1123	0.15240912
175	0xbde1f0fb	-0.110322915
176	0xbd162298	-0.036654085
177	0xbe1143cc	-0.14186019
178	0xbe04a338	-0.12952888
179	0xbddd127b	-0.107945405
180	0x3d0a5fdb	0.03378282
181	0x3e4f819b	0.20264284
182	0x3d7e0fc9	0.062026773
183	0x3e298cd2	0.16557625
184	0xbe857f4f	-0.2607369
185	0xbe601819	-0.21884193
186	0xbd95e1e9	-0.073184796
187	0xbd3c0078	-0.045898885
188	0x3e207070	0.15667892
189	0x3e5d511c	0.21612972
190	0xbe0d66fb	-0.13808815
191	0xbeaa3cae	-0.3324942
192	0x3d69ec6e	0.057110243
193	0x3e2c8044	0.16845804
194	0xbd64c185	-0.055848617
195	0xbe716e07	-0.23577128
196	0xbe233f47	-0.15942107
197	0xbd324b9e	-0.043529145
198	0xbe0c946f	-0.13728498
199	0xbda04cfa	-0.07827182
200	0xbe3aca9b	-0.1824135
201	0x3dc46cfc	0.095910996
202	0x3e278922	0.16360906
203	0xbe3de0af	-0.18542741
204	0xbe329db7	-0.17442976
205	0xbd83388d	-0.064072706
206	0xbd585db0	-0.052823722
207	0xbe4bff60	-0.19921637
208	0x3d903080	0.07040501
209	0xbb9ab2db	-0.0047210283
210	0x3d9447bb	0.07240244
211	0x3cfe5753	0.031047499
212	0xbe8f4a89	-0.27986553
213	0x3e354063	0.17700343
214	0xbd74ed14	-0.059796408
215	0xbac073b5	-0.0014682921
216	0x3e44cfa2	0.1921983
217	0xbe6dca3e	-0.2322168
218	0xbcd98279	-0.026551472
219	0xbe329c5c	-0.17442459
220	0x3d7cf2ef	0.061755117
221	0xbe13b8a4	-0.14425904
222	0x3e498540	0.19679737
223	0xbd65016d	-0.055909563
224	0x3e8738bb	0.2641047
225	0x3e8029dc	0.25031936
226	0x3c0c5ed8	0.008567534
227	0xbd9a0642	-0.07520725
228	0x3e193b0d	0.14963932
229	0x3e7b3a6d	0.24534006
230	0x3bc3bf91	0.005973764
231	0xbd85a262	-0.06525113
232	0xbe9e8d9a	-0.30967408
233	0xbe2a544c	-0.16633719
234	0x3c68f7ea	0.014219264
235	0x3d3744c6	0.04474332
236	0xbd5d8e05	-0.05409052
237	0xbd9e1c61	-0.077202566
238	0x3e82c5b6	0.25541466
239	0x3e00706d	0.12542887
240	0x3df201e8	0.1181677
241	0xbe95e516	-0.2927634
242	0xbe8deac0	-0.27718163
243	0xbe116ca0	-0.14201593
244	0xbe0f8e61	-0.14019157
245	0xbe616e01	-0.2201462
246	0x3bf48480	0.0074620843
247	0xbe1b5f62	-0.15173104
248	0x3dad7f73	0.08471575
249	0xbc166bdc	-0.009180989
250	0xbd8e6935	-0.069536604
251	0xbdbfa7fd	-0.09358213
252	0xbd1ae885	-0.037819404
253	0x3de2702e	0.11056553
254	0xbe920054	-0.28515875
255	0x3e74c7dc	0.23904365

arith.constant1 f4 [26]
0	0x3fc2a2fd	1.520599
1	0x4003c23f	2.0587308
2	0x40086480	2.131134
3	0x40801eab	4.0037436
4	0x3fec353e	1.8453748
5	0x3fba53fc	1.455688
6	0x3fc34fe6	1.5258758
7	0x40bbd9fe	5.8703604
8	0x408a35f8	4.319088
9	0x40901243	4.502229
10	0x405e9bc7	3.478258
11	0xbf35ce28	-0.71017694
12	0x4025b4b6	2.5891547
13	0x40a1794e	5.0460577
14	0x403f39f1	2.9879115
15	0x3f0c1710	0.5472269
16	0x400ef119	2.2334654
17	0x40d03928	6.506977
18	0x405cbdfe	3.4490962
19	0x4067db86	3.6227736
20	0x40c3d41e	6.119643
21	0x408d3ae9	4.413441
22	0x40197251	2.3976023
23	0x40a244d8	5.070904
24	0x4003f92a	2.0620828
25	0x40159011	2.336918

arith.constant2 f4 [64, 128]
0	0x3c195b14	0.009360094
1	0xbeca8cd8	-0.3956058
2	0x3e06aa13	0.13150816
3	0x3e96da6a	0.29463512
4	0x3e24617b	0.16052811
5	0xbe8cefbc	-0.27526653
6	0xbf83add6	-1.0287426
7	0x3e2f6de9	0.17131771
8	0x3ef1d1f2	0.47230488
9	0xbf302e65	-0.6882079
10	0xbe66c7b6	-0.22537121
11	0xbee12bcf	-0.43978736
12	0x3c8c7eea	0.017150361
13	0xbe1468bf	-0.14493082
14	0x3e1921d8	0.14954317
15	0xbec5bb85	-0.3861963
16	0xbee44d72	-0.44590336
17	0xbe81eb15	-0.25374666
18	0x3e0349bf	0.128211
19	0x3e8f4cd0	0.2798829
20	0x3ed2f864	0.41205132
21	0x3e68d97e	0.22739217
22	0xbe8ea208	-0.27857995
23	0x3dcc3edd	0.09972928
24	0xbed4f5fa	-0.41593915
25	0x3ed548ba	0.41657048
26	0x3eb436f1	0.35198167
27	0xbeaab375	-0.3334004
28	0x3d4d5410	0.050128996
29	0xbeb357ab	-0.35027823
30	0xbe407634	-0.18795091
31	0x3da9ffe4	0.083007604
32	0xbdf7ed54	-0.121058136
33	0xbdce264e	-0.100659
34	0x3cbb28c5	0.022846589
35	0xbe8641b3	-0.26222
36	0xbe27153d	-0.16316696
37	0x3d9eac39	0.077476926
38	0x3eece7cb	0.46270594
39	0xbee15ea4	-0.44017518
40	0x3e70683d	0.23477264
41	0xbe39635d	-0.1810431
42	0x3573fbde	9.089107e-07
43	0x3f03e6fe	0.5152434
44	0x3e42885b	0.18997328
45	0xbc1872ee	-0.009304745
46	0xbeb1577a	-0.34637052
47	0x3ead9677	0.33903858
48	0x3dcf89ab	0.1013368
49	0x3ea67bed	0.32516423
50	0x3e113a81	0.14182474
51	0x3e582494	0.21107703
52	0xbeb6665d	-0.35624972
53	0xbdaa4066	-0.08313064
54	0x3eba1129	0.36341217
55	0x3b0cabbe	0.002146467
56	0xbe8ceecd	-0.2752594
57	0x3e01902e	0.12652656
58	0xbe005e19	-0.12535895
59	0x3e4959ae	0.19663116
60	0xbe013a00	-0.12619781
61	0x3e8e18e5	0.27753368
62	0x3c9a8d59	0.018866228
63	0x3e500ce5	0.20317419
64	0x3e980456	0.29690808
65	0xbde3da44	-0.11125615
66	0xbe82f670	-0.25578642
67	0xbc864ea8	-0.016394928
68	0x3e8491f1	0.25892594
69	0xbcb7a6f0	-0.02241847
70	0x3e256333	0.16151123
71	0xbf0363bd	-0.51324064
72	0xbdf3e9c2	-0.1190982
73	0xbda3ca58	-0.079975784
74	0x3e540fe4	0.20709187
75	0xbebf8f79	-0.37414148
76	0xbf1811c4	-0.5940211
77	0xbdeee41d	-0.11664603
78	0x3e9876c8	0.29778123
79	0x3ee8b40d	0.45449868
80	0x3e971154	0.29505408
81	0x3e8d53f6	0.2760312
82	0x3d9a7268	0.075413525
83	0xbee7717a	-0.45203763
84	0xbd51692d	-0.051125694
85	0xbdc806f2	-0.0976695
86	0x3f0b8eae	0.54514587
87	0xbe717302	-0.23579028
88	0xbec38b6c	-0.38192308
89	0xbe98d555	-0.2985026
90	0xbee7e9b2	-0.45295483
91	0xbca3da85	-0.02000166
92	0xbecc4818	-0.39898753
93	0x3d52860c	0.05139737
94	0x3e4d0b24	0.20023781
95	0xbde24fa7	-0.11050349
96	0xbecf2bff	-0.40463254
97	0x3e3ecd10	0.18632913
98	0x3e921333	0.28530273
99	0x3db3cd5c	0.087794036
100	0xbddfe318	-0.109319866
101	0xbe8e0bc1	-0.27743343
102	0xbe4ab22a	-0.19794527
103	0x3d8deae2	0.06929566
104	0x3b0ba9c9	0.0021310917
105	0x3c8ebbd6	0.017423552
106	0x3d1898ed	0.037255216
107	0xbdb6794f	-0.089098565
108	0x3e821f30	0.2541442
109	0x3da101d4	0.07861677
110	0xbf101dad	-0.5629528
111	0xbf0301f1	-0.5117484
112	0xbe37357b	-0.17891495
113	0xbd36b8d4	-0.04460986
114	0x3e158c67	0.1460434
115	0xbdd6f640	-0.10496187
116	0xbeb1b126	-0.34705466
117	0x3e922abf	0.28548238
118	0xbf016138	-0.5053897
119	0xbef2f3ff	-0.4745178
120	0xbb5edf76	-0.0034007705
121	0x3d738a56	0.0594581
122	0x3dc21566	0.09476738
123	0xbdc9c608	-0.098522246
124	0x3cd53c4b	0.026029726
125	0xbdeb4896	-0.11488454
126	0x3ce94e55	0.028479734
127	0xbe0893b2	-0.13337591
128	0xbdb4920d	-0.088169195
129	0xbe6bee8b	-0.23040216
130	0xbdcb8262	-0.09936978
131	0x3ebad1f0	0.36488295
132	0x3ce9e045	0.028549323
133	0xbdf7b9ff	-0.12096023
134	0xbf88abaf	-1.0677394
135	0x3d0eb9d0	0.034845173
136	0x3ddff5e4	0.10935572
137	0x3d96391c	0.073351115
138	0x3e9e1204	0.3087312
139	0xbef0c55e	-0.4702558
140	0xbe17b7e1	-0.14816238
141	0xbdcd0c9e	-0.10012172
142	0xbd9b8335	-0.07593385
143	0xbe9b7c92	-0.30368477
144	0xbf2c350d	-0.6726845
145	0xbd68ea7d	-0.05686425
146	0xbddf136c	-0.10892376
147	0x3ed6bcbc	0.41940868
148	0x3da27f7c	0.07934472
149	0xbda37cc7	-0.07982784
150	0x3c2ed888	0.010671742
151	0x3e6103d4	0.21974117
152	0xbe3399cb	-0.17539136
153	0xbe4bddad	-0.19908781
154	0xbce0eec3	-0.0274576
155	0x3e18b3fa	0.14912406
156	0xbbaa2973	-0.0051929294
157	0xbdae9beb	-0.08525833
158	0xbdb5d6c9	-0.08878858
159	0x3de9db2a	0.11418755
160	0xbf4f9554	-0.8108723
161	0x3ee08d87	0.43857977
162	0x3df4f665	0.119610585
163	0xbe268460	-0.16261435
164	0x3e403092	0.18768528
165	0xbe26a5b1	-0.16274144
166	0x3dd19a2e	0.102344856
167	0xbe67776f	-0.22604154
168	0xbcce9e1a	-0.025221873
169	0xbe200fc8	-0.1563102
170	0xbefdecde	-0.49594778
171	0x3e9c27d8	0.30499148
172	0xbbfde23e	-0.0077479174
173	0xbdac7375	-0.08420459
174	0x3e8bc55d	0.27299014
175	0xbe19dafb	-0.1502494
176	0x3d8d4e10	0.06899655
177	0x3d46ac27	0.04850402
178	0xbd8e7429	-0.069557495
179	0xbe553461	-0.20820762
180	0x3e251263	0.16120295
181	0xbdfa158c	-0.12211141
182	0x3d08387a	0.033256985
183	0x3e81032b	0.2519773
184	0x3dcc167a	0.099652246
185	0x3f0a6242	0.5405618
186	0xbf25ac38	-0.6471591
187	0x3df662ae	0.120305404
188	0xbd812062	-0.06305005
189	0x3eaba464	0.33523858
190	0xbe268653	-0.16262178
191	0x3dcfef9f	0.10153126
192	0xbdb180e6	-0.086671636
193	0x3d4ff33e	0.050769083
194	0x3eccb584	0.39982235
195	0x3cad5fea	0.0211639
196	0x3e15d213	0.14630918
197	0x3ed9762f	0.4247298
198	0x3f34ce28	0.7062707
199	0x3e40f06a	0.1884171
200	0x3ef80ab7	0.48445675
201	0x3ead20d0	0.33814096
202	0x3e1f5763	0.15560679
203	0xbf10603e	-0.56396854
204	0xbe4606fc	-0.19338602
205	0xbedac248	-0.4272635
206	0x3eb2e8f8	0.34943366
207	0x3e05faa4	0.13083893
208	0x3d8f9e66	0.07012634
209	0xbea72919	-0.32648543
210	0x3e120af3	0.1426199
211	0xbeffb831	-0.49945214
212	0x3e4fe1e1	0.2030101
213	0xbd9243b0	-0.071418166
214	0xbecf4034	-0.4047867
215	0x3e9e1ea6	0.30882758
216	0x3e9bbcda	0.3041752
217	0xbf24117b	-0.64089173
218	0xbed76eef	-0.42076823
219	0x3adf73a2	0.0017048011
220	0xbc8902b5	-0.016724924
221	0x3e97dcbd	0.29660597
222	0xbe5fa667	-0.21840821
223	0x3da6f4ed	0.08152185
224	0xbf6e648b	-0.93122166
225	0xbe75b81c	-0.23996013
226	0x3e98fa88	0.2987864
227	0x3d07e5fc	0.033178315
228	0xbe34a7fe	-0.17642209
229	0x3e13a032	0.14416578
230	0x3da9a1b7	0.08282798
231	0xbe2f9a64	-0.17148739
232	0x3d1ba771	0.03800148
233	0x3e738847	0.23782454
234	0xbd98bec1	-0.074582584
235	0xbe7d068c	-0.24709529
236	0x3e0c2503	0.13685994
237	0xbea09ed3	-0.31371173
238	0xbf05c5dd	-0.5225504
239	0x3d00559f	0.031331655
240	0xb9377cd2	-0.00017498739
241	0xbece00f4	-0.40235102
242	0x3d07c21d	0.033144105
243	0x3c96034a	0.018312115
244	0x3df6e5ea	0.120555714
245	0xbe4befbf	-0.19915675
246	0xbd0f7a6d	-0.035028864
247	0x3ec5be6d	0.38621846
248	0xbcc63346	-0.024194371
249	0x3e2e3352	0.17011765
250	0xbebb9a2f	-0.3664107
251	0x3d526068	0.05136147
252	0xbeb17c94	-0.34665358
253	0x3e38974c	0.18026465
254	0xbec19b79	-0.3781393
255	0x3eb6ffcb	0.3574203

arith.constant3 f4 [64]
0	0x40445f74	3.068326
1	0x3fb2b12c	1.3960319
2	0xbe6cc20b	-0.23120897
3	0x40863c09	4.1948285
4	0x40bbdc93	5.8706756
5	0x3fc9141e	1.5709264
6	0x408c309e	4.3809347
7	0x40697311	3.647648
8	0x40c3a27c	6.1135845
9	0x40bb69eb	5.8566794
10	0x410fa663	8.978122
11	0x403a1712	2.907658
12	0x3f4fb7ff	0.8114013
13	0xc0988ed8	-4.767437
14	0x40c72221	6.222916
15	0x4025a4c1	2.5881808
16	0xbf3876aa	-0.72056067
17	0x3f6d6ca6	0.9274391
18	0x408e0777	4.438411
19	0xbf508a5c	-0.8146112
20	0x40a36e3d	5.107207
21	0x40c13890	6.0381546
22	0x4086fae5	4.218127
23	0x40b644da	5.6959047
24	0x408100cd	4.0313478
25	0x40847d45	4.1402917
26	0x40b31027	5.5957217
27	0x40a0dd5f	5.027023
28	0x3f6cb72e	0.9246701
29	0x3f9744dc	1.1817889
30	0x40ce8a69	6.454396
31	0x40ee91f9	7.455319
32	0x4085657f	4.1686397
33	0x411fff67	9.999854
34	0x40ea57cf	7.323219
35	0x40d0d321	6.5257726
36	0x3f7285da	0.9473549
37	0x4003ce05	2.0594494
38	0x40c45432	6.1352777
39	0x40725abc	3.786788
40	0x40c79c7f	6.2378535
41	0x405f7037	3.491224
42	0x403077c5	2.7573102
43	0x4026e718	2.6078548
44	0x40ab3f9d	5.3515153
45	0x40d1245f	6.53569
46	0x406f2026	3.7363372
47	0x410c099d	8.752347
48	0x3fe1a9f8	1.7629995
49	0x4082a005	4.0820336
50	0x4098e1bc	4.7775555
51	0x40a865fd	5.2624497
52	0x4102d5ce	8.177198
53	0x3e4c9b4f	0.1998112
54	0x3fda932b	1.7076162
55	0x40ac6d93	5.3883758
56	0x40357f41	2.835892
57	0x40a7cddf	5.2438807
58	0xc0230de4	-2.5477228
59	0x3f74a50a	0.9556433
60	0x40aa0aa7	5.3138003
61	0x40a65d81	5.198914
62	0x406317df	3.548332
63	0x3fadc4d1	1.3575689

arith.constant4 f4 [128, 256]
0	0xc0cb206a	-6.347707
1	0xc0e6e6c6	-7.2156706
2	0x3eb88965	0.36042324
3	0xbf9da72a	-1.231664
4	0x40db8bd0	6.860817
5	0x40130593	2.2972152
6	0xc0846090	-4.1367874
7	0x3e991a08	0.29902673
8	0x40a4f006	5.1542997
9	0x3de82ccd	0.1133667
10	0xc0944d1d	-4.6344132
11	0x4041d8b1	3.0288508
12	0xc08a4426	-4.320819
13	0xc0cf20f5	-6.472773
14	0xbed48f79	-0.4151571
15	0x40465c9f	3.0994031
16	0xbed0f161	-0.40809157
17	0x40a20280	5.062805
18	0x3f0bc54e	0.5459794
19	0xc03f7833	-2.9917114
20	0x4004c92a	2.074778
21	0x3f546a3c	0.829746
22	0x409fd933	4.9952636
23	0xc0b38068	-5.6094246
24	0x3f822f99	1.0170776
25	0xc07f4c4a	-3.9890313
26	0x3ffcb641	1.974312
27	0xbea68eab	-0.32530722
28	0x3e880cde	0.26572317
29	0x40b408b5	5.626063
30	0xc0b9f978	-5.8117027
31	0x3ff9fd2e	1.9530389
32	0x409cf94b	4.9054313
33	0xbfd68163	-1.6758236
34	0x408ba32b	4.363668
35	0xbf2d5a65	-0.67716056
36	0x40315f44	2.7714396
37	0x3f8a454d	1.0802399
38	0xbfb7c514	-1.4357018
39	0x3dbecfcb	0.09316977
40	0x3fbaeb50	1.4603062
41	0xbfd51a01	-1.6648561
42	0xc07c9277	-3.9464395
43	0x3de4e03d	0.111755826
44	0xc08a7c8e	-4.3277044
45	0x3fac236c	1.344831
46	0xc000b21b	-2.0108707
47	0xc0916c42	-4.544465
48	0xbd8537ed	-0.065048076
49	0x3e289092	0.16461399
50	0xc08d3a92	-4.4133997
51	0xc08324e9	-4.0982556
52	0xc08d7cc3	-4.4214797
53	0x3fa1db0e	1.2644975
54	0x4004f32e	2.0773425
55	0x4092b619	4.5847287
56	0x3f6c5533	0.92317504
57	0xc0c0127f	-6.002258
58	0xc0a1390d	-5.038214
59	0xc005b163	-2.0889518
60	0xbc196966	-0.009363508
61	0xbf99a374	-1.2003007
62	0x40ec5460	7.3852997
63	0xc0e0a650	-7.020302
64	0x3f4d4b34	0.80192876
65	0x3fe0221a	1.7510407
66	0x4059b876	3.4018836
67	0xbee220dc	-0.44165695
68	0x4019c9ef	2.40295
69	0xc091ec67	-4.5601077
70	0xbfce029c	-1.6094546
71	0x3f557114	0.8337567
72	0x40226bce	2.5378299
73	0xbf75d58e	-0.96028984
74	0xbfa8721b	-1.3159822
75	0x40e57e4a	7.171666
76	0x40a40c35	5.12649
77	0xbf4373a9	-0.7634836
78	0xc00927da	-2.1430573
79	0x40c066f1	6.012566
80	0xbf7b2b3e	-0.9811286
81	0x3fafa022	1.3720744
82	0xbffd633a	-1.9795907
83	0x3ea4f8b4	0.32220995
84	0xbfcbeb3f	-1.5931166
85	0x403fda81	2.9977114
86	0xc05b36ce	-3.42522
87	0x40101c73	2.2517364
88	0xc0068f4f	-2.1024969
89	0xbf2c7a36	-0.6737398
90	0x40313c82	2.769318
91	0x40a9bb49	5.304112
92	0xc0cc9849	-6.3935895
93	0xc05a78b4	-3.4136171
94	0x3f8f1b25	1.1180159
95	0xc08b02cb	-4.344091
96	0x409a1157	4.8146167
97	0x406fcf47	3.7470262
98	0xbfaf28a1	-1.3684274
99	0xbf850aec	-1.0393958
100	0x3fc54e55	1.541453
101	0x40cf64b1	6.4810414
102	0xc05bdf47	-3.4355028
103	0xc09faf48	-4.9901466
104	0x3fb7654c	1.4327788
105	0x4010a42b	2.26002
106	0xbfc2eff6	-1.522948
107	0x40563c22	3.3474202
108	0xc0008988	-2.0083942
109	0x3f92d40f	1.1470965
110	0xbfb95ed8	-1.4482069
111	0xbe847036	-0.2586686
112	0x3fa52f13	1.2904991
113	0xbfbf8902	-1.4963686
114	0xc0c70ad7	-6.220073
115	0x3fb9909c	1.4497256
116	0xc0052c91	-2.080845
117	0x3fb1c18c	1.3887191
118	0x40093b34	2.1442385
119	0xbe954248	-0.2915213
120	0xbfeb8ecb	-1.8402952
121	0x3fbffbcc	1.4998717
122	0xbfb30036	-1.3984439
123	0xc0097f87	-2.1484087
124	0x3e51ffda	0.20507756
125	0x3e09d464	0.13459927
126	0xbf0e4644	-0.55575967
127	0x40618326	3.5236297
128	0xc0f39e22	-7.6130533
129	0x402cf19a	2.7022462
130	0x3f200f13	0.62523
131	0x40342d37	2.8152597
132	0x3f36e8a6	0.71448743
133	0x40202833	2.5024536
134	0xc00bacf2	-2.1824307
135	0xc08fa13e	-4.488433
136	0xc09517f1	-4.6591725
137	0x3f8cf715	1.1012903
138	0xc05dc013	-3.4648483
139	0xbf121f4e	-0.5707902
140	0xbf65da9e	-0.8978671
141	0x40b099a2	5.518754
142	0x4093583b	4.6045203
143	0x4021c847	2.527849
144	0x4067823d	3.617324
145	0xbe0123c4	-0.126113
146	0xbff83bf5	-1.9393297
147	0xc019e0bd	-2.404342
148	0x403142a6	2.769693
149	0x3f9e0a8f	1.2346972
150	0x4060afe7	3.5107362
151	0x4041a1bc	3.0254965
152	0x406b200c	3.673831
153	0x40a3ca09	5.1184125
154	0xbfb71cfb	-1.4305719
155	0xbf6e6b05	-0.9313205
156	0x3f56fca2	0.8397924
157	0xc0e07258	-7.013958
158	0xc0d9af3b	-6.8026404
159	0x3f364e3e	0.7121314
160	0x3f8ac776	1.0842121
161	0x401bb87d	2.4331353
162	0x400006d4	2.0004168
163	0x40658978	3.5865154
164	0xc042814e	-3.0391421
165	0xbf963271	-1.1734143
166	0x4038e333	2.8888671
167	0xc08a90f2	-4.3301935
168	0x40b109ae	5.5324316
169	0x3f868fcd	1.0512635
170	0x407f2342	3.986527
171	0x40a9f159	5.3107114
172	0x3f52f893	0.82410544
173	0xc04e3c3c	-3.2224264
174	0x3f785ee2	0.9701978
175	0x3d79064d	0.060797025
176	0xbe3d0dde	-0.18462321
177	0x3fab4d12	1.3382895
178	0xc019d4e4	-2.4036188
179	0xbffb9e58	-1.9657698
180	0xbedab17c	-0.42713535
181	0x3e22fcde	0.15916774
182	0x40bad2e1	5.838242
183	0x3f9c0b53	1.2190956
184	0xbf8845e6	-1.0646331
185	0xbf3de3ac	-0.74175525
186	0xbfa2d6ed	-1.272184
187	0xc120f2a6	-10.05924
188	0x401d89a5	2.4615262
189	0x404981d2	3.1485486
190	0x3fd1695d	1.6360279
191	0xc081ae1a	-4.0525026
192	0xbf326937	-0.69691795
193	0xbf2c07f2	-0.67199624
194	0xc1041e0d	-8.257337
195	0xc043e4b0	-3.060833
196	0xbef2d0cb	-0.4742492
197	0xbf2ffdbb	-0.68746537
198	0xc07ccf22	-3.9501424
199	0x3f07636e	0.5288609
200	0x40483a94	3.1285753
201	0xc06d46fd	-3.7074578
202	0xbf0692a4	-0.52567506
203	0xc0d5ea71	-6.6848683
204	0xbe95865e	-0.29204077
205	0x40465684	3.0990305
206	0x4102b85d	8.170011
207	0x40de46bb	6.946134
208	0x3f8880fa	1.066436
209	0xc06e4ac4	-3.7233133
210	0x408c29f7	4.3801227
211	0x3f293931	0.6610289
212	0x3f86a178	1.0518026
213	0xc08b717f	-4.3576045
214	0xbfa6d638	-1.3034124
215	0xc0bf641c	-5.9809704
216	0xc0fcd846	-7.9014006
217	0x3f110cb6	0.5666002
218	0xc046aa10	-3.1041298
219	0xbf0ee0e0	-0.5581188
220	0x40a046e2	5.0086527
221	0xbfed081c	-1.85181
222	0x3f1efd86	0.62105596
223	0xbf783e76	-0.9697031
224	0x3d265341	0.04060674
225	0x403b0bde	2.9225993
226	0x3fd30325	1.6485335
227	0xc045c124	-3.0899134
228	0xbff18489	-1.8868572
229	0x4017f635	2.3744023
230	0xc01e3c56	-2.4724326
231	0x40525b57	3.286825
232	0xc0933800	-4.600586
233	0xbf1d0fb7	-0.61352104
234	0x3de31731	0.11088408
235	0x3f585f76	0.8452066
236	0xbed81b32	-0.42208248
237	0x3d034329	0.03204647
238	0x3fa90ed8	1.3207655
239	0x3f9d1101	1.2270814
240	0xc09be56f	-4.871757
241	0xc0c1378e	-6.0380316
242	0xbf6db803	-0.92858905
243	0x4003c0f7	2.0586526
244	0x3fa021dd	1.2510334
245	0xc09d0f59	-4.9081235
246	0x40a6fce5	5.218371
247	0x3e60c3aa	0.2194964
248	0xc051d255	-3.2784626
249	0xc05ffc69	-3.499781
250	0x40c45c70	6.136284
251	0xc096699e	-4.7003927
252	0x406b84bf	3.6799772
253	0xbf5f8100	-0.87306213
254	0xbf17f704	-0.5936129
255	0x40831685	4.096499

arith.constant5 f4 [128]
0	0x406090fe	3.5088496
1	0xbe872dd7	-0.2640216
2	0xbfedd2ea	-1.8579991
3	0x400899c0	2.1343842
4	0x3fb76814	1.4328637
5	0x4093d187	4.619327
6	0xbe96e2a2	-0.29469782
7	0xc03985f7	-2.8988016
8	0xc02ddf47	-2.7167528
9	0xc0562690	-3.3461037
10	0xbf9a1e8d	-1.2040573
11	0x404ffa2b	3.249644
12	0xbfc31aa7	-1.5242509
13	0x3fb49406	1.4107673
14	0xbfac93ad	-1.3482567
15	0xbf37ea42	-0.71841824
16	0x3f6b98dc	0.9203012
17	0xc01e3859	-2.4721892
18	0xbfbadbba	-1.4598305
19	0x3fd9a8c5	1.7004629
20	0x3fd5055e	1.6642263
21	0x405f95c1	3.4935153
22	0x40679c4f	3.6189153
23	0x4003a123	2.05671
24	0xbfabd10b	-1.342317
25	0x3fcf7f42	1.6210711
26	0x4016cf15	2.3563893
27	0x4077224c	3.8614683
28	0xc00d441e	-2.2072825
29	0x4086fd5c	4.2184277
30	0x3fbf4e00	1.4945679
31	0xbfaead99	-1.3646728
32	0x3fdacede	1.7094381
33	0xc0199548	-2.3997364
34	0xbf0b3256	-0.5437368
35	0x3cb282b5	0.021790842
36	0x4013ee16	2.3114066
37	0x40753975	3.831632
38	0x3f576bb1	0.841487
39	0x4037896b	2.8677623
40	0xbf17c4be	-0.5928458
41	0xc0010e7a	-2.0165086
42	0xbfa51a30	-1.2898617
43	0x3ead3973	0.33832893
44	0xbfd510fa	-1.6645806
45	0x401bd80e	2.435062
46	0x3b9d7714	0.004805455
47	0xbe1473b7	-0.14497267
48	0x3f6daea7	0.92844623
49	0x400b722d	2.1788437
50	0x3f5dd8b8	0.8665881
51	0xbe9d517e	-0.30726236
52	0x3f88b834	1.0681214
53	0x40021023	2.032235
54	0x3f042734	0.5162232
55	0x40196218	2.3966122
56	0x3eead556	0.45865887
57	0xbf5fc23a	-0.8740574
58	0xbef8a135	-0.4856049
59	0x40515a8e	3.271152
60	0x3eaaa64a	0.33329993
61	0x400d42f8	2.2072124
62	0x404f010f	3.2344396
63	0xbebaf976	-0.3651845
64	0x401ac2b7	2.4181345
65	0x3e5c1224	0.21491295
66	0x3fa57255	1.2925516
67	0x3fbf1f62	1.4931452
68	0x4064ef2c	3.577098
69	0xbea30f4b	-0.31847605
70	0xbf22d318	-0.63603354
71	0x40868e76	4.2048903
72	0x4046e1c7	3.1075304
73	0x3f78e776	0.9722818
74	0x3ef44174	0.47706187
75	0xbffafc38	-1.9608221
76	0x406c8987	3.695894
77	0xc06d6fac	-3.709941
78	0xbfc564b8	-1.5421362
79	0x3fb88fc3	1.4418873
80	0xbe5c1d30	-0.21495509
81	0xbede6bf7	-0.43441746
82	0xbf83cd78	-1.0297079
83	0x3f9a2113	1.2041343
84	0xc07772f5	-3.8663914
85	0x40a820ea	5.254018
86	0x3e75be29	0.23998322
87	0x3e291dda	0.16515294
88	0x3f808474	1.0040421
89	0x3fb450bb	1.4087137
90	0xbfbe4720	-1.4865456
91	0x3ffc8f16	1.9731166
92	0xc033cf1c	-2.809516
93	0xc04bef04	-3.1864634
94	0xbff5d45f	-1.9205436
95	0xc0585407	-3.3801286
96	0xc002f989	-2.0464804
97	0x3dcf1ee0	0.10113311
98	0xbe673562	-0.22578958
99	0x3f6c30e8	0.92262125
100	0xbee726e7	-0.45146868
101	0x3f136fe5	0.5759261
102	0x400d731e	2.2101512
103	0x3f45d892	0.77283585
104	0xbf3c1682	-0.73471844
105	0x3e8924f5	0.26786008
106	0xc02ea1ce	-2.7286258
107	0x40087779	2.132292
108	0x400eeacf	2.2330816
109	0x40634182	3.5508733
110	0x404e84e2	3.2268605
111	0xbedb222f	-0.42799518
112	0x3fffd512	1.9986899
113	0x3f136a4b	0.57584065
114	0x40731d20	3.7986526
115	0xbf8ae1bf	-1.0850142
116	0x3f2e890b	0.6817786
117	0x3fbf0832	1.4924376
118	0x3fc806e0	1.5627098
119	0x3f9f3724	1.2438703
120	0xbff552e2	-1.9165919
121	0x400027fa	2.00244
122	0xbf9ffc4c	-1.249887
123	0x3fedc2b0	1.8575039
124	0x4028f028	2.639658
125	0xbf865bcc	-1.0496764
126	0x40507403	3.2570808
127	0x3f4bd00f	0.7961435

arith.constant6 f4 [256]
0	0xbbab519a	-0.0052282335
1	0xbacb3674	-0.0015503899
2	0xbcceceb6	-0.025245052
3	0xbd2368ec	-0.039894983
4	0x3c678d8c	0.0141328685
5	0x3d0ad390	0.033893168
6	0xbcaa1bb0	-0.020765156
7	0x3e72e103	0.23718648
8	0xbae52e2a	-0.0017485071
9	0xbcd6d862	-0.026226226
10	0xbc325020	-0.010883361
11	0x00000000	0.0
12	0xbc4b9a9f	-0.012427001
13	0xbca29ac9	-0.019849198
14	0x00000000	0.0
15	0xbca59a90	-0.020215303
16	0x3dd354a6	0.1031888
17	0x00000000	0.0
18	0x3d5ca5af	0.053868946
19	0xbbf89671	-0.0075862934
20	0xbc81271e	-0.015765723
21	0x3c8a4bef	0.016881911
22	0xbbd8cf73	-0.0066165267
23	0xbd2784e1	-0.040898208
24	0x00000000	0.0
25	0x00000000	0.0
26	0x00000000	0.0
27	0x3d712e10	0.05888182
28	0x3d197e78	0.037474126
29	0x3d16307f	0.036667343
30	0x00000000	0.0
31	0x00000000	0.0
32	0xbcc2f7ca	-0.023799796
33	0x3deba112	0.11505331
34	0x3c0f272a	0.008737365
35	0x3d6e67e1	0.058204535
36	0xbb6a6e3c	-0.0035771271
37	0xbd037274	-0.032091573
38	0x3d073fdd	0.03301989
39	0x00000000	0.0
40	0x3cd1ed6e	0.02562591
41	0xbc16211f	-0.00916317
42	0xbb0ef78e	-0.0021815035
43	0xbc2f225e	-0.010689346
44	0x00000000	0.0
45	0x3bf74695	0.007546256
46	0x3d4d3f2a	0.050109066
47	0x3d5f3752	0.054496117
48	0xbc7448a3	-0.014909896
49	0xbbc1b080	-0.005910933
50	0x3db03ffc	0.08605954
51	0x00000000	0.0
52	0xbb7c7894	-0.0038524019
53	0x3d58711a	0.052842237
54	0xbc13c4f3	-0.009019124
55	0xbc076cba	-0.0082656685
56	0x3d183f24	0.03716959
57	0x00000000	0.0
58	0x3d19afcd	0.037521172
59	0xbbb5584b	-0.005534207
60	0x3d508a75	0.050913293
61	0x3d2eff44	0.04272391
62	0xbc1aaf61	-0.009441228
63	0x00000000	0.0
64	0x3d11cf9e	0.03559839
65	0x3ce046a5	0.027377436
66	0x3d4e3418	0.05034265
67	0x3c9e2767	0.019305898
68	0xbb591cd3	-0.0033128753
69	0xbc7d8daf	-0.0154756745
70	0x3c09e6d2	0.008416848
71	0x00000000	0.0
72	0x3ce7ec2a	0.028310854
73	0x00000000	0.0
74	0xbaf99c25	-0.0019043727
75	0x00000000	0.0
76	0xbb0d2cf6	-0.0021541691
77	0x3cd88c5d	0.026434118
78	0xbaabbd4a	-0.0013102677
79	0x3a98c61d	0.0011655722
80	0x00000000	0.0
81	0xbb273cb8	-0.002551837
82	0x3cb25a86	0.02177168
83	0x3d24a3a8	0.040195137
84	0x00000000	0.0
85	0x00000000	0.0
86	0x00000000	0.0
87	0x00000000	0.0
88	0x3d193888	0.037407428
89	0x3b9ec37b	0.0048450804
90	0x3c20508f	0.009784832
91	0x00000000	0.0
92	0xbbb01e36	-0.005374695
93	0xbb3ac87f	-0.0028500853
94	0x00000000	0.0
95	0xbbc4c3f1	-0.0060048033
96	0x00000000	0.0
97	0x00000000	0.0
98	0x3dd75f19	0.10516185
99	0x3b3ad878	0.0028510373
100	0x3e422bbf	0.18962
101	0x3d6e38ae	0.058159523
102	0x3d9cf11c	0.076631755
103	0xbc4c7eb7	-0.012481383
104	0xbc87c59c	-0.01657372
105	0x3d49d437	0.04927465
106	0x3d78c221	0.06073201
107	0x00000000	0.0
108	0x3e2b6f1d	0.16741605
109	0x00000000	0.0
110	0x3cfce415	0.030870477
111	0x00000000	0.0
112	0x00000000	0.0
113	0x3cff1a5b	0.031140497
114	0xbc0a86d3	-0.008454996
115	0xbba91efd	-0.005161165
116	0xbc23034a	-0.009949515
117	0x00000000	0.0
118	0x3e0461b1	0.12927891
119	0x3c18450d	0.009293807
120	0xbcb25974	-0.02177117
121	0xbaa82b3d	-0.0012830269
122	0xbbafda4d	-0.0053665997
123	0x00000000	0.0
124	0x3bff332f	0.007788084
125	0x3e7e4a91	0.24833132
126	0x3cc96fce	0.024589445
127	0xbc4912ac	-0.012272518
128	0x3cd59b5c	0.026075058
129	0x3d77ac07	0.060466792
130	0xbd6db962	-0.058038123
131	0x3cb2ae11	0.021811517
132	0xbc3745af	-0.011186047
133	0xbbbf8cfc	-0.005845664
134	0xbd0dafb4	-0.03459139
135	0x3d879d45	0.06621794
136	0x00000000	0.0
137	0x3c4117b4	0.011785436
138	0xbbe473be	-0.0069718054
139	0x3ba2fc4f	0.004973925
140	0x00000000	0.0
141	0x3d849a42	0.06474735
142	0xbbc4c8e5	-0.006005394
143	0x3c4a3517	0.012341759
144	0xbc454811	-0.012041108
145	0x00000000	0.0
146	0x00000000	0.0
147	0xbb8a72e0	-0.00422512
148	0x37fcd4e0	3.0139869e-05
149	0x3d3de063	0.04635657
150	0x00000000	0.0
151	0x00000000	0.0
152	0x3e15f69e	0.14644858
153	0x00000000	0.0
154	0x3c577a26	0.013151681
155	0xbbec8519	-0.007218015
156	0x00000000	0.0
157	0x3c4199e7	0.011816478
158	0x3d529d59	0.05141959
159	0x00000000	0.0
160	0xbcb57a86	-0.02215315
161	0x3c27d329	0.010243216
162	0xbd135663	-0.035971057
163	0xbbeda045	-0.0072517716
164	0xbbbf8e70	-0.0058458373
165	0xba74bddf	-0.00093361543
166	0xbc475e1a	-0.012168432
167	0xbcd4dac4	-0.025983222
168	0xbbeb8365	-0.0071872943
169	0x3c40bfa9	0.011764445
170	0xbbc95166	-0.0061437367
171	0xbd28c01e	-0.041198842
172	0x39a98b14	0.00032337813
173	0x3d1a656d	0.037694383
174	0x00000000	0.0
175	0x3e400bc0	0.18754482
176	0x3d8b5cf7	0.06804841
177	0x3cf01ec0	0.029311538
178	0x3da7f516	0.08201043
179	0xbbd9f397	-0.0066513526
180	0x3e0fbdfd	0.14037319
181	0x3e9670b1	0.29382852
182	0x3d620014	0.055175856
183	0x3df05b39	0.11736149
184	0xbb206bee	-0.0024478394
185	0xbc035429	-0.008015671
186	0x00000000	0.0
187	0x3d03af78	0.032149762
188	0x3d7e52d2	0.062090702
189	0xbcd579e3	-0.026059097
190	0x3da28cca	0.0793701
191	0x3ce442b1	0.027863832
192	0x00000000	0.0
193	0xbc15f28f	-0.009152069
194	0x00000000	0.0
195	0xbce86777	-0.028369648
196	0x00000000	0.0
197	0x3b6c3f34	0.0036048414
198	0x3e814e1f	0.25254914
199	0x3bf2f8da	0.0074149193
200	0xbbfe9974	-0.007769758
201	0xbc8a91d1	-0.016915234
202	0x3e63425c	0.22193283
203	0x3e40d5c2	0.18831542
204	0xbbb9510a	-0.0056554126
205	0x3cb1b852	0.021694336
206	0xbd34d53e	-0.044148676
207	0xbca37f31	-0.01995811
208	0xbbad2cff	-0.005284905
209	0xbd2e1dd7	-0.042508926
210	0x00000000	0.0
211	0x3e0c6d18	0.13713491
212	0xbd055d94	-0.032559946
213	0x00000000	0.0
214	0xbb56f011	-0.00327969
215	0x00000000	0.0
216	0x3e22ca2d	0.15897436
217	0xbcc83363	-0.024438566
218	0xbc4f5c26	-0.012656247
219	0x3cb9dcce	0.022688296
220	0xbc54e47d	-0.012993929
221	0x3d99c2d6	0.07507865
222	0x00000000	0.0
223	0xbcd44886	-0.025913488
224	0x00000000	0.0
225	0x00000000	0.0
226	0x3e0ef8e3	0.1396213
227	0x3c2d711a	0.010586048
228	0xbc158c4a	-0.009127686
229	0xbcb075c8	-0.021540537
230	0xbc2a8a8f	-0.0104090115
231	0x3da615e2	0.081096426
232	0x3d15eadf	0.036600944
233	0xbce245be	-0.027621146
234	0x3e252b69	0.16129841
235	0x00000000	0.0
236	0xbc21ce55	-0.009875854
237	0x3ddc2c0d	0.107505895
238	0xbc0ac401	-0.008469583
239	0xbc474a12	-0.012163656
240	0xbad8b5fc	-0.0016533728
241	0x00000000	0.0
242	0x3ded4d7b	0.11587044
243	0x00000000	0.0
244	0x3d056f0c	0.032576606
245	0xbd2ded40	-0.042462587
246	0xbcacabfe	-0.021078106
247	0xbba48b6d	-0.0050215037
248	0x3cfc62fd	0.03080892
249	0xbbb9b454	-0.0056672487
250	0xb94d0804	-0.0001955331
251	0x00000000	0.0
252	0x3c56ba88	0.013105996
253	0xbba8226f	-0.005131058
254	0x3d16cc1e	0.036815755
255	0x00000000	0.0

sequential_1/dense_1/MatMul f4 [256, 42]
0	0x3dd92285	0.10602287
1	0xbcb9963b	-0.022654643
2	0x3d9efc26	0.07762937
3	0x3bc7f4b4	0.006102169
4	0x3b83dd06	0.004024151
5	0xbe12cf59	-0.1433691
6	0x3bc061fb	0.005871055
7	0xbde10879	-0.10987944
8	0xbe1652c6	-0.14680013
9	0xbdac8a3b	-0.08424803
10	0x3d8962b1	0.06708277
11	0x3d03351c	0.03203307
12	0xbe0c3a74	-0.13694173
13	0xbcdeaf6b	-0.027183255
14	0xbd3f4cfd	-0.04670428
15	0x3cc71f81	0.024307014
16	0x3ccffc7a	0.025388945
17	0x3e010fe8	0.12603724
18	0xbd191b33	-0.037379455
19	0x3dd19749	0.102339335
20	0x3dacde1a	0.084408
21	0x3dd5454f	0.1041361
22	0xbc751be4	-0.014960263
23	0xbe01604d	-0.12634392
24	0x3dcd3225	0.1001933
25	0xbc91e626	-0.017809939
26	0x3dc17eaf	0.09447991
27	0xbdc0fdac	-0.09423384
28	0xb6fa2c7f	-7.4557606e-06
29	0xbd8f313c	-0.069918126
30	0xbdacc069	-0.08435137
31	0xbd6ee9bc	-0.058328375
32	0x3dcde397	0.10053175
33	0x3dcff238	0.101536214
34	0xbdcfc17b	-0.10144325
35	0x3d9e743a	0.07737012
36	0xbe1355ae	-0.14388153
37	0xbdd6b69a	-0.10484047
38	0xbd0e197c	-0.034692273
39	0x3dcedc19	0.10100574
40	0xbd350fe8	-0.044204623
41	0xbddb094c	-0.106951326
42	0x3c753a98	0.014967583
43	0x3d3d36b5	0.04619475
44	0x3dbd7703	0.09251215
45	0x3dea28bc	0.11433551
46	0x3d8c043c	0.06836745
47	0xbd84a46d	-0.06476674
48	0xbe208fab	-0.15679805
49	0xbd67bfb8	-0.05657932
50	0xbd410515	-0.047123987
51	0x3d2df624	0.042471066
52	0xbdb4d30e	-0.08829318
53	0x3d082b65	0.03324451
54	0xbdd0e144	-0.10199216
55	0xbe4ad3cf	-0.19807361
56	0x3daf4605	0.08558277
57	0xbbd3e51c	-0.006466521
58	0x3d0ed936	0.034875117
59	0x3cdf1825	0.027233193
60	0xbd61a11d	-0.05508529
61	0xbdc2e0ef	-0.09515559
62	0x3d3109b6	0.04322215
63	0x3c57f18d	0.013180149
64	0x3dc1f5ca	0.09470709
65	0xbc5b4425	-0.013382946
66	0x3ca57b7f	0.02020049
67	0xbd934bca	-0.0719219
68	0xbd3c72df	-0.046007987
69	0xbdb189f3	-0.0866889
70	0xbdff8597	-0.12476652
71	0x3b1fcf24	0.002438494
72	0xbe29099a	-0.16507569
73	0x3e3f5a29	0.18686737
74	0x3da6df8e	0.081481084
75	0xbd9bd744	-0.07609418
76	0xbd59c39f	-0.053165074
77	0x3d1a62d1	0.037691895
78	0x3d9de47d	0.07709596
79	0x3dfbb37c	0.12290093
80	0x3d538702	0.051642425
81	0xbd5d5f0d	-0.054045726
82	0xbd99d3f7	-0.07511132
83	0xbe08ad72	-0.13347414
84	0xbdb6917f	-0.0891447
85	0x3d3e148e	0.04640632
86	0x3dc60500	0.096689224
87	0x3cdc23fd	0.02687263
88	0xbd1c9a47	-0.038233068
89	0x3ce72e8d	0.02822044
90	0x3d5b0552	0.05347187
91	0x3dc1f5b1	0.0947069
92	0xbe4120f2	-0.18860224
93	0xbc9e4eaa	-0.01932462
94	0x3dd6d743	0.10490277
95	0x3cb736a6	0.022364926
96	0x3d24c207	0.0402241
97	0xbd8fe0c1	-0.0702529
98	0x3d52fdfe	0.051511757
99	0xbc3743b9	-0.01118558
100	0xbe223ae1	-0.15842773
101	0xbc85ade5	-0.016318271
102	0xbd9197e1	-0.07109047
103	0xbdafb622	-0.08579661
104	0x3d002dbf	0.031293627
105	0x3d8d6528	0.0690406
106	0xbdf1dd54	-0.11809793
107	0xbe030218	-0.12793767
108	0x3db6c897	0.08924978
109	0xbdb5f15f	-0.088839285
110	0x3dd07449	0.1017843
111	0x3d47f9e9	0.048822317
112	0xbdebd083	-0.1151438
113	0x3de2ad52	0.110682145
114	0xbdce20d9	-0.10064859
115	0x3d9d4c00	0.076805115
116	0x3dc6d2f7	0.09708207
117	0xbd9e9c92	-0.07744707
118	0xbe04dca6	-0.12974796
119	0x3c4276dd	0.0118691595
120	0x3d4630ec	0.0483865
121	0xbdd4dce2	-0.103936926
122	0xbd8db6ee	-0.06919657
123	0xbd1b4688	-0.03790906
124	0x3deff1e9	0.117160626
125	0xbd710365	-0.058841128
126	0xbc8dd600	-0.017313957
127	0xbda6cede	-0.081449255
128	0x3c7ad098	0.015308522
129	0x3dc1650b	0.094431005
130	0xbcb060e5	-0.021530578
131	0x3e189a65	0.14902647
132	0x3dcc4d71	0.09975708
133	0xbe0b1b26	-0.13584575
134	0xbcf78d4d	-0.030218745
135	0xbdcf8bd1	-0.1013409
136	0x3ce46e15	0.027884522
137	0x3da7073b	0.08155676
138	0xbe4611fb	-0.19342797
139	0x3dac4c02	0.08412935
140	0xbd3a2cc4	-0.045452848
141	0xbdff908f	-0.12478744
142	0x3b489260	0.0030604824
143	0x3d849bf3	0.064750575
144	0x3a87efeb	0.0010371184
145	0xbe08e9d7	-0.13370453
146	0xbd9d9b17	-0.07695597
147	0xbe079692	-0.13241032
148	0x3c9129d0	0.017720133
149	0x3dcf9448	0.10135704
150	0x3d97a73e	0.07404946
151	0x3a2dd617	0.0006631328
152	0xbc1b5921	-0.009481699
153	0x3c8c30e9	0.017113166
154	0x3de4db24	0.1117461
155	0x3dc65346	0.09683852
156	0xbe0e0953	-0.13870744
157	0x3cda2dee	0.02663323
158	0x3d871d63	0.06597402
159	0xbe000d9a	-0.12505189
160	0xbccd5dcb	-0.025069138
161	0xbe3da030	-0.18518138
162	0xbd8ee6da	-0.06977625
163	0x3cf3e44b	0.029771945
164	0x3c9c65fb	0.019091597
165	0x3d3950c8	0.045243055
166	0xbdc2bb58	-0.09508389
167	0x3df27af7	0.1183986
168	0x3c9feac2	0.019521121
169	0x3dae0438	0.084968984
170	0xbdd0a1b9	-0.10187096
171	0x3e0ef50b	0.13960664
172	0xbdafe41a	-0.08588429
173	0x3d36f3fb	0.04466627
174	0x3d6edec8	0.05831793
175	0xbbc9c6f9	-0.0061577526
176	0x3d9046ad	0.0704473
177	0xbe3d33ed	-0.1847684
178	0xbdb7173f	-0.08939981
179	0x3c0b6d9e	0.0085100215
180	0x3d9d375b	0.07676574
181	0x3d0653e9	0.032794867
182	0x3e081e9d	0.13292928
183	0x3de51c85	0.1118708
184	0xbd9b067f	-0.075695984
185	0xbe264585	-0.16237457
186	0x3dff9978	0.12480444
187	0x3dba0ef0	0.0908488
188	0xbdb47a63	-0.08812406
189	0x3b0ba636	0.0021308786
190	0xbcc6a3fc	-0.024248116
191	0x3de1991f	0.11015534
192	0x3d0b7f7e	0.034057133
193	0xbb2829e4	-0.0025659734
194	0xbe0bb744	-0.13644129
195	0xbde3968e	-0.111127004
196	0xbdcfe537	-0.10151141
197	0xbe25ec6e	-0.16203472
198	0x3ca5e43b	0.02025043
199	0x3ced6a1a	0.028981257
200	0x3e08a526	0.13344249
201	0xbe4dc514	-0.2009471
202	0xbdd01afe	-0.10161398
203	0xbe0dd4e0	-0.13850737
204	0x3ca05a97	0.019574447
205	0xbd35d124	-0.044388905
206	0xbc4af6ba	-0.012387926
207	0x3d88bde7	0.06676846
208	0xbdaca0b8	-0.08429092
209	0x3d9dbca5	0.07701997
210	0xbe063001	-0.1310425
211	0x3d51df50	0.051238358
212	0x3d065b4d	0.032801915
213	0xbdb2d359	-0.087317176
214	0xbd37c1f4	-0.044862702
215	0xbe2f3564	-0.1711021
216	0xbdd72b5d	-0.10506318
217	0xbcb75386	-0.022378694
218	0xbdbc648b	-0.091988645
219	0xbe0524aa	-0.13002267
220	0x3e05e977	0.13077341
221	0x3d9947b7	0.07484382
222	0xbda6915c	-0.08133194
223	0x3dbd14e8	0.09232503
224	0xbe2c7c42	-0.16844276
225	0x3dd5e9c7	0.1044498
226	0x3d475150	0.04866153
227	0x3d307547	0.043080594
228	0x3d109706	0.035300277
229	0xbd242b62	-0.040080436
230	0x3da153f7	0.07877343
231	0x3bc2ae31	0.0059411754
232	0xbc0e8b7a	-0.008700246
233	0xbb30e580	-0.0026992261
234	0xbd98e1c1	-0.07464934
235	0xbe07c459	-0.13258494
236	0x3defb082	0.11703588
237	0xbdea4905	-0.114397086
238	0x3c8d8ef8	0.017280087
239	0xbd376936	-0.04477807
240	0x3d6f5d18	0.05843839
241	0x3e0b1a55	0.13584264
242	0x3c001e7c	0.007819768
243	0xb80d3726	-3.366838e-05
244	0x3c4934fd	0.0122807
245	0x3d4a71b1	0.04942483
246	0x3dedda58	0.116139114
247	0xbd87f6c4	-0.06638864
248	0xbdffd5cc	-0.124919504
249	0x3ca6615f	0.020310102
250	0x3c21c466	0.009873485
251	0x3c344d11	0.011004702
252	0xbde3c77e	-0.111220345
253	0x3ca91937	0.020641906
254	0x3d81cf18	0.06338328
255	0x3cc8790c	0.024471782
